cls_param/Houston/best_model.pth (torch, 752630 bytes, 316 tensors)

encoder_pos_embed1 f4 [1, 16, 4, 4]
-0.765987 0.24909416 -0.815641 1.0067581 1.1033218 -0.98708767 1.3569202 2.1949575
0.43404338 -1.2262695 0.6860507 -0.529751 -0.8715313 0.5288766 -0.5371618 0.7143057
-1.3013809 -1.4138066 -1.3544077 0.22013941 -0.1958509 -0.817872 -2.150393 -0.52078426
-0.40046528 -1.6580913 0.45249093 -0.17722568 -0.94293916 1.0996902 0.79787165 1.1946722
0.80509126 0.1722736 0.18606634 0.060782377 0.7048714 -0.616419 -0.14114077 1.667088
1.0432694 -1.1625222 -0.25331128 0.009893543 0.85722387 -2.2321725 -0.15895101 -0.025193755
-1.5273755 -0.21722072 -0.3518864 0.45167875 -1.5386144 -2.3768303 0.48442447 -0.15376846
0.7559189 1.4392169 -2.227252 0.46443042 -0.11102949 -0.1409006 -0.12582158 0.40496674
1.7317119 1.0723107 0.99950707 0.7944134 -0.90853167 -0.11576513 1.3518946 -1.6105573
-1.3081235 2.8663445 -0.10380331 0.41102308 0.14289927 -0.046334527 0.62358445 -0.3575771
-0.64612556 -0.54299974 0.17751573 0.66320336 0.5328595 1.5097094 1.3393036 0.33345076
0.36030734 -2.205108 0.2056718 0.023120817 1.4090017 0.2682445 0.745878 -0.79456127
-1.6781546 -1.2701786 -0.13214949 -2.324661 2.3819768 0.107586086 -1.0454111 -0.1662552
-0.6556261 -0.99707043 2.3888521 1.7755246 -0.23415565 -0.87294024 -0.96811765 -1.4552263
-0.48314032 -0.6077916 0.29404843 -0.045007925 0.037819292 -0.99748635 0.17797694 -1.1971567
-0.50465155 0.5667306 -0.99667567 -0.8815791 1.8265034 1.0355287 -1.620615 0.8817332
-0.14386524 -0.41821063 1.3371081 -0.00093571376 0.6113713 -1.0174367 -0.06412749 -1.4171636
-1.4211767 0.72290343 -0.7041953 0.44911182 1.090276 1.8687729 -1.8054368 -0.1716173
0.72815 0.070120156 -1.4525248 0.020981414 -1.2061108 -1.1566777 -0.9978103 0.3092796
-0.9639488 -0.11638248 -1.7206929 -0.5145479 -0.020999964 0.67014694 1.2169788 0.3304178
-1.1786201 -0.032250024 1.1198657 -0.7548616 -0.6855886 0.3411876 -0.6009403 0.13499452
0.7610184 -0.029017398 -0.8828968 -1.0195476 0.09985024 -1.8831807 1.2122339 1.1886271
-0.26547003 0.46599397 -0.71854 0.66816837 0.11522999 -0.876999 0.8134459 0.6407812
-0.75419474 -0.71715504 -0.34433478 0.13459809 -1.6689475 -0.71044016 -1.1261853 -1.1114676
0.27418575 -0.3986143 0.6734733 -0.92568654 -1.6877003 -2.2200825 -1.0389799 -1.5357456
0.8941868 -0.7087098 -0.5756286 -1.1548167 -1.4552675 0.21538459 -0.16970971 -0.89658165
-2.5525177 1.3248596 -0.73066354 0.07137838 0.25882512 0.062457588 1.4123888 0.9868484
0.21501656 -1.6808472 -0.632923 0.150099 0.36936927 -0.5548019 -1.5093656 1.6810596
-0.41786218 -0.1338084 1.3771259 0.299372 1.5510328 -1.4555221 0.20572256 1.4835831
1.2394161 -0.13266057 0.09561172 1.3895651 1.0589998 0.22661665 -0.09798606 -0.7803108
-0.15886766 0.23319283 -0.41415372 0.27578306 -0.24006104 -1.5735016 -0.15749161 -0.39316016
-0.6938355 -0.7124393 -1.5107294 0.30754122 1.1683546 -0.24444586 0.050979767 -0.363947
00000000: b917 44bf 8a12 7f3e d9cd 50bf 73dd 803f
00000010: a639 8d3f c7b1 7cbf 90af ad3f 2f7a 0c40
00000020: ef3a de3e 66f6 9cbf 05a1 2f3f c39d 07bf
00000030: ad1c 5fbf 7564 073f 7083 09bf bddc 363f
00000040: a693 a6bf 9df7 b4bf 3b5d adbf 3a6c 613e
00000050: 238d 48be 0f60 51bf 0aa0 09c0 1e52 05bf
00000060: c909 cdbe 563c d4bf e4ac e73e a67a 35be
00000070: 7664 71bf a6c2 8c3f 5141 4c3f 05eb 983f
00000080: 761a 4e3f 7e68 303e 2d88 3e3e f1f6 783d
00000090: 7472 343f a3cd 1dbf 3587 10be 2463 d53f
000000a0: da89 853f 87cd 94bf 04b2 81be 8718 223c
000000b0: 0673 5b3f eadb 0ec0 0ec4 22be 2263 cebc
000000c0: 0a81 c3bf 1c6f 5ebe 742a b4be 7042 e73e
000000d0: 51f1 c4bf fd1d 18c0 7c06 f83e 7b75 1dbe
000000e0: e783 413f 4238 b83f 4c8b 0ec0 d3c9 ed3e
000000f0: 6e63 e3bd 3f48 10be 5fd7 00be cd57 cf3e
00000100: bca8 dd3f 7a41 893f b2df 7f3f ad5e 4b3f
00000110: 8895 68bf 4516 edbd e20a ad3f be26 cebf
00000120: 9770 a7bf 3072 3740 d496 d4bd 9e71 d23e
00000130: 3054 123e 46c9 3dbd 3ba3 1f3f 5814 b7be
00000140: 7c68 25bf 0802 0bbf afc6 353e b2c7 293f
00000150: 7b69 083f 283e c13f 4d6e ab3f 0fba aa3e
00000160: 347a b83e 7d20 0dc0 a19b 523e de67 bd3c
00000170: 2b5a b43f 5857 893e dcf1 3e3f 5e68 4bbf
00000180: c5cd d6bf 3695 a2bf 3252 07be 3fc7 14c0
00000190: 4f72 1840 1856 dc3d 08d0 85bf ce3e 2abe
000001a0: 1dd7 27bf 0240 7fbf f4e2 1840 6444 e33f
000001b0: 80c6 6fbe 0379 5fbf 8fd6 77bf db44 babf
000001c0: 2b5e f7be 3b98 1bbf 848d 963e 3b5a 38bd
000001d0: 67e8 1a3d 445b 7fbf 963f 363e 6e3c 99bf
000001e0: d830 01bf 4215 113f 2326 7fbf 2baf 61bf
000001f0: ddca e93f 348c 843f 5070 cfbf 44b9 613f
00000200: 6951 13be b41f d6be 5c26 ab3f b04a 75ba
00000210: d482 1c3f 5e3b 82bf 4655 83bd 9e65 b5bf
00000220: 1ee9 b5bf 3310 393f 2546 34bf fcf1 e53e
00000230: 2a8e 8b3f f333 ef3f 8e18 e7bf 72bc 2fbe
00000240: 0a68 3a3f 289b 8f3d 55ec b9bf 37e1 ab3c
00000250: d761 9abf 040e 94bf 7f70 7fbf e559 9e3e
00000260: 59c5 76bf f059 eebd aa3f dcbf 69b9 03bf
00000270: 1e08 acbc c08e 2b3f f6c5 9b3f 862c a93e
00000280: 06dd 96bf 9a18 04bd c257 8f3f 9c3e 41bf
00000290: bc82 2fbf 24b0 ae3e 39d7 19bf 013c 0a3e
000002a0: 1ad2 423f e5b5 edbc 8605 62bf 8980 82bf
000002b0: 487e cc3d 110c f1bf 7b2a 9b3f ef24 983f
000002c0: b0eb 87be c396 ee3e 3df2 37bf 150d 2b3f
000002d0: b3fd eb3d 0283 60bf fe3d 503f 3d0a 243f
000002e0: e812 41bf 7997 37bf a64c b0be 15d4 093e
000002f0: 12a0 d5bf 68df 35bf d726 90bf 9244 8ebf
00000300: 1362 8c3e 2c17 ccbe bf68 2c3f cbf9 6cbf
00000310: 9006 d8bf d515 0ec0 4bfd 84bf 5093 c4bf
00000320: 6de9 643f 016e 35bf 655c 13bf 09d1 93bf
00000330: 3546 babf c78d 5c3e 62c8 2dbe 6086 65bf
00000340: 735c 23c0 0095 a93f c40c 3bbf d42e 923d
00000350: ba84 843e 87d3 7f3d 28c9 b43f 19a2 7c3f
00000360: 4d2d 5c3e 0026 d7bf 3e07 22bf 8db3 193e
00000370: f81d bd3e 7f07 0ebf e432 c1bf f62c d73f
00000380: 08f2 d5be 1205 09be a945 b03f 4947 993e
00000390: 3e88 c63f 8c4e babf efa8 523e 0de6 bd3f
000003a0: 30a5 9e3f 2cd8 07be 14d0 c33d 45dd b13f
000003b0: 4e8d 873f 320e 683e eaac c8bd 73c2 47bf
000003c0: 34ae 22be 1aca 6e3e f50b d4be 7033 8d3e
000003d0: 90d2 75be 8068 c9bf 7b45 21be 4a4c c9be
000003e0: 349f 31bf 6c62 36bf 955f c1bf 0b76 9d3e
000003f0: a58c 953f 0450 7abe 29d0 503d 4357 babe

encoder_pos_embed2 f4 [1, 32, 2, 2]
-2.6102757 -2.3401113 1.7752798 -0.11302051 -0.027081855 0.33470067 1.6367567 -0.2881727
0.73991704 0.17313445 0.23425795 0.50452226 0.82043326 0.4608167 1.1606828 1.4936739
0.75478506 -1.6835268 0.57307744 -0.44889134 0.2624662 1.0107825 0.44276983 0.475774
-0.83887994 -0.855766 1.6875706 1.016545 -0.15463024 0.90703493 2.098183 -1.9463983
-1.5711056 0.2289904 -0.90183616 0.021831837 2.9843044 -1.3821325 -0.2650453 1.5250037
0.69256717 1.2383854 1.582596 -0.94411594 0.7924005 0.5324112 1.0018394 -0.4098838
-0.23748338 -0.026566977 1.8449341 -0.7699256 0.60381085 1.09752 0.8129074 -0.93003005
0.2660486 0.11966297 0.5610029 0.5089233 0.15204579 0.31713617 0.39268985 1.7505467
0.04868996 -0.95914966 -1.0153457 -0.58026934 0.35113832 -1.2618792 -0.7151083 -0.10744905
-0.51020455 0.80026734 -0.7533605 -0.017038662 0.5494164 -0.05049034 0.77946573 -0.73849475
1.004973 0.75493705 0.040562153 1.5825926 -0.08587217 0.34206784 -0.8289049 -0.35118258
2.666863 1.7136583 1.0430604 -1.4895592 -0.3892257 -1.7955219 -0.24511234 -0.5254552
2.076331 -1.0027844 -0.48000604 0.027897537 -0.3181413 -0.39451107 1.0259418 -1.4074241
1.0479573 -1.0738716 1.098554 1.885445 1.2787082 -0.18631437 -1.2601904 0.055881314
0.9693856 -0.55641097 -0.23736215 -1.7967912 -1.7431368 -1.1827352 1.4674264 0.42594463
2.2338424 -1.7918425 0.93862957 0.1642782 -0.48397478 1.3409144 -0.7365654 -1.5463724
00000000: c20e 27c0 62c4 15c0 5e3c e33f 4c77 e7bd
00000010: c4da ddbc e35d ab3e 3e81 d13f 5f8b 93be
00000020: 346b 3d3f 284a 313e 51e1 6f3e 5f28 013f
00000030: ea07 523f 2bf0 eb3e 4191 943f b530 bf3f
00000040: 9839 413f ce7d d7bf 34b5 123f 16d5 e5be
00000050: f861 863e 5261 813f bab2 e23e a698 f33e
00000060: d6c0 56bf 7b13 5bbf 5002 d83f 261e 823f
00000070: 6457 1ebe 7133 683f a148 0640 9423 f9bf
00000080: fd19 c9bf 767c 6a3e bcde 66bf aed8 b23c
00000090: d8fe 3e40 b8e9 b0bf 04b4 87be 5233 c33f
000000a0: 154c 313f 6a83 9e3f 8192 ca3f 95b1 71bf
000000b0: c2da 4a3f 1a4c 083f 463c 803f 4adc d1be
000000c0: d82e 73be fda2 d9bc cd26 ec3f d819 45bf
000000d0: 5993 1a3f 897b 8c3f b31a 503f 7316 6ebf
000000e0: 8637 883e dc11 f53d e39d 0f3f cc48 023f
000000f0: e4b1 1b3e ac5f a23e a50e c93e ea11 e03f
00000100: 206f 473d d58a 75bf d9f6 81bf 888c 14bf
00000110: 67c8 b33e 4285 a1bf 5611 37bf 3f0e dcbd
00000120: c49c 02bf 52de 4c3f 3cdc 40bf aa94 8bbc
00000130: 8ea6 0c3f f5ce 4ebd 118b 473f fe0d 3dbf
00000140: f5a2 803f 8e43 413f 8024 263d 6592 ca3f
00000150: c0dd afbd 8423 af3e 1d33 54bf 34ce b3be
00000160: e2ad 2a40 2859 db3f 0183 853f e0a9 bebf
00000170: 9748 c7be a9d3 e5bf bbfe 7abe 3b84 06bf
00000180: 9be2 0440 3d5b 80bf 5ac3 f5be 6089 e43c
00000190: 6be3 a2be 5bfd c9be 1052 833f 7926 b4bf
000001a0: 7723 863f a074 89bf 6b9d 8c3f 4356 f13f
000001b0: b6ac a33f 32c9 3ebe eb4d a1bf cee3 643d
000001c0: a829 783f f370 0ebf 100f 73be 41fd e5bf
000001d0: 1b1f dfbf de63 97bf a1d4 bb3f 6a15 da3e
000001e0: 46f7 0e40 185b e5bf 074a 703f 8b38 283e
000001f0: 8bcb f7be 15a3 ab3f 8d8f 3cbf 88ef c5bf

encoder_pos_embed f4 [1, 15, 16, 16]
0.6243337 -0.4833547 -1.4198525 0.25527504 0.68907356 0.27938044 0.72346413 -0.8884448
-0.14566547 0.14415705 -1.3853264 1.916286 0.9866832 0.5589775 0.85749996 1.031891
0.79921776 0.3172796 -1.3508241 1.444176 -1.2037237 0.28052863 0.47364038 0.36640155
-0.733182 1.115837 1.3715268 -0.51257485 0.5352294 -1.057787 1.7766545 -0.3233188
0.39821 -0.13346109 -0.7040839 -0.3839867 -0.47155204 0.022265885 0.0044907387 0.7613436
0.81861293 0.40377617 -1.673699 0.30515674 0.40080822 -0.5860167 1.1418155 -1.1010257
-1.580753 -0.40683955 -1.5651307 -0.7524389 0.7214052 0.30411345 -0.7715142 0.34699404
0.63040084 -0.5473784 0.29473132 -1.8073828 -0.1888306 0.033111297 -0.4196594 2.2641456
1.351648 1.6334795 -1.3269589 0.31186447 -0.2463265 0.9046942 -1.3085161 0.51130134
0.5636292 0.14905939 -1.890588 0.32413003 -1.0547771 1.0495276 -1.0247239 0.74100703
-2.0278068 -1.2587972 -1.5261769 0.15216927 0.6568216 1.8185341 -0.68029565 -0.2485087
-0.3723475 0.97025627 -0.980077 -0.8511164 1.6492685 -0.36275193 -0.60868067 -0.1479339
-0.7449313 -0.11325457 -0.5484201 1.3001083 -1.762269 -0.23094845 -0.9974011 0.9151729
0.761667 -0.1920401 -0.4871977 -2.0333688 -0.30817014 -1.9851174 0.0680944 1.481018
0.5314166 -0.5766329 0.41172817 -1.865059 0.21372086 1.3203529 -1.4251442 -0.9318124
1.0306515 -0.4474777 1.1093501 -0.85228664 -1.3486601 -1.6984389 -1.4894217 -1.3850372
0.18409553 -0.8446283 0.7606103 1.4970461 1.9626278 -0.6045889 1.4800946 1.1238708
0.28268087 2.1813962 0.9022596 0.9211074 0.15884839 0.5402072 0.37269917 -0.2052802
0.7806804 0.37619734 0.33317786 -2.8656516 -2.1388488 -1.7047637 0.8293829 0.9787602
-0.47790146 0.68462056 1.6387825 1.4283162 0.24630556 1.3319312 0.31785333 -0.7426382
0.49867052 0.14503434 -0.485834 -0.06290003 0.3470309 0.29649392 -0.2114345 -0.19085906
-0.26396433 -0.18943295 0.56453824 -0.4749308 -0.4767302 -1.1586629 -0.9914104 -0.14138602
-1.114559 1.5574636 -0.23727416 1.5507197 -1.2097049 -0.25617778 1.9334403 1.1945401
-1.4303292 -0.33085245 1.0713683 0.36214304 0.82812405 -1.7481996 1.2653961 -0.65323424
-1.947019 0.3534652 -0.11713503 0.57874596 -0.55280834 1.7005503e-05 -0.23338042 0.12756935
-0.30938226 -1.2943382 -0.25124335 1.2170726 0.5932531 -1.7021049 0.05947394 0.68898
-0.6127013 -0.28395247 0.21459325 -0.3585533 0.5074195 0.50888443 0.70136976 0.020692594
0.98952204 0.19514526 -1.7461817 -0.42870554 1.830035 -0.012116045 0.30736637 -0.85528857
-1.6928219 -0.83128786 0.5410745 0.42663136 -0.4274533 -0.7345093 0.2462924 0.2611539
-0.5264306 -0.65021247 1.7987329 0.54392004 2.024952 -1.725116 -1.1082506 -0.27332187
1.9538326 -1.0487635 0.64611936 0.015888961 -1.031071 -1.1284416 0.27276787 -0.19012558
-0.22110318 1.1101985 -0.40334186 -0.20706606 -0.15660417 0.30898345 -2.0627828 -0.28453735
00000000: 55d4 1f3f 447a f7be babd b5bf 69b3 823e
00000010: 2067 303f f40a 8f3e f234 393f 1e71 63bf
00000020: 5429 15be e89d 133e 6052 b1bf dc48 f53f
00000030: 4597 7c3f 2619 0f3f 1e85 5b3f 0115 843f
00000040: 8999 4c3f 7972 a23e cee7 acbf c2da b83f
00000050: 9e13 9abf 73a1 8f3e fe80 f23e fc98 bb3e
00000060: d1b1 3bbf bfd3 8e3f 318e af3f 1b38 03bf
00000070: cb04 093f 9065 87bf 6a69 e33f 0b8a a5be
00000080: 2ee2 cb3e 06aa 08be d83e 34bf e899 c4be
00000090: 456f f1be f266 b63c 0c27 933b 6ae7 423f
000000a0: 9e90 513f c0bb ce3e c53b d6bf 813d 9c3e
000000b0: bc36 cd3e 3105 16bf 0327 923f 69ee 8cbf
000000c0: 1d56 cabf 464d d0be 3456 c8bf d69f 40bf
000000d0: 03ae 383f c2b4 9b3e f481 45bf 34a9 b13e
000000e0: f361 213f fe20 0cbf 06e7 963e 5258 e7bf
000000f0: cf5c 41be b69f 073d 99dd d6be c3e7 1040
00000100: cd02 ad3f db15 d13f cad9 a9bf b3ac 9f3e
00000110: 043d 7cbe 0a9a 673f 757d a7bf a5e4 023f
00000120: 014a 103f 06a3 183e cafe f1bf 5ff4 a53e
00000130: f002 87bf ec56 863f 272a 83bf a3b2 3d3f
00000140: 96c7 01c0 4420 a1bf c459 c3bf 43d2 1b3e
00000150: 7625 283f bac5 e83f db27 2ebf 1179 7ebe
00000160: 55a4 bebe b762 783f 54e6 7abf c4e2 59bf
00000170: 3b1b d33f 9fba b9be 7fd2 1bbf fc7b 17be
00000180: d1b3 3ebf 03f2 e7bd 4265 0cbf f369 a63f
00000190: 0892 e1bf c07d 6cbe ae55 7fbf c548 6a3f
000001a0: 9cfc 423f 29a6 44be fa71 f9be b722 02c0
000001b0: 7ac8 9dbe 5418 febf 1475 8b3d ff91 bd3f
000001c0: eb0a 083f 379e 13bf 09ce d23e 41ba eebf
000001d0: a4d9 5a3e 5301 a93f 206b b6bf 428b 6ebf
000001e0: 63ec 833f cc1b e5be 2fff 8d3f 752f 5abf
000001f0: e5a0 acbf 7266 d9bf 5fa5 bebf e648 b1bf
00000200: 8a83 3c3e 8f39 58bf 5bb7 423f 359f bf3f
00000210: 6337 fb3f 57c6 1abf bd73 bd3f 00db 8f3f
00000220: 8cbb 903e ff9b 0b40 7cfa 663f b2cd 6b3f
00000230: 27a9 223e 054b 0a3f 6dd2 be3e f934 52be
00000240: acda 473f f09c c03e 4a96 aa3e d666 37c0
00000250: e6e2 08c0 b235 dabf 7052 543f 0790 7a3f
00000260: 80af f4be 4b43 2f3f a0c3 d13f 11d3 b63f
00000270: 8637 7c3e b97c aa3f acbd a23e 891d 3ebf
00000280: be51 ff3e e283 143e 3cbf f8be bbd1 80bd
00000290: 09ae b13e 0dce 973e 4982 58be 8f70 43be
000002a0: 5526 87be b6fa 41be 9485 103f 212a f3be
000002b0: fb15 f4be 114f 94bf 12cd 7dbf 7fc7 10be
000002c0: dfa9 8ebf f85a c73f fff7 72be fc7d c63f
000002d0: 9cd7 9abf bc29 83be f97a f73f b1e6 983f
000002e0: 0715 b7bf 7e65 a9be 9922 893f d06a b93e
000002f0: f0ff 533f 01c5 dfbf 80f8 a13f 5c3a 27bf
00000300: eb37 f9bf 64f9 b43e 7ee4 efbd b228 143f
00000310: d984 0dbf 0aa7 8e37 47fb 6ebe 8aa1 023e
00000320: 5a67 9ebe e0ac a5bf f8a2 80be 09c9 9b3f
00000330: 6fdf 173f 93de d9bf f29a 733d fe60 303f
00000340: fed9 1cbf 3862 91be 55be 5b3e 4c94 b7be
00000350: 3fe6 013f 4046 023f f88c 333f 8483 a93c
00000360: 5151 7d3f 29d4 473e e282 dfbf 4b7f dbbe
00000370: 963e ea3f 6082 46bc 205f 9d3e 31f4 5abf
00000380: 63ae d8bf 48cf 54bf dc83 0a3f 6d6f da3e
00000390: 29db dabe cd08 3cbf 1334 7c3e f7b5 853e
000003a0: 28c4 06bf 5374 26bf e13c e63f 583e 0b3f
000003b0: d098 0140 9ad0 dcbf 28db 8dbf d8f0 8bbe
000003c0: 3017 fa3f e23d 86bf 1468 253f 9129 823c
000003d0: 22fa 83bf c670 90bf 3ba8 8b3e 48b0 42be
000003e0: df68 62be fc1a 8e3f d382 cebe 2009 54be
000003f0: d85c 20be 1433 9e3e a204 04c0 e1ae 91be

down1.body.0.weight f4 [8, 16, 3, 3]
-0.034475427 0.0594154 -0.07125563 -0.060504008 -0.06161096 0.036143646 -0.012022731 0.06359748
-0.0040616416 -0.016332129 -0.04655316 -0.023730742 -0.09654902 -0.077989794 -0.06849392 0.027607638
0.013081852 0.034589283 -0.08860323 -0.02801685 0.053312093 0.100811236 0.017702276 0.08470822
0.020996556 0.07578988 0.14353332 -0.11652919 -0.101288095 -0.051559687 -0.060314108 0.03594745
-0.057952818 -0.07923142 -0.0795204 -0.11851688 -0.033103865 0.04035107 0.0012993442 0.011586977
-0.024532737 -0.067895 -0.02706922 -0.1096128 -0.09552435 -0.04607226 0.035237893 0.04706406
-0.09242861 -0.031162146 0.07705208 0.06614282 0.03866602 0.03858952 0.018034188 -0.078646734
-0.0037283197 -0.029857375 -0.06292161 -0.08841737 0.0850358 0.027800664 -0.07084612 0.04912941
0.056439634 -0.019536722 0.046648312 0.06765529 0.09582419 0.066520534 -0.04918056 -0.012779844
0.019641742 0.027004112 0.024541548 0.092919804 0.010695935 -0.120347224 -0.035869483 -0.07546047
-0.1179598 0.14932425 0.10917379 -0.06610301 0.039885513 -0.02740576 -0.037168134 -0.031101016
-0.0074011344 -0.09739505 0.047370587 0.04875882 0.045373417 0.034194667 -0.101122305 -0.08836816
0.10988125 0.03354498 -0.067272305 0.018990315 0.10261931 0.037426814 0.012482713 -0.00536083
-0.09701129 -0.04375245 -0.106035754 -0.09096059 0.02186353 0.03460857 0.013912869 0.038560174
-0.059144877 0.07726534 0.04300682 -0.10303694 -0.051022097 0.006647326 0.023279386 0.047279865
0.06411061 0.0061676367 -0.021407215 0.04902857 -0.08256155 -0.03121355 -0.078410156 -0.05233664
0.010141211 -0.13530216 -0.03200931 0.045569602 -0.10781186 -0.029110076 0.08111231 -0.03436025
-0.01397068 -0.022507474 0.006553174 0.040764134 0.07810351 0.028219586 0.07761824 0.015250435
-0.13612354 -0.09793845 0.011886717 -0.055526827 -0.08569332 -0.11456861 -0.14420038 -0.114253215
-0.06652552 0.050194178 0.015861217 -0.112531416 0.06477672 -0.10049314 -0.032101717 -0.06427471
-0.016766204 -0.04251971 -0.1087049 -0.09852049 -0.062322747 0.011416801 -0.052720536 0.007286288
-0.075200945 0.010689993 0.062950015 -0.027799321 0.090983674 0.03920876 -0.06612703 0.06508869
-0.008890253 -0.049728584 0.05309233 -0.07216474 0.005678567 0.01104579 0.08207245 0.026856005
0.05909495 0.036853496 -0.010264713 0.0030093573 -0.065401815 0.07242253 0.112282075 0.110565454
-0.034658283 0.015372578 -0.019778837 -0.06577429 -0.04062187 0.027848322 -0.05256361 -0.036664937
-0.06090893 0.030315649 -0.056390114 -0.09015111 -0.05252944 0.06186224 -0.03501335 0.088617064
0.07300063 0.040165618 -0.020763857 -0.022783613 -0.003107422 -0.03978607 -0.020393444 -0.01181179
-0.09814145 -0.07461984 0.04452982 -0.10517137 -0.024919143 0.06674936 0.042021133 -0.021275055
-0.08998753 0.0033494397 -0.100536585 -0.04280563 -0.005442587 -0.038615767 -0.020779833 0.11918137
0.047421515 0.1070276 0.026808942 -0.09398468 -0.011258549 -0.06347674 -0.040206127 -0.027677864
0.0033212774 0.05120374 -0.03812233 -0.007930213 0.018248916 -0.07826044 0.06411614 -0.069506906
-0.0038800724 0.00812181 -0.05059665 0.018733427 0.03395436 -0.05616551 -0.07337652 -0.08202928
00000000: 1b36 0dbd 905d 733d 79ee 91bd 0dd3 77bd
00000010: c65b 7cbd 5c0b 143d fdfa 44bc 653f 823d
00000020: 8517 85bb f5ca 85bc 87ae 3ebd f966 c2bc
00000030: 7ebb c5bd 1db9 9fbd 8a46 8cbd 6a29 e23c
00000040: 4455 563c 7ead 0d3d 9c75 b5bd 9883 e5bc
00000050: c85d 5a3d 1f76 ce3d 5d04 913c 817b ad3d
00000060: f800 ac3c b937 9b3d 66fa 123e dba6 eebd
00000070: 2270 cfbd 4030 53bd ed0b 77bd a23d 133d
00000080: ef5f 6dbd 1544 a2bd 97db a2bd fab8 f2bd
00000090: eb97 07bd 2a47 253d c24e aa3a 4ed7 3d3c
000000a0: e1f8 c8bc 890c 8bbd 45c0 ddbc ad7c e0bd
000000b0: 45a2 c3bd 44b6 3cbd 9c55 103d 3ec6 403d
000000c0: 364b bdbd c247 ffbc 7bcd 9d3d e375 873d
000000d0: 4360 1e3d 0b10 1e3d 6fbc 933c 8a11 a1bd
000000e0: d356 74bb 7497 f4bc 0cdd 80bd 2b14 b5bd
000000f0: 4027 ae3d 38be e33c c517 91bd ec3b 493d
00000100: 3f2d 673d 7a0b a0bc 4d12 3f3d db8e 8a3d
00000110: 793f c43d eb3b 883d 8e71 49bd 8d62 51bc
00000120: b8e7 a03c ba37 dd3c 5b0b c93c bd4c be3d
00000130: 013e 2f3c 9b78 f6bd e1eb 12bd 058b 9abd
00000140: e894 f1bd 75e8 183e 8296 df3d 0461 87bd
00000150: fe5e 233d 0b82 e0bc 9d3d 18bd 8fc7 febc
00000160: 3785 f2bb 0e77 c7bd a907 423d 54b7 473d
00000170: 7ad9 393d b50f 0c3d 3619 cfbd 5efa b4bd
00000180: 6c09 e13d 7666 093d 10c6 89bd 9491 9b3c
00000190: 132a d23d dc4c 193d 4b84 4c3c e7a9 afbb
000001a0: dbad c6bd c535 33bd 4629 d9bd 8c49 babd
000001b0: 251b b33c b7c1 0d3d cdf2 633c 46f1 1d3d
000001c0: e641 72bd 4a3d 9e3d eb27 303d 0805 d3bd
000001d0: 8cfc 50bd d0d1 d93b 69b4 be3c 88a8 413d
000001e0: 6c4c 833d e319 ca3b 2f5e afbc 2fd2 483d
000001f0: 0816 a9bd 8fb3 ffbc 8195 a0bd f25e 56bd
00000200: 5227 263c a68c 0abe 321c 03bd 31a7 3a3d
00000210: 77cc dcbd 4178 eebc 361e a63d 55bd 0cbd
00000220: 47e5 64bc 9861 b8bc 02bc d63b 4bf8 263d
00000230: bcf4 9f3d c32c e73c 50f6 9e3d f6dc 793c
00000240: f863 0bbe f493 c8bd 81c0 423c 1970 63bd
00000250: fb7f afbd f3a2 eabd 44a9 13be 97fd e9bd
00000260: 883e 88bd 6998 4d3d 62ef 813c df76 e6bd
00000270: a8a9 843d 59cf cdbd 177d 03bd 76a2 83bd
00000280: 4759 89bc 2629 2ebd ada0 debd 1cc5 c9bd
00000290: 2346 7fbd 890d 3b3c 7df1 57bd d0c1 ee3b
000002a0: f402 9abd 1525 2f3c f0eb 803d 67bb e3bc
000002b0: a655 ba3d 5d99 203d 9c6d 87bd 384d 853d
000002c0: 6ca8 11bc 33b0 4bbd 5877 593d 1bcb 93bd
000002d0: 4613 ba3b 67f9 343c 9a15 a83d 2001 dc3c
000002e0: 8c0d 723d b1f3 163d 542d 28bc a338 453b
000002f0: 63f1 85bd 4352 943d 25f4 e53d 2470 e23d
00000300: d8f5 0dbd 44dd 7b3c 3a07 a2bc acb4 86bd
00000310: 1e63 26bd 2a22 e43c f14c 57bd f92d 16bd
00000320: a47b 79bd 8658 f83c 52f9 66bd 25a1 b8bd
00000330: 1c29 57bd 4363 7d3d 296a 0fbd dd7c b53d
00000340: 5b81 953d b484 243d f718 aabc b3a4 babc
00000350: e4a5 4bbb b8f6 22bd 2710 a7bc 3d86 41bc
00000360: 62fe c8bd 49d2 98bd e764 363d 1664 d7bd
00000370: 3b23 ccbc e3b3 883d 5a1e 2c3d 0649 aebc
00000380: 624b b8bd 4682 5b3b 20e6 cdbd f554 2fbd
00000390: bb57 b2bb 912b 1ebd 783a aabc 5d15 f43d
000003a0: 103d 423d 4931 db3d 6d9e db3c 0a7b c0bd
000003b0: c775 38bc 1800 82bd 2eaf 24bd b0bc e2bc
000003c0: caa9 593b 03bb 513d 2926 1cbd b9ed 01bc
000003d0: c07e 953c 0247 a0bd 534f 833d a359 8ebd
000003e0: d048 7ebb 5711 053c 6f3e 4fbd d876 993c
000003f0: ba13 0b3d ce0d 66bd 6e46 96bd f8fe a7bd

down2.body.0.weight f4 [8, 16, 3, 3]
-0.07018315 -0.002574297 0.039509036 -0.06793954 -0.0506343 0.06053547 -0.036406692 0.031306677
-0.04682165 -0.037113216 -0.0301926 0.06502046 0.010000755 -0.08702555 0.0028073434 0.0043029864
-0.040692326 -0.063176505 -0.040294066 0.042569082 -0.05470536 -0.06638779 -0.043888375 -0.0064279833
-0.002524508 0.0032011385 0.0024879246 -0.035370022 -0.009410059 -0.026580246 0.07294105 -0.06753645
-0.046901327 -0.06287267 -0.020455118 0.04818233 0.07164619 -0.05249231 -0.00478125 0.045834713
0.03637584 0.045923244 0.012034432 -0.03553051 0.015048579 -0.0063868663 0.03552333 -0.034480933
0.03112925 0.085440785 0.087365665 -0.076619975 -0.05676933 -0.002264765 -0.058104955 0.06826428
0.015066108 -0.022949118 -0.020909797 -0.07059898 0.020162743 -0.039259095 -0.06806376 -0.09853687
0.031219553 0.03366301 -0.05422911 0.017933052 0.056062568 -0.018310059 -0.015536599 0.009715024
-0.020611595 0.011162952 -0.0512269 0.007083057 0.029496102 -0.05464087 0.053225655 0.07185849
-0.035496313 -0.012330313 0.016961815 -0.042122763 0.0347695 0.0032796755 0.041818295 -0.054512285
-0.085998 0.005283148 0.03314999 -0.064175695 -0.03902918 -0.07323182 -0.04507323 -0.029719593
0.0677169 -0.018348593 0.030786574 0.047125984 0.029523918 -0.06292965 0.05142552 0.029864037
0.07732543 -0.08897543 0.042754367 0.05445229 -0.060076095 0.01138745 0.07585336 -0.064486004
0.028194873 0.038327754 0.010084821 0.061533708 0.049591105 0.06299936 0.0017755071 0.06286596
-0.056690536 -0.05974772 -0.014181042 -0.0313683 0.0733216 0.020343442 0.044421796 0.039045762
-0.059884083 -0.0068699224 0.010521328 -0.0018216704 0.01134378 -0.02434853 -0.033686608 0.0417761
-0.03672209 -0.10198864 0.04209765 0.032105457 -0.011267767 -0.06472798 -0.058453985 -0.07535032
0.008672369 -0.054602403 0.039182283 -0.081627674 0.0010874638 0.010613957 0.015989909 0.05599728
0.048160046 0.012336996 -0.051011197 -0.0469281 -0.07884465 -0.012545784 0.06179013 -0.0266265
-0.024549475 -0.08781333 -0.0136994915 0.0068981233 -0.06966167 -0.06343427 0.03133669 0.017875204
-0.0048305243 0.007312455 -0.008393522 -0.082754016 -0.08667365 0.038835682 0.010506489 -0.010258638
-0.002888035 -0.043669704 -0.053639237 -0.053958464 0.060343936 0.050738618 -0.024925323 -0.025585454
0.032437637 -0.030725477 0.058484107 0.04719162 -0.034543626 0.01838832 0.010913637 0.052624606
-0.04299663 -0.015928663 0.06364454 -0.06540913 0.0225297 0.06315544 -0.028920166 0.052137908
0.060276747 0.06742287 0.010750824 0.08097345 -0.02798017 -0.04981992 0.013627454 -0.020216756
-0.0042584743 0.044268496 -0.07610033 0.03058636 0.010720743 0.030817455 0.034354404 -0.034082055
-0.035361633 0.09893555 -0.019437153 0.057286393 -0.04644578 -0.0064910357 0.019532772 0.0032606062
0.0034772607 0.00019581988 -0.0021131672 0.011790676 0.09693157 -0.06291758 -0.007987053 -0.019569268
0.0574479 0.080409914 0.013261774 -0.022464493 -0.0600765 0.058254983 0.0031984695 0.06395055
0.024727548 0.044552315 0.0529393 -0.020152735 0.01639882 -0.05448087 0.03703335 -0.0014606917
0.016508166 -0.06625508 -0.0498514 0.03725324 0.016145593 0.006439044 0.041654382 -0.017853646
00000000: 2fbc 8fbd 89b5 28bb 3ad4 213d e323 8bbd
00000010: e965 4fbd 0af4 773d 2f1f 15bd 6e3b 003d
00000020: 0fc8 3fbd 0704 18bd 7956 f7bc 7229 853d
00000030: 35da 233c 743a b2bd 68fb 373b 1100 8d3b
00000040: ffac 26bd af62 81bd 640b 25bd eb5c 2e3d
00000050: ba12 60bd 52f6 87bd 4cc4 33bd d5a1 d2bb
00000060: 3772 25bb 31ca 513b 730c 233b 28e0 10bd
00000070: a62c 1abc d1be d9bc 1e62 953d 8d50 8abd
00000080: 9b1b 40bd 63c3 80bd 7e91 a7bc d65a 453d
00000090: 3dbb 923d 2d02 57bd 08ac 9cbb 2ebd 3b3d
000000a0: d5fe 143d 031a 3c3d 112c 453c 7188 11bd
000000b0: 518e 763c eb48 d1bb e980 113d e13b 0dbd
000000c0: c502 ff3c 94fb ae3d c5ec b23d efea 9cbd
000000d0: f586 68bd 746c 14bb 76ff 6dbd 25ce 8b3d
000000e0: d6d7 763c caff bbbc 064b abbc 3396 90bd
000000f0: 562c a53c 25ce 20bd 0365 8bbd b3cd c9bd
00000100: 26c0 ff3c 39e2 093d 581f 5ebd 56e8 923c
00000110: dda1 653d fafe 95bc 388d 7ebc c42b 1f3c
00000120: a6d9 a8bc d0e4 363c 4cd3 51bd fd18 e83b
00000130: cfa1 f13c 1bcf 5fbd 2503 5a3d 8b2a 933d
00000140: 9564 11bd 1505 4abc 81f3 8a3c eb88 2cbd
00000150: 776a 0e3d d3ef 563b a949 2b3d 4648 5fbd
00000160: b81f b0bd 421e ad3b 49c8 073d 8c6e 83bd
00000170: 10dd 1fbd 90fa 95bd b59e 38bd 8176 f3bc
00000180: 28af 8a3d ca4f 96bc 2034 fc3c 2d07 413d
00000190: 25dc f13c 43e1 80bd 91a3 523d 6da5 f43c
000001a0: cc5c 9e3d c038 b6bd 341f 2f3d 5d09 5f3d
000001b0: 5a12 76bd 6d92 3a3c 0259 9b3d 3d11 84bd
000001c0: eff8 e63c 90fd 1c3d ce3a 253c c50a 7c3d
000001d0: 0b20 4b3d cf05 813d 22b8 e83a debf 803d
000001e0: 5634 68bd 06ba 74bd 9a57 68bc 0c7c 00bd
000001f0: a329 963d 4aa7 a63c a1f3 353d 73ee 1f3d
00000200: 0349 75bd 161d e1bb a661 2c3c 1ec5 eeba
00000210: 43db 393c 9276 c7bc f8fa 09bd 6a1d 2b3d
00000220: e769 16bd 6cdf d0bd 966e 2c3d 0381 033d
00000230: 719c 38bc 1a90 84bd 726d 6fbd 4551 9abd
00000240: 8d16 0e3c c5a6 5fbd 9a7d 203d 692c a7bd
00000250: 3b89 8e3a 2ae6 2d3c 45fd 823c 675d 653d
00000260: 7843 453d 1d21 4a3c 1ef1 50bd ae37 40bd
00000270: 4e79 a1bd d58c 4dbc a617 7d3d d11f dabc
00000280: fb1b c9bc 7ad7 b3bd d573 60bc a709 e23b
00000290: c7aa 8ebd d4e9 81bd e75a 003d 056f 923c
000002a0: 6049 9ebb 529d ef3b fc84 09bc f07a a9bd
000002b0: f481 b1bd 2a12 1f3d 6923 2c3c d913 28bc
000002c0: 3045 3dbb 01df 32bd d1b4 5bbd 8d03 5dbd
000002d0: 342b 773d 4cd3 4f3d 3130 ccbc 9698 d1bc
000002e0: 54dd 043d ffb3 fbbc 088d 6f3d 004c 413d
000002f0: 9e7d 0dbd 1aa3 963c 1ccf 323c e68c 573d
00000300: 3c1d 30bd d47c 82bc 1258 823d 39f5 85bd
00000310: 3590 b83c a457 813d fce9 ecbc 8f8e 553d
00000320: c0e4 763d 0015 8a3d 3924 303c 68d5 a53d
00000330: ab36 e5bc f90f 4cbd af45 5f3c 9c9d a5bc
00000340: ac8a 8bbb e252 353d 7dda 9bbd 3f90 fa3c
00000350: 0ea6 2f3c e374 fc3c 34b7 0c3d a099 0bbd
00000360: 5cd7 10bd b99e ca3d aa3a 9fbc 23a5 6a3d
00000370: ee3d 3ebd c1b2 d4bb 3103 a03c e5af 553b
00000380: c1e2 633b 0055 4d39 107d 0abb ae2d 413c
00000390: 0f84 c63d efda 80bd 21dc 02bc bb4f a0bc
000003a0: 7d4e 6b3d f4ad a43d e947 593c 7507 b8bc
000003b0: c712 76bd c79c 6e3d 6a9d 513b 82f8 823d
000003c0: 6d91 ca3c 7d7c 363d e1d6 583d 5917 a5bc
000003d0: d156 863c 5527 5fbd 48b0 173d ae74 bfba
000003e0: 223c 873c beb0 87bd fb30 4cbd da96 183d
000003f0: c343 843c 9efe d23b c99d 2a3d cf41 92bc

EDMoE.gate.fc0.weight f4 [10, 8]
-0.3349925 -0.31679025 0.20471555 -0.20878638 0.25840017 0.11016339 0.08874773 0.28086722
-0.3274948 0.25890544 0.11465654 -0.23691952 0.086023785 -0.09853516 -0.1419129 -0.038291045
-0.16668804 0.30916005 0.30430415 -0.037716243 -0.3135229 -0.021628793 0.023359427 0.23632252
0.011375265 0.102900304 0.093810156 -0.20060673 -0.21930446 -0.31599545 -0.0027763816 0.1095059
-0.02513933 0.3431823 -0.067444734 -0.23070312 0.05892597 -0.09956455 -0.04846841 0.34257552
-0.010144325 0.30884364 0.04721547 -0.13152957 0.25921094 -0.2013942 0.011697984 0.07946961
0.15868685 -0.3262094 0.017343808 -0.09154194 0.22923212 0.11895088 0.14170314 0.21257745
-0.07915389 -0.022651993 0.2836395 -0.28496018 -0.24438307 0.025864214 -0.14005224 0.020248357
0.31231493 -0.040985197 -0.30145183 -0.16071744 0.32469168 -0.07767192 -0.15502533 0.15914376
0.043768574 -0.3117208 0.29443455 0.19909467 0.30730334 0.15471472 -0.119201906 -0.11541653
00000000: 2384 abbe 5532 a2be f4a0 513e 19cc 55be
00000010: 074d 843e 589d e13d 5fc1 b53d d4cd 8f3e
00000020: 66ad a7be 418f 843e 0cd1 ea3d 089b 72be
00000030: 3d2d b03d cdcc c9bd 9e51 11be 12d7 1cbd
00000040: 45b0 2abe 3a4a 9e3e c1cd 9b3e 597c 1abd
00000050: 1386 a0be de2e b1bc 455c bf3c 88fe 713e
00000060: 525f 3a3c 65bd d23d 8a1f c03d da6b 4dbe
00000070: 5991 60be 28ca a1be f4f3 35bb a144 e03d
00000080: fff0 cdbc 97b5 af3e 7720 8abd 703d 6cbe
00000090: 5c5c 713d 80e8 cbbd d086 46bd 0f66 af3e
000000a0: 6234 26bc c120 9e3e 0265 413d b0af 06be
000000b0: 4cb7 843e 483a 4ebe e7a8 3f3c f6c0 a23d
000000c0: ce7e 223e eb04 a7be 9a14 8e3c 577a bbbd
000000d0: d3bb 6a3e 859c f33d a11a 113e e7ad 593e
000000e0: 6f1b a2bd ac90 b9bc 3239 913e 4de6 91be
000000f0: 8e3f 7abe 30e1 d33c db69 0fbe e2df a53c
00000100: bee7 9f3e 18e0 27bd e557 9abe 1d93 24be
00000110: fd3d a63e 7512 9fbd f6be 1ebe 95f6 223e
00000120: ad46 333d de99 9fbe 20c0 963e 79df 4b3e
00000130: dd56 9d3e 896d 1e3e 2120 f4bd 805f ecbd

EDMoE.gate.fc0.bias f4 [10]
0.1713398 -0.06853769 0.06931538 -0.34258905 -0.17476933 0.13132654 -0.017429788 -0.16997103
-0.30839312 0.22470436
00000000: b373 2f3e 7d5d 8cbd 39f5 8d3d d567 afbe
00000010: bbf6 32be 777a 063e eac8 8ebc e30c 2ebe
00000020: b4e5 9dbe e618 663e

EDMoE.gate.fc1.weight f4 [10, 8]
0.018293198 0.01602936 0.041598994 0.01792854 -0.012953523 0.0058547617 -0.02103077 -0.018048624
0.0015227308 -0.0005288922 0.002377454 -0.009757625 -0.03782991 -0.027551942 -0.0061518434 0.001439738
-0.048193287 -0.022841848 -0.013421679 0.036316484 0.0981803 -0.0031238995 0.0043603526 -0.017882606
0.0007984009 0.014937359 0.031678084 0.00426455 0.0041052634 0.022617431 0.031027451 0.005279891
0.02962757 0.0072366125 -0.07068467 0.041243333 0.041965593 0.009088118 0.028515497 0.05057095
-0.04822705 0.030126385 -0.01474736 -0.0076686544 -0.016047591 0.007869712 -0.01416178 -0.020623347
0.008625545 0.0020075259 0.020205744 -0.046104617 -0.070846185 -0.0047654556 -0.0076462943 -0.018757
0.033675555 -0.009685493 0.011025713 -0.040986788 -0.024882248 -0.0046977215 0.0018150122 0.036644384
0.019397775 -0.0022038198 -0.02441367 -0.007446607 0.002072515 0.00089375844 0.011049058 -0.004652157
0.0030060047 -0.026477193 -0.0125424815 0.027215878 -0.0033765153 -0.009421601 -0.00882252 0.022973353
00000000: 9edb 953c 0150 833c b563 2a3d e0de 923c
00000010: 033b 54bc 4dd9 bf3b b948 acbc b5da 93bc
00000020: 5e96 c73a 5ba5 0aba 0fcf 1b3b 72de 1fbc
00000030: 89f3 1abd 9cb4 e1bc 6795 c9bb 97b5 bc3a
00000040: 5366 45bd d41e bbbc 9ae6 5bbc 98c0 143d
00000050: c112 c93d 56ba 4cbb 4ae1 8e3b 8b7e 92bc
00000060: c74b 513a d3bb 743c e1c0 013d a3bd 8b3b
00000070: 7285 863b 3148 b93c 482d fe3c f002 ad3b
00000080: 85b5 f23c 1b21 ed3b 20c3 90bd c5ee 283d
00000090: 1de4 2b3d 54e6 143c 5599 e93c 7c23 4f3d
000000a0: ba89 45bd 9ccb f63c e99e 71bc 5649 fbbb
000000b0: 3d76 83bc f7ef 003c cf06 68bc 4bf2 a8bc
000000c0: 2852 0d3c b290 033b 8486 a53c 32d8 3cbd
000000d0: ce17 91bd 8a27 9cbb c48d fabb 48a8 99bc
000000e0: 61ef 093d e7af 1ebc 31a5 343c c3e1 27bd
000000f0: dbd5 cbbc 58ef 99bb b4e5 ed3a 6c18 163d
00000100: 15e8 9e3c f66d 10bb 2dff c7bc ab02 f4bb
00000110: 08d3 073b 1d4b 6a3a 1c07 353c 1f71 98bb
00000120: 6400 453b b3e6 d8bc fb7e 4dbc d5f3 de3c
00000130: 8748 5dbb 0f5d 1abc 558c 10bc 9d32 bc3c

EDMoE.gate.fc1.bias f4 [10]
0.24620596 -0.17032342 0.2962716 -0.1675132 -0.28963298 0.14580993 -0.21038072 -0.050599016
-0.1065512 -0.022505151
00000000: 6a1d 7c3e 4369 2ebe e9b0 973e 9588 2bbe
00000010: c64a 94be 334f 153e 0b6e 57be ea40 4fbd
00000020: 8437 dabd b95c b8bc

EDMoE.expertnet.0.conv1_1.conv.weight f4 [8, 8, 3, 3]
-0.11247632 -0.10576828 0.033936486 -0.020156998 -0.06987739 -0.0047631273 -0.11687133 0.016418433
0.057424776 0.10869634 -0.09639866 -0.010533378 0.05830819 0.10617741 -0.074292265 0.04251141
0.037001684 0.06894904 -0.067162015 0.09411965 -0.03986151 -0.06341071 0.023003105 0.10454644
-0.07507247 0.08245476 -0.0070061046 0.024591217 0.07856907 0.016121762 -0.10750826 -0.03487579
0.016867256 -0.102227665 0.014330718 -0.055999395 -0.03257557 0.0281191 -0.10557237 -0.09120162
0.052840006 -0.13030005 0.0767026 -0.11580726 -0.0076400666 0.006459257 0.02097876 -0.09490573
0.0010219457 0.049883094 0.086347654 -0.104100086 -0.098548904 -0.0013460172 -0.011854429 -0.074471295
-0.10279845 -0.111362085 -0.081069306 -0.061095282 -0.08507932 -0.1136514 -0.006148144 0.06538191
-0.06077109 0.007436701 0.0026427603 0.05415335 -0.07710806 0.008808231 0.10575853 0.07444596
-0.12246565 -0.016428154 0.00074345875 -0.042219024 -0.076111935 -0.08200083 0.07114508 -0.035394855
-0.0099816155 0.0118107805 -0.074534185 0.007064767 0.08119844 -0.067734934 0.023810286 -0.005405678
0.048369467 0.06781239 0.049504545 0.018639034 -0.07977845 0.033738244 0.07063518 -0.02716277
-0.10955991 0.09741814 -0.0053811804 0.00990259 -0.02517447 0.07110216 0.11061966 0.072622396
-0.03620694 0.06481801 0.057880796 0.014260922 -0.109534 -0.06802506 -0.13083385 0.079387486
0.11452111 0.0486601 0.0060111787 0.03026518 0.09928847 -0.09354937 -0.0483914 -0.11012707
-0.035951216 0.007946039 0.012480563 -0.10378957 -0.026349097 -0.10891929 -0.062390484 0.045698594
-0.07948801 0.053086508 -0.10672591 -0.061459824 0.0048982673 -0.098559216 0.119986095 0.089248426
-0.05414275 0.007926714 0.06375245 0.036818705 -0.0334772 -0.110790685 0.07288801 -0.11714487
-0.028478637 -0.005546085 -0.035785314 -0.020752326 -0.100124106 0.00043078727 -0.010332757 0.1043031
-0.04137631 0.08899023 0.0014439241 -0.055814635 -0.031868782 -0.013147268 -0.006229756 -0.035390425
0.03636747 0.08618856 0.021535909 0.07065463 0.08333253 -0.0014395555 0.053405184 0.07298939
0.10553376 -0.105479315 0.055143837 -0.014400035 -0.03199971 -0.047549777 0.06228339 0.10598021
-0.087958895 0.06244372 0.0657321 0.023424685 -0.013252129 0.091386914 0.011849173 -0.024772035
-0.0085553285 0.041502256 0.015491992 0.011601885 0.04168411 0.030310906 -0.10763963 0.029500268
0.04696 0.013286398 -0.013693981 0.079027615 -0.10850601 -0.06304791 -0.035382293 0.11428841
-0.10041033 0.0037015497 -0.112225905 0.009475025 0.063865975 -0.020573199 0.12814844 -0.008427021
-0.07682755 0.00951889 0.062487632 -0.00023017934 0.09625169 -0.08746237 0.044097632 0.053485315
0.049339727 -0.024843123 0.008309449 -0.101740815 -0.09092316 -0.027894365 -0.04093589 0.0644993
0.05765806 0.111420214 -0.038995456 -0.04988026 -0.08352707 0.041928224 -0.06639382 -0.09075593
-0.02697767 -0.07059573 -0.06603459 -0.095692925 -0.07799595 0.09030054 -0.021833042 0.09473515
-0.017681796 -0.007394847 -0.031513598 -0.072558366 -0.08697744 0.070872955 -0.02345388 -0.11295401
0.12141411 0.02093575 -0.092433825 -0.081294656 -0.07892895 -0.08412348 0.11584871 0.0713643
00000000: fc59 e6bd 0a9d d8bd fc00 0b3d 4a20 a5bc
00000010: e11b 8fbd 0214 9cbb 3c5a efbd f37f 863c
00000020: 3e36 6b3d 309c de3d a96c c5bd 3194 2cbc
00000030: 92d4 6e3d 8b73 d93d 8b26 98bd 7220 2e3d
00000040: 148f 173d 2735 8d3d 3d8c 89bd cec1 c03d
00000050: d345 23bd 79dd 81bd 0271 bc3c 721c d63d
00000060: 98bf 99bd 0bde a83d 7793 e5bb 8573 c93c
00000070: d2e8 a03d c911 843c 4a2d dcbd ebd9 0ebd
00000080: 332d 8a3c bd5c d1bd 63cb 6a3c 9f5f 65bd
00000090: f66d 05bd 075a e63c 5436 d8bd eac7 babd
000000a0: c36e 583d 606d 05be 4116 9d3d 5b2c edbd
000000b0: 8659 fabb 2da8 d33b a6db ab3c ef5d c2bd
000000c0: cff2 853a 3752 4c3d 0ad7 b03d 6d32 d5bd
000000d0: 02d4 c9bd d86c b0ba 1439 42bc 6884 98bd
000000e0: fe87 d2bd ce11 e4bd aa07 a6bd 0c3f 7abd
000000f0: 113e aebd 11c2 e8bd 5f76 c9bb f3e6 853d
00000100: 1beb 78bd 92af f33b 2932 2d3b e7cf 5d3d
00000110: d5ea 9dbd 6650 103c ee97 d83d 2077 983d
00000120: 45cf fabd 5694 86bc ace4 423a dbed 2cbd
00000130: 93e0 9bbd 0df0 a7bd 83b4 913d 32fa 10bd
00000140: ee89 23bc 0182 413c 61a5 98bd 907f e73b
00000150: 5e4b a63d 9db8 8abd ca0d c33c 1d22 b1bb
00000160: 101f 463d 39e1 8a3d 47c5 4a3d e3b0 983c
00000170: e262 a3bd 1d31 0a3d 2da9 903d 7584 debc
00000180: f260 e0bd 2983 c73d 9d54 b0bb 793e 223c
00000190: b13a cebc 029e 913d 8f8c e23d 0dbb 943d
000001a0: ba4d 14bd 4ebf 843d 6a14 6d3d a4a6 693c
000001b0: 5d53 e0bd b950 8bbd 4ff9 05be e895 a23d
000001c0: 0b8a ea3d d04f 473d 6cf9 c43b afee f73c
000001d0: c157 cb3d d096 bfbd 1036 46bd 4d8a e1bd
000001e0: 9541 13bd 1a30 023c 467b 4c3c a08f d4bd
000001f0: 10da d7bc 1411 dfbd 2a8d 7fbd 732e 3b3d
00000200: 9cca a2bd 3d71 593d 1d93 dabd 4cbd 7bbd
00000210: a581 a03b 6ad9 c9bd 45bb f53d e1c7 b63d
00000220: cac4 5dbd 0cdf 013c a590 823d 36cf 163d
00000230: 631f 09bd 3ae6 e2bd 4f46 953d a6e9 efbd
00000240: 084c e9bc efbb b5bb 9f93 12bd c800 aabc
00000250: de0d cdbd 4adb e139 b94a 29bc dd9c d53d
00000260: 357a 29bd 8240 b63d 0e42 bd3a e39d 64bd
00000270: d788 02bd a467 57bc fb22 ccbb 8df5 10bd
00000280: 0ef6 143d a183 b03d 136c b03c 60b3 903d
00000290: 3faa aa3d 78af bcba 65bf 5a3d 767b 953d
000002a0: 1522 d83d 8a05 d8bd 81de 613d 20ee 6bbc
000002b0: 2112 03bd 8ec3 42bd de1c 7f3d 270c d93d
000002c0: cb23 b4bd fcc4 7f3d 8d9e 863d 20e5 bf3c
000002d0: 751f 59bc 1029 bb3d 0923 423c b9ee cabc
000002e0: a62b 0cbc 45fe 293d 20d2 7d3c d515 3e3c
000002f0: f5bc 2a3d 944e f83c 2b72 dcbd 8caa f13c
00000300: 2159 403d 31af 593c b85c 60bc 3bd9 a13d
00000310: 6638 debd 431f 81bd 06ed 10bd 0b10 ea3d
00000320: eea3 cdbd b395 723b b2d6 e5bd 233d 1b3c
00000330: 2acc 823d 2089 a8bc 5839 033e 7d11 0abc
00000340: c357 9dbd 1ef5 1b3c 08f3 7f3d 4c5c 71b9
00000350: 9b1f c53d 791f b3bd b89f 343d 6b13 5b3d
00000360: 7418 4a3d ce83 cbbc 5b24 083c 7d5d d0bd
00000370: ec35 babd b982 e4bc 64ac 27bd 3618 843d
00000380: dc2a 6c3d 4830 e43d b3b9 1fbd 3e4f 4cbd
00000390: 3e10 abbd eebc 2b3d 7cf9 87bd 3fde b9bd
000003a0: 4600 ddbc 7e94 90bd 253d 87bd a7fa c3bd
000003b0: 57bc 9fbd 7def b83d 35db b2bc 8104 c23d
000003c0: 6ad9 90bc 7950 f2bb 6714 01bd 7b99 94bd
000003d0: 3a21 b2bd d725 913d 5a22 c0bc 6f54 e7bd
000003e0: f6a7 f83d 7381 ab3c f24d bdbd d07d a6bd
000003f0: 80a5 a1bd ee48 acbd 1742 ed3d 7227 923d

EDMoE.expertnet.0.conv1_1.conv.bias f4 [8]
0.09372803 -0.055846415 0.0097426865 -0.045228973 -0.08922842 0.06107529 0.0928876 -0.06294828
00000000: 7bf4 bf3d 36bf 64bd ca9f 1f3c 0442 39bd
00000010: 64bd b6bd 152a 7a3d db3b be3d 07eb 80bd

EDMoE.expertnet.0.conv1_2.conv.weight f4 [8, 8, 3]
0.08621842 0.05219964 0.05603269 0.10063449 0.16454783 0.14124835 -0.17615665 -0.08160331
0.09717541 -0.11073284 0.030917507 -0.10049277 0.039512563 0.098425455 0.065363206 0.14685181
-0.029282859 0.14730504 0.057634514 -0.058672816 -0.12230923 0.18717305 -0.060470823 0.16668272
0.119882174 -0.008231313 -0.16896597 -0.0135598825 -0.067111254 0.06488747 -0.081291735 0.119573586
-0.2079901 -0.07611546 0.026199052 -0.015610281 0.16219924 -0.04318376 -0.19082369 0.076720834
0.03904927 0.10733818 -0.10509676 -0.10910386 -0.06912176 0.024644518 0.09749643 -0.09986577
-0.03950217 0.022813164 0.19415224 -0.06826909 0.19638033 -0.1386885 -0.094031915 -0.20267309
0.1275826 -0.14537536 0.060020242 -0.07840758 0.17049569 0.028627317 -0.20193464 0.034643687
-0.020894095 -0.19590068 0.05523164 0.16271237 0.06675132 0.009931775 -0.03561996 0.05004346
-0.040973227 0.20852077 0.16720098 0.071438484 -0.07706745 -0.18086986 -0.10961979 0.1764519
-0.22495772 -0.15620473 -0.022037461 0.07672593 -0.1902204 -0.21102405 -0.012308729 -0.048161987
0.15858792 0.09132632 -0.15084718 -0.16285968 0.10655772 -0.04696756 -0.09325657 0.08423636
-0.034822308 0.08840529 0.07121532 -0.102304995 -0.14965525 0.09661886 -0.116296545 -0.0140364
0.062048018 -0.12963936 0.103222005 -0.14366075 0.01633786 0.033993922 0.0552739 -0.20130345
0.023066992 0.10838918 -0.11975283 0.07708561 -0.00068506977 0.17659055 -0.03436377 -0.0033079642
-0.06716727 -0.049292862 0.0723651 -0.16099454 0.16523646 0.17359056 0.0910884 0.15705383
-0.041536737 0.0059295828 0.033432912 -0.1260422 -0.08401669 -0.06211146 -0.038289912 -0.16077791
-0.13496377 -0.011553814 -0.042825863 -0.19685188 0.03511167 0.117911644 0.17746323 0.18002053
-0.17100045 -0.04842929 -0.086220674 0.07816335 0.04255087 0.0500108 0.13106011 0.117672846
-0.111602806 0.12016883 0.12865102 0.011056567 -0.18811935 -0.11096915 0.07835443 0.08924953
0.19306204 0.12622575 0.075202435 0.029194584 0.11835681 -0.090464205 0.08964652 -0.1155863
-0.017247494 0.114163145 0.10643735 -0.078857265 0.004169371 -0.12952687 0.07137071 0.1410023
0.039728705 -0.22115949 -0.15093644 0.09208951 -0.012184436 0.14454179 0.17106435 -0.09970713
-0.10483371 -0.2035942 0.049109858 0.08610788 -0.04726212 -0.17431399 -0.12387844 -0.013384762
00000000: 4893 b03d 4acf 553d 8982 653d 7519 ce3d
00000010: 3a7f 283e 68a3 103e 6962 34be a31f a7bd
00000020: e703 c73d e6c7 e2bd b646 fd3c 27cf cdbd
00000030: edd7 213d 4993 c93d 25dd 853d 5260 163e
00000040: 9be2 efbc 22d7 163e 2b12 6c3d e852 70bd
00000050: 437d fabd 4baa 3f3e 41b0 77bd e0ae 2a3e
00000060: c984 f53d a1dc 06bc 6a05 2dbe 452a 5ebc
00000070: a071 89bd b9e3 843d 487c a6bd ffe2 f43d
00000080: 5bfb 54be 6ce2 9bbd 659f d63c 44c2 7fbc
00000090: 8f17 263e 74e1 30bd 4967 43be d01f 9d3d
000000a0: 21f2 1f3d 1fd4 db3d f83c d7bd d871 dfbd
000000b0: b68f 8dbd 4de3 c93c 35ac c73d 6d86 ccbd
000000c0: 07cd 21bd ace2 ba3c d8cf 463e aad0 8bbd
000000d0: ed17 493e 5c04 0ebe ce93 c0bd 8989 4fbe
000000e0: 03a5 023e 47dd 14be c9d7 753d 2794 a0bd
000000f0: 6c96 2e3e d683 ea3c f4c7 4ebe 8ae6 0d3d
00000100: 182a abbc 309a 48be 923a 623d 129e 263e
00000110: ebb4 883d e2b8 223c 3ce6 11bd 5ffa 4c3d
00000120: 8bd3 27bd 7886 553e bc36 2b3e 574e 923d
00000130: 8ad5 9dbd f335 39be 5780 e0bd cfaf 343e
00000140: 515b 66be 22f4 1fbe e887 b4bc 7c22 9d3d
00000150: 23c9 42be b016 58be 8daa 49bc 8145 45bd
00000160: df64 223e 4b09 bb3d af77 1abe b0c4 26be
00000170: ef3a da3d 0e61 40bd 4dfd bebd 1d84 ac3d
00000180: d6a1 0ebd d50d b53d 56d9 913d 4885 d1bd
00000190: 3a3f 19be 1ce0 c53d e22c eebd eef8 65bc
000001a0: 1026 7e3d 2ec0 04be 0f66 d33d ce1b 13be
000001b0: fad6 853c 363d 0b3d e366 623d 7e22 4ebe
000001c0: fdf6 bc3c 25fb dd3d f940 f5bd 0fdf 9d3d
000001d0: 4196 33ba 27d4 343e 06c1 0cbd 6eca 58bb
000001e0: fe8e 89bd 50e7 49bd 2734 943d c1db 24be
000001f0: bf33 293e b9c1 313e 8e8c ba3d b8d2 203e
00000200: 6d22 2abd f24c c23b f3f0 083d 3511 01be
00000210: f110 acbd 9668 7ebd e2d5 1cbd f7a2 24be
00000220: f133 0abe 354c 3dbc 2c6a 2fbd 8a93 49be
00000230: 41d1 0f3d a97b f13d ecb8 353e 4d57 383e
00000240: be1a 2fbe cb5d 46bd 7794 b0bd 1b14 a03d
00000250: d249 2e3d 20d8 4c3d 9f34 063e 76fe f03d
00000260: 0390 e4bd 131b f63d 18bd 033e 9a26 353c
00000270: 5ca2 40be cb43 e3bd 4a78 a03d 75c8 b63d
00000280: 0eb2 453e 5341 013e bc03 9a3d 7b29 ef3c
00000290: 0e65 f23d 4c45 b9bd 9898 b73d 83b8 ecbd
000002a0: 9e4a 8dbc 5ece e93d d3fb d93d eb7f a1bd
000002b0: 389f 883b b1a2 04be cf2a 923d e862 103e
000002c0: 91ba 223d a277 62be 158f 1abe 6d99 bc3d
000002d0: 3ba1 47bc c302 143e 7e2b 2f3e 4033 ccbd
000002e0: 0eb3 d6bd ff7a 50be 6b27 493d 5459 b03d
000002f0: ed95 41bd 5e7f 32be fbb3 fdbd c34b 5bbc

EDMoE.expertnet.0.conv1_2.conv.bias f4 [8]
0.09164368 -0.067609906 -0.1288064 -0.13961199 0.17937338 0.07237577 -0.16260228 -0.12428996
00000000: afaf bb3d 1077 8abd d3e5 03be 72f6 0ebe
00000010: a8ad 373e bf39 943d 3681 26be bc8b febd

EDMoE.expertnet.0.conv1_3.conv.weight f4 [8, 8, 3]
-0.1743864 0.04287453 -0.10519751 0.0054112836 -0.015498562 -0.1740221 -0.14299178 -0.16649394
-0.08022575 0.013880715 -0.102077805 -0.031183934 -0.032527648 0.19835308 -0.09842961 0.18792112
-0.14634013 -0.14480895 0.05993776 -0.09915485 0.11771916 -0.11716986 0.15200573 0.20394544
0.012274333 0.041503415 0.19000953 0.091669835 -0.16714975 0.0039579314 -0.15692537 0.16517639
-0.036202464 0.0047469474 -0.11468651 -0.12069102 0.037554294 0.14423463 -0.1128688 -0.007507526
0.18428186 0.191576 -0.036903456 0.2166808 0.074664 0.17705919 0.022085682 -0.16980417
-0.072062165 0.03863918 0.12016635 -0.17726314 0.14736493 -0.168897 0.123209536 0.2235643
0.044143315 -0.04767995 0.11487681 -0.065755524 -0.1432813 -0.16465628 0.1032049 0.16720334
0.003248277 -0.15864687 -0.20439683 -0.036222372 0.096061304 -0.12509298 0.042849224 -0.12426709
0.20317854 -0.054499224 -0.03983716 -0.1721838 -0.20616351 0.05383606 0.033762023 0.064647555
-0.21672967 0.0184705 -0.004675909 0.084276006 -0.0756375 0.052081782 0.073222935 0.07622588
-0.06815256 0.053804338 -0.026840523 0.084491536 -0.19269517 -0.15355395 -0.112868585 -0.085737325
-0.08369323 0.033696294 -0.028423907 -0.13221663 0.021349298 -0.07738272 0.13602906 -0.14125477
-0.043409646 -0.12606968 0.044953275 0.0252946 -0.03740843 0.20920256 -0.08378467 -0.034861427
0.061799817 0.17385301 0.1457314 0.027565377 -0.09553574 0.085636914 0.13900317 0.003973167
0.10567683 0.15908317 -0.12730312 -0.058360256 -0.20471598 -0.02923863 0.14875871 -0.045161128
0.051007863 0.011100597 -0.0033902756 0.15425093 0.016701072 -0.18891977 -0.15234327 -0.21163008
-0.006493933 0.028409086 -0.023109784 0.17158437 -0.013232555 0.04356171 0.16828343 0.109848745
-0.025073385 0.1826398 -0.09498557 0.093416326 0.10023256 -0.15057857 -0.16507581 0.0457513
-0.070861995 -0.08937866 0.054430455 -0.12714054 0.13759923 -0.014167464 -0.08517583 0.16701634
0.062464934 0.034028698 -0.10563709 0.23448686 -0.11119507 0.16679688 0.005344569 0.10980388
0.14091675 -0.17239149 -0.11475402 -0.20309943 0.17240001 0.1736987 -0.069128364 -0.10538532
0.03325741 0.12935714 0.062270153 -0.05214862 -0.11290209 0.18047348 -0.1143581 -0.16935952
-0.06913168 0.08041476 0.08369001 0.08513106 -0.10024794 -0.0803419 -0.08223731 -0.1184011
00000000: 5992 32be 349d 2f3d cb71 d7bd 2351 b13b
00000010: aeed 7dbc d932 32be 706c 12be 637d 2abe
00000020: 664d a4bd f06b 633c 2b0e d1bd 7375 ffbc
00000030: b63b 05bd 121d 4b3e 7795 c9bd 656e 403e
00000040: 30da 15be cc48 14be 4c81 753d b311 cbbd
00000050: be16 f13d c0f6 efbd 64a7 1b3e 13d7 503e
00000060: 491a 493c 7cff 293d dc91 423e 65bd bb3d
00000070: 4e29 2bbe 89b1 813b 0bb1 20be 0024 293e
00000080: 0949 14bd 488c 9b3b c3e0 eabd da2c f7bd
00000090: 88d2 193d 3eb2 133e c227 e7bd b101 f6bb
000000a0: 62b4 3c3e 802c 443e 1428 17bd 92e1 5d3e
000000b0: 70e9 983d 014f 353e 08ed b43c 25e1 2dbe
000000c0: 5495 93bd 1e44 1e3d c619 f63d 7884 35be
000000d0: d5e6 163e 56f3 2cbe 4855 fc3d 0aee 643e
000000e0: 9fcf 343d 0d4c 43bd 8844 eb3d d5aa 86bd
000000f0: 55b8 12be a89b 28be 175d d33d 5a37 2b3e
00000100: 0be1 543b 5374 22be 674d 51be e95d 14bd
00000110: cabb c43d 6018 00be ab82 2f3d be7f febd
00000120: 090e 503e 943a 5fbd 4a2c 23bd f350 30be
00000130: 871c 53be 3383 5c3d 0c4a 0a3d f065 843d
00000140: 62ee 5dbe 724f 973c 5e38 99bb e698 ac3d
00000150: d5e7 9abd b553 553d e8f5 953d 501c 9c3d
00000160: 9293 8bbd f061 5c3d a8e0 dbbc e609 ad3d
00000170: e251 45be 3f3d 1dbe a527 e7bd 0d97 afbd
00000180: 5b67 abbd 2005 0a3d 41d9 e8bc cc63 07be
00000190: b9e4 ae3c d57a 9ebd 344b 0b3e 17a5 10be
000001a0: 50ce 31bd 6918 01be ed20 383d 9f36 cf3c
000001b0: 9539 19bd 3239 563e 4c97 abbd dbca 0ebd
000001c0: ce21 7d3d 8606 323e 9d3a 153e c9d0 e13c
000001d0: 3ea8 c3bd 6862 af3d d956 0e3e 5731 823b
000001e0: 186d d83d b3e6 223e c05b 02be 2a0b 6fbd
000001f0: 11a1 51be da85 efbc 3454 183e e0fa 38bd
00000200: 9fed 503d 47df 353c 632f 5ebb f5f3 1d3e
00000210: b0d0 883c 2f74 41be e0ff 1bbe 8eb5 58be
00000220: 0fcb d4bb 2cba e83c bb50 bdbc d0b3 2f3e
00000230: 5ccd 58bc c36d 323d 7e52 2c3e 61f8 e03d
00000240: b366 cdbc ed05 3b3e cb87 c2bd 0f51 bf3d
00000250: ba46 cd3d 4531 1abe a209 29be b765 3b3d
00000260: 1820 91bd 290c b7bd 78f2 5e3d 2131 02be
00000270: d0e6 0c3e a71e 68bc aa70 aebd 5506 2b3e
00000280: 3bdb 7f3d ad61 0b3d 4258 d8bd 531d 703e
00000290: 3eba e3bd cdcc 2a3e 7f21 af3b dbe0 e03d
000002a0: 7b4c 103e 6587 30be 2804 ebbd 4cf9 4fbe
000002b0: a189 303e 12de 313e 2c93 8dbd 42d4 d7bd
000002c0: ec38 083d 3376 043e fd0e 7f3d cb99 55bd
000002d0: 3639 e7bd 0ace 383e 9434 eabd 956c 2dbe
000002e0: e994 8dbd 7eb0 a43d ab65 ab3d 3159 ae3d
000002f0: cb4e cdbd 4b8a a4bd 096c a8bd 477c f2bd

EDMoE.expertnet.0.conv1_3.conv.bias f4 [8]
-0.1689527 0.040704567 -0.057631373 -0.19307536 -0.11732209 -0.1207921 -0.086241454 -0.124356225
00000000: f001 2dbe d5b9 263d e00e 6cbd 8cb5 45be
00000010: 9046 f0bd d961 f7bd 5c9f b0bd 7aae febd
