cls_param/Houston/IDNet_Houston.pkl (torch, 753330 bytes, 316 tensors)

encoder_pos_embed1 f4 [1, 16, 4, 4]
-0.77039933 0.24662505 -0.8328608 1.0097989 1.0928607 -0.971705 1.3486941 2.2020009
0.43965882 -1.2383709 0.6899163 -0.5138832 -0.8625766 0.5333194 -0.52842975 0.7254188
-1.3044668 -1.409223 -1.3656279 0.21209697 -0.19090119 -0.82990515 -2.156292 -0.54243886
-0.3963563 -1.6469629 0.44676414 -0.16761768 -0.9414031 1.0971531 0.8003824 1.2026985
0.809494 0.19663155 0.17348717 0.041507162 0.6933628 -0.60861844 -0.15807042 1.6707993
1.044315 -1.1525034 -0.25556397 0.021955982 0.8659468 -2.2317126 -0.16597329 -0.035322335
-1.541892 -0.22293873 -0.3414662 0.45784432 -1.5351771 -2.3768249 0.5057092 -0.16323937
0.7492013 1.4342529 -2.2156746 0.45443866 -0.11756651 -0.14955428 -0.121411376 0.41416213
1.7136359 1.0548913 1.0089551 0.8066506 -0.91320425 -0.11834595 1.3623289 -1.6076488
-1.3003788 2.8499677 -0.099750705 0.41360804 0.15151963 -0.03769926 0.6275454 -0.36489728
-0.64740723 -0.53230745 0.1851015 0.6769937 0.5438801 1.4895643 1.3447906 0.33351147
0.3629592 -2.2178657 0.20509735 0.029013304 1.4064978 0.29385197 0.76795524 -0.77736557
-1.6871423 -1.278477 -0.152199 -2.3406081 2.3924997 0.11762701 -1.0640128 -0.16239539
-0.6570264 -0.9812661 2.3829286 1.7700733 -0.23262231 -0.88454753 -0.9710427 -1.4646423
-0.48537856 -0.6214824 0.28174075 -0.0537832 0.032027904 -0.996467 0.1845053 -1.2001969
-0.524346 0.5473024 -1.0117542 -0.88005674 1.8263547 1.0331903 -1.6280882 0.87721205
-0.1384869 -0.41079327 1.3352315 -0.007950025 0.6044283 -0.99831694 -0.063383326 -1.4211826
-1.4192072 0.72393715 -0.7013116 0.43903318 1.0863813 1.8695523 -1.7894595 -0.17224804
0.7425048 0.077216186 -1.4376822 0.02917757 -1.2061931 -1.1433612 -1.001707 0.30480024
-0.97452444 -0.116236486 -1.7197771 -0.5163832 -0.03212468 0.67438775 1.2295966 0.3304739
-1.1908389 -0.035731297 1.1077126 -0.74914557 -0.70263374 0.32472897 -0.6044009 0.12417398
0.74526024 -0.042657074 -0.8817638 -1.0139905 0.09274115 -1.8757584 1.2143514 1.1803077
-0.2609682 0.46028864 -0.7291856 0.66920954 0.11488232 -0.869279 0.8062139 0.63201547
-0.75750947 -0.7389076 -0.3370426 0.13844728 -1.656861 -0.71257454 -1.1190317 -1.1231318
0.26359794 -0.4090105 0.67323965 -0.9191585 -1.6979101 -2.2261999 -1.0444258 -1.5220029
0.8854537 -0.69391567 -0.58957916 -1.1610461 -1.4606575 0.2232917 -0.17238992 -0.88589686
-2.5398903 1.3139063 -0.73508465 0.06451362 0.26842308 0.060243294 1.4327202 0.99369556
0.20025681 -1.7011029 -0.62426287 0.16620174 0.37119973 -0.56501585 -1.5226713 1.681251
-0.42407182 -0.13337639 1.3594552 0.28840467 1.55815 -1.4485099 0.20013559 1.4810916
1.2637869 -0.123782106 0.088104665 1.3978122 1.0718603 0.23038131 -0.120426886 -0.7795484
-0.1519092 0.21811856 -0.41532728 0.27270663 -0.24374954 -1.5823458 -0.16949095 -0.3749942
-0.6728173 -0.70197195 -1.5040141 0.30517963 1.1702504 -0.24446899 0.03948865 -0.3658156
00000000: e438 45bf 478b 7c3e 5e36 55bf 1741 813f
00000010: dce2 8b3f a9c1 78bf 02a2 ac3f 95ed 0c40
00000020: f61a e13e f082 9ebf 5b9e 303f d98d 03bf
00000030: d2d1 5cbf 9f87 083f 2c47 07bf 0cb5 393f
00000040: c5f8 a6bf 6b61 b4bf e5cc aebf f32f 593e
00000050: 9a7b 43be aa74 54bf b000 0ac0 46dd 0abf
00000060: 37ef cabe aecf d2bf 45be e43e f8a3 2bbe
00000070: cbff 70bf 836f 8c3f dce5 4c3f 06f2 993f
00000080: 003b 4f3f c859 493e 9fa6 313e 6a03 2a3d
00000090: 3980 313f 6bce 1bbf 36dd 21be c0dc d53f
000000a0: 1dac 853f 3b85 93bf 48d9 82be 08dd b33c
000000b0: b1ae 5d3f 61d4 0ec0 e7f4 29be 27ae 10bd
000000c0: b85c c5bf 0d4a 64be a8d4 aebe 926a ea3e
000000d0: af80 c4bf e61d 18c0 2876 013f 3928 27be
000000e0: a8cb 3f3f 9995 b73f 9dcd 0dc0 2fac e83e
000000f0: b6c6 f0bd c224 19be 87a6 f8bd 0f0d d43e
00000100: 6c58 db3f ae06 873f 7125 813f a780 4e3f
00000110: c1c7 69bf 5d5f f2bd cb60 ae3f 70c7 cdbf
00000120: d072 a6bf df65 3640 194a ccbd 6fc4 d33e
00000130: f627 1b3e 8a6a 1abd d1a6 203f d1d3 babe
00000140: 7bbc 25bf 4d45 08bf 3f8b 3d3e 764f 2d3f
00000150: ba3b 0b3f 0baa be3f 1922 ac3f 04c2 aa3e
00000160: cad5 b93e 83f1 0dc0 0a05 523e 4fad ed3c
00000170: 1f08 b43f c473 963e b798 443f 6e01 47bf
00000180: 47f4 d7bf 22a5 a3bf 0eda 1bbe 86cc 15c0
00000190: b71e 1940 6ee6 f03d 9231 88bf fa4a 26be
000001a0: e232 28bf 4134 7bbf e781 1840 c391 e23f
000001b0: 8b34 6ebe b571 62bf 4196 78bf 6679 bbbf
000001c0: 8a83 f8be 7819 1fbf 5340 903e c64b 5cbd
000001d0: b12f 033d 7618 7fbf f5ee 3c3e 0da0 99bf
000001e0: 8a3b 06bf 031c 0c3f 2981 81bf 664b 61bf
000001f0: fec5 e93f 943f 843f 3265 d0bf f890 603f
00000200: 83cf 0dbe 7f53 d2be dee8 aa3f d240 02bc
00000210: d0bb 1a3f b391 7fbf 1ecf 81bd 50e9 b5bf
00000220: 95a8 b5bf f253 393f 2889 33bf f5c8 e03e
00000230: 8b0e 8b3f 7d4d ef3f 020d e5bf ca61 30be
00000240: cb14 3e3f 8523 9e3d f805 b8bf cd05 ef3c
00000250: 8964 9abf a959 92bf ef37 80bf c70e 9c3e
00000260: 6f7a 79bf 650d eebd a821 dcbf b031 04bf
00000270: 2b95 03bd ada4 2c3f 6c63 9d3f e033 a93e
00000280: 696d 98bf fb5a 12bd 87c9 8d3f 01c8 3fbf
00000290: cedf 33bf e042 a63e 04ba 1abf ed4e fe3d
000002a0: 60c9 3e3f 2fb9 2ebd 46bb 61bf 71ca 81bf
000002b0: 12ef bd3d da18 f0bf de6f 9b3f 5314 973f
000002c0: a09d 85be f4aa eb3e e8ab 3abf 5151 2b3f
000002d0: 6c47 eb3d 1289 5ebf 0964 4e3f c4cb 213f
000002e0: 24ec 41bf 0c29 3dbf d990 acbe 20c5 0d3e
000002f0: 0514 d4bf 496b 36bf 6e3c 8fbf c8c2 8fbf
00000300: 4ff6 863e d369 d1be 6f59 2c3f f94d 6bbf
00000310: 1e55 d9bf 0f7a 0ec0 bfaf 85bf fed0 c2bf
00000320: 18ad 623f 75a4 31bf a9ee 16bf 299d 94bf
00000330: d3f6 babf 94a6 643e fc86 30be 23ca 62bf
00000340: 908d 22c0 152e a83f 822e 3cbf b81f 843d
00000350: c06e 893e acc1 763d 6063 b73f d562 7e3f
00000360: 1f10 4d3e bdbd d9bf b1cf 1fbf ca30 2a3e
00000370: e40d be3e e1a4 10bf e5e6 c2bf 3c33 d73f
00000380: f11f d9be d293 08be a102 ae3f c7a9 933e
00000390: 7671 c73f c668 b9bf 58f0 4c3e 6994 bd3f
000003a0: c5c3 a13f 7981 fdbd 3870 b43d 83eb b23f
000003b0: b832 893f 14e9 6b3e 5fa2 f6bd 7c90 47bf
000003c0: 168e 1bbe 795a 5f3e c7a5 d4be 34a0 8b3e
000003d0: 7b99 79be 4f8a cabf 098f 2dbe 3dff bfbe
000003e0: c13d 2cbf 6fb4 33bf 8983 c0bf 8140 9c3e
000003f0: c4ca 953f 1456 7abe dabe 213d 2f4c bbbe

encoder_pos_embed2 f4 [1, 32, 2, 2]
-2.6052284 -2.3270342 1.7674524 -0.10907289 -0.022322778 0.33353233 1.6242185 -0.28062043
0.74150586 0.17639142 0.2318353 0.509827 0.81757206 0.46579212 1.1425858 1.4890192
0.7459588 -1.6726657 0.5716973 -0.45637527 0.254946 1.0136361 0.4423519 0.4787712
-0.8432622 -0.85516876 1.6866072 1.01643 -0.14710192 0.9115724 2.1048973 -1.9494777
-1.5666413 0.2286895 -0.89838094 0.01467821 2.9660604 -1.379419 -0.27477974 1.5295081
0.6985791 1.2365987 1.5660063 -0.9455992 0.7926089 0.5340089 0.99942863 -0.4023687
-0.24036165 -0.022436757 1.8507674 -0.77701545 0.60261786 1.1026759 0.8097659 -0.93570185
0.26400682 0.11982826 0.5702157 0.5061155 0.14972788 0.32403696 0.3939054 1.7493565
0.043119233 -0.9699504 -1.014832 -0.58517724 0.3503054 -1.2631651 -0.7065656 -0.10889537
-0.50970834 0.79793423 -0.74128926 -0.021011386 0.54382944 -0.055444684 0.7765778 -0.7364779
1.0025539 0.7577005 0.042081773 1.5879735 -0.07752175 0.34790045 -0.8177754 -0.36094028
2.65753 1.7168697 1.0505862 -1.492705 -0.38857478 -1.7890155 -0.252606 -0.53813994
2.0694406 -0.99566334 -0.48212144 0.03074229 -0.31196117 -0.3957893 1.0210242 -1.4091682
1.0348394 -1.0713316 1.0972908 1.8730557 1.2732577 -0.19292949 -1.2484863 0.04963561
0.96227354 -0.5544719 -0.2414761 -1.8047081 -1.738355 -1.182975 1.4770026 0.4224566
2.217282 -1.7865368 0.93229175 0.16671593 -0.485229 1.3336488 -0.7237198 -1.5402738
00000000: 10bc 26c0 21ee 14c0 e13b e23f 9b61 dfbd
00000010: 42de b6bc c0c4 aa3e 64e6 cf3f 7bad 8fbe
00000020: 54d3 3d3f f49f 343e 3c66 6d3e 0684 023f
00000030: 674c 513f 4e7c ee3e 4040 923f 2e98 be3f
00000040: 28f7 3e3f e919 d6bf c15a 123f 05aa e9be
00000050: 4888 823e d4be 813f f37b e23e 8021 f53e
00000060: 08e0 57bf 57ec 5abf bfe2 d73f 611a 823f
00000070: e3a1 16be cf5c 693f a3b6 0640 7c88 f9bf
00000080: b487 c8bf 952d 6a3e 4bfc 65bf e07c 703c
00000090: efd3 3d40 cd90 b0bf eeaf 8cbe ecc6 c33f
000000a0: 14d6 323f de48 9e3f e572 c83f ca12 72bf
000000b0: 6be8 4a3f cfb4 083f 8eda 7f3f 4503 cebe
000000c0: 5d21 76be 4acd b7bc f2e5 ec3f 7cea 46bf
000000d0: 2a45 1a3f 7c24 8d3f d14c 4f3f 288a 6fbf
000000e0: e72b 873e 8568 f53d a8f9 113f c990 013f
000000f0: 4452 193e 2ce8 a53e f8ad c93e eaea df3f
00000100: cb9d 303d ab4e 78bf 04e6 81bf 2dce 15bf
00000110: 3b5b b33e 65af a1bf 7ce1 34bf 8904 dfbd
00000120: 3f7c 02bf 6b45 4c3f 22c5 3dbf 1220 acbc
00000130: 6838 0b3f f719 63bd cdcd 463f d189 3cbf
00000140: b053 803f a9f8 413f f05d 2c3d b742 cb3f
00000150: b9c3 9ebd 0220 b23e bb59 51bf 2acd b8be
00000160: f914 2a40 63c2 db3f 9c79 863f f510 bfbf
00000170: 46f3 c6be 76fe e4bf 9355 81be 8ac3 09bf
00000180: b771 0440 cbe3 7ebf 9fd8 f6be 41d7 fb3c
00000190: 60b9 9fbe e5a4 cabe ecb0 823f a05f b4bf
000001a0: 9e75 843f 6521 89bf 0674 8c3f 4ac0 ef3f
000001b0: 1cfa a23f 4f8f 45be 66ce 9fbf b64e 4b3d
000001c0: 8f57 763f dff1 0dbf 8345 77be ad00 e7bf
000001d0: 6b82 debf ba6b 97bf 6c0e bd3f 3b4c d83e
000001e0: f3e7 0d40 3dad e4bf acaa 6e3f 95b7 2a3e
000001f0: ef6f f8be 01b5 aa3f b345 39bf b127 c5bf

encoder_pos_embed f4 [1, 15, 16, 16]
0.6342303 -0.46626937 -1.4274498 0.24472748 0.69027996 0.28569102 0.72632027 -0.8810157
-0.13889007 0.1438694 -1.4020385 1.8869437 0.9731558 0.5554027 0.87581974 1.0315399
0.80640316 0.30880508 -1.3519901 1.4633585 -1.2018282 0.26315874 0.4651028 0.36621177
-0.71838325 1.1132011 1.3844212 -0.48968878 0.5262303 -1.0571277 1.755219 -0.32337245
0.41422215 -0.12984264 -0.7026991 -0.38194668 -0.48491716 0.018565996 0.0024234802 0.7700925
0.8179945 0.40335396 -1.6739118 0.29552418 0.39889503 -0.57816714 1.131945 -1.0916964
-1.571402 -0.4062484 -1.5568061 -0.7500299 0.70699406 0.29982272 -0.7638185 0.34844998
0.62205917 -0.5526085 0.30362168 -1.780615 -0.201511 0.010902889 -0.39661396 2.2496722
1.3462718 1.6278397 -1.3213204 0.30593345 -0.24246022 0.9182019 -1.3190793 0.51025045
0.54739136 0.14258483 -1.8698868 0.3370441 -1.0549108 1.0374762 -1.0261065 0.75275505
-2.0133862 -1.2569456 -1.5239301 0.15190299 0.6576162 1.8103724 -0.67824405 -0.24714932
-0.37683028 0.972167 -0.98099416 -0.85500395 1.637215 -0.35835308 -0.606536 -0.15813437
-0.7374957 -0.11416858 -0.5457314 1.2760613 -1.7491513 -0.23189457 -1.0149646 0.91530114
0.75294137 -0.20289132 -0.47292835 -2.0264106 -0.30931124 -1.9820977 0.0720931 1.4870266
0.5532635 -0.56971836 0.40362954 -1.8576553 0.23231149 1.3104076 -1.4220018 -0.9346454
1.0238798 -0.4640699 1.1153728 -0.8572854 -1.3569522 -1.7159622 -1.5093057 -1.3767451
0.20638493 -0.8366592 0.76895934 1.4781091 1.959496 -0.6097456 1.4871932 1.1192466
0.2561387 2.1571562 0.91299975 0.931921 0.15741411 0.51786417 0.3664837 -0.1865539
0.7758144 0.38030118 0.34005865 -2.85014 -2.1413257 -1.7116852 0.8348375 0.98939735
-0.484316 0.67972195 1.6344516 1.4229262 0.23379192 1.3258946 0.3208192 -0.75833535
0.5007699 0.17450733 -0.5083315 -0.06737672 0.34545118 0.31380787 -0.2022569 -0.19863616
-0.26589394 -0.18995796 0.54936284 -0.4821895 -0.4656956 -1.1805359 -1.0132535 -0.14853735
-1.1021436 1.5517994 -0.22072181 1.5544686 -1.1957312 -0.2576455 1.9363756 1.2172241
-1.4390032 -0.36138427 1.0666705 0.3764337 0.82875776 -1.7274299 1.2412255 -0.6536147
-1.9437597 0.3567161 -0.12171076 0.5704677 -0.5465779 -0.015984744 -0.21740904 0.1285528
-0.32655054 -1.2959318 -0.24352385 1.2151426 0.582138 -1.691427 0.07723377 0.6875821
-0.62807983 -0.2799933 0.20671642 -0.35839626 0.5250937 0.49906102 0.7082812 0.008313512
0.9911634 0.18510893 -1.7479905 -0.42088246 1.8451335 -0.042983163 0.30954012 -0.8552679
-1.691495 -0.84459656 0.5381185 0.4135171 -0.4193148 -0.73426735 0.26300466 0.2537401
-0.5331252 -0.64989305 1.7953333 0.5398599 2.0372183 -1.7347641 -1.0979756 -0.27666485
1.9177191 -1.0450566 0.6653921 -0.0011043561 -1.0353341 -1.1239178 0.2939852 -0.17637849
-0.2557081 1.0849856 -0.3827207 -0.1853842 -0.20506173 0.3047605 -2.0836115 -0.23579277
00000000: eb5c 223f dcba eebe adb6 b6bf d799 7a3e
00000010: 30b6 303f 1846 923e 20f0 393f 3f8a 61bf
00000020: 3339 0ebe 8052 133e ff75 b3bf 5f87 f13f
00000030: bd20 793f df2e 0e3f b935 603f 8009 843f
00000040: 7070 4e3f b31b 9e3e 030e adbf 554f bb3f
00000050: 82d5 99bf bebc 863e f421 ee3e 1c80 bb3e
00000060: f7e7 37bf 607d 8e3f b734 b13f 7db8 fabe
00000070: 07b7 063f f64f 87bf 04ab e03f 1391 a5be
00000080: ed14 d43e 78f5 04be 17e4 33bf 848e c3be
00000090: 1047 f8be b717 983c 40d3 1e3b c824 453f
000000a0: 1668 513f 6984 ce3e be42 d6bf f24e 973e
000000b0: f83b cc3e c302 14bf 93e3 903f b5bc 8bbf
000000c0: b323 c9bf caff cfbe 6c45 c7bf f601 40bf
000000d0: 90fd 343f 5d82 993e 9c89 43bf 0968 b23e
000000e0: 453f 1f3f c077 0dbf 4d74 9b3e 31eb e3bf
000000f0: e658 4ebe 08a2 323c fc10 cbbe a1fa 0f40
00000100: a252 ac3f 0d5d d03f 0721 a9bf 4fa3 9c3e
00000110: 7e47 78be 480f 6b3f 97d7 a8bf c69f 023f
00000120: d721 0c3f c201 123e 7358 efbf 0b91 ac3e
00000130: 5107 87bf 05cc 843f 7557 83bf 8eb4 403f
00000140: 52db 00c0 98e3 a0bf 2410 c3bf 758c 1b3e
00000150: 8959 283f 48ba e73f 67a1 2dbf b614 7dbe
00000160: e6ef c0be f0df 783f 6f22 7bbf 8ae1 5abf
00000170: 4390 d13f 0e7a b7be f145 1bbf faed 21be
00000180: 85cc 3cbf 37d1 e9bd 0eb5 0bbf fa55 a33f
00000190: 31e4 dfbf c575 6dbe 5cea 81bf 2d51 6a3f
000001a0: c4c0 403f bec2 4fbe aa23 f2be b6b0 01c0
000001b0: 0b5e 9ebe 61b5 fdbf 8ca5 933d e356 be3f
000001c0: ada2 0d3f 10d9 11bf 88a8 ce3e a6c7 edbf
000001d0: 10e3 6d3e 70bb a73f 2804 b6bf ec44 6fbf
000001e0: 7e0e 833f 929a edbe 89c4 8e3f 0e77 5bbf
000001f0: 9cb0 adbf a6a4 dbbf ee30 c1bf 2f39 b0bf
00000200: 9256 533e 4c2f 56bf 85da 443f ae32 bd3f
00000210: c4d0 fa3f 4a18 1cbf 595c be3f 7943 8f3f
00000220: 9d24 833e d90e 0a40 5aba 693f 6092 6e3f
00000230: 2a31 213e bf92 043f c0a3 bb3e fc07 3fbe
00000240: c69b 463f d6b6 c23e 2b1c ae3e b268 36c0
00000250: 7b0b 09c0 8018 dbbf e9b7 553f 2549 7d3f
00000260: 44f8 f7be 4202 2e3f b635 d13f 7222 b63f
00000270: 2667 6f3e eab6 a93f 6a42 a43e 4422 42bf
00000280: 7532 003f 0db2 323e 0322 02bf cefc 89bd
00000290: fade b03e 6dab a03e 6f1c 4fbe 4767 4bbe
000002a0: 4023 88be 5784 42be 0ba3 0c3f 8be1 f6be
000002b0: a76f eebe cd1b 97bf 4ab2 81bf 2d1a 18be
000002c0: 0b13 8dbf 5da1 c63f e604 62be d4f8 c63f
000002d0: b80d 99bf 1cea 83be 28db f73f 00ce 9b3f
000002e0: 4231 b8bf 5c07 b9be a988 883f ebbb c03e
000002f0: 7829 543f 6c1c ddbf 7ae0 9e3f 4b53 27bf
00000300: 1ecd f8bf 7ea3 b63e 7e43 f9bd 2c0a 123f
00000310: 87ec 0bbf 70f2 82bc 7aa0 5ebe 58a3 033e
00000320: a231 a7be 18e1 a5bf 515e 79be cb89 9b3f
00000330: ff06 153f ae80 d8bf bd2c 9e3d 6105 303f
00000340: d7c9 20bf 485b 8fbe 78ad 533e b77f b7be
00000350: 8a6c 063f ed84 ff3e eb51 353f 6635 083c
00000360: e2bc 7d3f 328d 3d3e 27be dfbf e87d d7be
00000370: 562d ec3f 1d0f 30bd 0b7c 9e3e d6f2 5abf
00000380: e882 d8bf 7b37 58bf 22c2 093f 83b8 d33e
00000390: 6eb0 d6be f2f8 3bbf 8ca8 863e 39ea 813e
000003a0: e57a 08bf 645f 26bf 7bcd e53f 4234 0a3f
000003b0: c961 0240 c00c debf 778a 8cbf 04a7 8dbe
000003c0: d277 f53f 6ac4 85bf 2357 2a3f 0bc0 90ba
000003d0: d485 84bf 8adc 8fbf 3a85 963e 909c 34be
000003e0: 2cec 82be cfe0 8a3f f8f3 c3be 5bd5 3dbe
000003f0: b4fb 51be 9109 9c3e e459 05c0 a973 71be

down1.body.0.weight f4 [8, 16, 3, 3]
-0.068621874 0.05434933 -0.078291096 -0.082068846 -0.084262155 0.034747887 -0.047913644 0.05100105
-0.016426317 0.029026806 -0.041801807 -0.03732491 -0.06205408 -0.071867295 -0.069803655 0.06814625
0.014050466 0.014925416 -0.062143557 -0.025042776 0.042137567 0.07481038 0.018787943 0.06816642
0.050532598 0.06388885 0.12881075 -0.13142581 -0.07328284 -0.028582145 -0.06713752 0.041901473
-0.05209744 -0.083621964 -0.08047705 -0.09311637 -0.028350675 0.05130633 0.03157529 0.024532339
0.004674137 -0.044589557 -0.0025049993 -0.08585545 -0.08176327 -0.027752144 0.05184875 0.04862444
-0.030387035 0.013806243 0.10247929 0.093335345 0.034742128 0.03437869 0.014599056 -0.08172127
-0.015431405 -0.061719246 -0.0724286 -0.098178975 0.06438265 0.023641758 -0.060501553 0.07086646
0.052165635 0.0020223109 0.024479944 0.033903066 0.07892703 0.075952746 -0.04569421 -0.023730898
0.044027943 0.06892952 0.05878622 0.07715602 0.008822493 -0.10077031 -0.04038933 -0.07973711
-0.14097609 0.12717195 0.09168318 -0.0658083 0.0015743631 -0.031693526 -0.02354731 -0.008745505
0.02059088 -0.066425845 -0.0016427003 0.0056140893 0.055179663 -0.007854578 -0.14225364 -0.097001314
0.08556246 0.003525258 -0.07440393 -0.012645069 0.1137657 0.06689255 -0.015471452 -0.03269592
-0.093497746 -0.044572547 -0.08811461 -0.09773585 0.038611803 0.03367352 -0.0039545316 0.066528834
-0.035412297 0.08293657 0.0667364 -0.089040585 -0.03448699 0.008655257 -0.014775253 -0.012247549
0.05227841 -0.046539772 -0.029037347 0.022128917 -0.10273318 -0.024720622 -0.07516438 -0.057720214
0.0004469891 -0.13686289 -0.051355205 0.041094743 -0.12426175 -0.035457943 0.09978492 -0.03940278
-0.018387984 0.00045971049 0.010698286 0.06393077 0.09886542 0.016652526 0.093091704 0.018911703
-0.14043193 -0.07837804 0.015036718 -0.052131645 -0.0895078 -0.10710658 -0.14465252 -0.11652822
-0.061884332 0.052080873 0.02116657 -0.06409636 0.051838953 -0.07935772 -0.0428241 -0.05106143
-0.034791026 -0.01605774 -0.11713359 -0.103938565 -0.043721583 0.0075375806 -0.0526376 0.02066284
-0.08751619 -0.011222118 0.060593024 -0.016608128 0.096246645 0.063042745 -0.07244309 0.06995008
0.0118363 -0.06576678 0.05742487 -0.061320644 0.007393063 0.008855257 0.0781305 0.03992138
0.06475321 0.03379613 0.020132031 0.013314179 -0.059795227 0.06693285 0.10632211 0.12662701
-0.033558607 0.016001038 -0.020435477 -0.060039565 -0.036033906 0.0014550717 -0.045359895 -0.035066415
-0.053222273 0.038159534 -0.06617279 -0.07817441 -0.065347694 0.031133149 -0.030080937 0.07897303
0.08010619 0.040838968 -0.0182241 -0.024742888 -0.015272014 -0.049287055 -0.03079528 -0.02408044
-0.102360174 -0.071104154 0.050623294 -0.08669427 -0.012149168 0.076414354 0.03925408 -0.016430415
-0.080636814 0.006040556 -0.088002056 -0.03684915 -0.0064724796 -0.049637407 -0.027060067 0.12029425
0.047886755 0.121421166 0.022864707 -0.10765674 0.0052717 -0.06423388 -0.064851575 -0.005831604
0.016437469 0.042903185 -0.020919804 0.028912343 0.04444011 -0.0959352 0.08187666 -0.07843422
-0.02681815 -0.0011267784 -0.025109323 0.02108973 0.048212554 -0.06165662 -0.0870166 -0.09338506
00000000: a089 8cbd 679d 5e3d 1557 a0bd b613 a8bd
00000010: a391 acbd cd53 0e3d 1941 44bd 7ae6 503d
00000020: 7c90 86bc a0c9 ed3c 5f38 2bbd 01e2 18bd
00000030: 6b2c 7ebd 292f 93bd 38f5 8ebd 4390 8b3d
00000040: ed33 663c bb89 743c 3e8a 7ebd 8226 cdbc
00000050: 7198 2c3d 2f36 993d 2ce9 993c d69a 8b3d
00000060: 45fb 4e3d 28d8 823d f7e6 033e 7d94 06be
00000070: 5015 96bd 1a25 eabc 657f 89bd e1a0 2b3d
00000080: 2064 55bd fe41 abbd 27d1 a4bd ccb3 bebd
00000090: ad3f e8bc 9626 523d 1755 013d 0bf8 c83c
000000a0: 8129 993b 8aa3 36bd ea2a 24bb fbd4 afbd
000000b0: 8073 a7bd 7758 e3bc 5b5f 543d 6c2a 473d
000000c0: 3bee f8bc 9533 623c a9e0 d13d 9a26 bf3d
000000d0: c34d 0e3d abd0 0c3d e130 6f3c 7b5d a7bd
000000e0: 01d4 7cbc 52cd 7cbd 7255 94bd 0f12 c9bd
000000f0: 0ddb 833d 5cac c13c 7ad0 77bd 6f22 913d
00000100: a2ab 553d bf88 043b 2a8a c83c f1dd 0a3d
00000110: 7fa4 a13d 1d8d 9b3d da29 3bbd 4d67 c2bc
00000120: a556 343d ec2a 8d3d d2c9 703d fa03 9e3d
00000130: 388c 103c aa60 cebd 486f 25bd 364d a3bd
00000140: 095c 10be 5d39 023e 64c4 bb3d 81c6 86bd
00000150: dc5a ce3a 12d1 01bd 4ae6 c0bc 4e49 0fbc
00000160: 35ae a83c 460a 88bd e04f d7ba 65f6 b73b
00000170: 1204 623d 7db0 00bc f0aa 11be a0a8 c6bd
00000180: 5f3b af3d 0408 673b 1661 98bd 432d 4fbc
00000190: fefd e83d f6fe 883d f97b 7dbc 28ec 05bd
000001a0: bf7b bfbd b491 36bd 6f75 b4bd bc29 c8bd
000001b0: 6927 1e3d 3fed 093d 0495 81bb 4540 883d
000001c0: 7c0c 11bd a6da a93d 18ad 883d e95a b6bd
000001d0: 3b42 0dbd c7ce 0d3c e713 72bc f2a9 48bc
000001e0: e321 563d 7da0 3ebd bbdf edbc b447 b53c
000001f0: c665 d2bd e782 cabc c8ef 99bd 086c 6cbd
00000200: dd59 ea39 c925 0cbe d659 52bd f652 283d
00000210: f27c febd 593c 11bd 095c cc3d cf64 21bd
00000220: 66a2 96bc 4c05 f139 dd47 2f3c 23ee 823d
00000230: f479 ca3d e16a 883c dda6 be3d b7ec 9a3c
00000240: 63cd 0fbe aa84 a0bd 915c 763c fe87 55bd
00000250: de4f b7bd b25a dbbd ca1f 14be 59a6 eebd
00000260: 6d7a 7dbd c152 553d 8465 ad3c f444 83bd
00000270: 1555 543d 4d86 a2bd 5368 2fbd ca25 51bd
00000280: 0981 0ebd 868b 83bc bce3 efbd bedd d4bd
00000290: 6715 33bd cffd f63b 869a 57bd 1e45 a93c
000002a0: b03b b3bd f9dc 37bc 6430 783d c50d 88bc
000002b0: f61c c53d 8e1c 813d 0b5d 94bd fd41 8f3d
000002c0: 0aed 413c bcb0 86bd 5736 6b3d 5b2b 7bbd
000002d0: 8241 f23b a415 113c e202 a03d 9a84 233d
000002e0: 559d 843d d06d 0a3d eeeb a43c b723 5a3c
000002f0: d7eb 74bd 1714 893d 68bf d93d 83aa 013e
00000300: c074 09bd 9c14 833c 4d68 a7bc 0cec 75bd
00000310: 4a98 13bd 1bb8 be3a 4ccb 39bd cda1 0fbd
00000320: 99ff 59bd 2c4d 1c3d 9a85 87bd e819 a0bd
00000330: 03d5 85bd f20a ff3c 4c6c f6bc 9dbc a13d
00000340: b70e a43d c346 273d b54a 95bc 99b1 cabc
00000350: 7837 7abc 39e1 49bd 6246 fcbc 5844 c5bc
00000360: 36a2 d1bd 0e9f 91bd 5f5a 4f3d c48c b1bd
00000370: 4e0d 47bc 217f 9c3d e3c8 203d 1499 86bc
00000380: ea24 a5bd dbef c53b 6c3a b4bd 22ef 16bd
00000390: 1817 d4bb 9850 4bbd 13ad ddbc d55c f63d
000003a0: e724 443d a9ab f83d c44e bb3c 237b dcbd
000003b0: 3abe ac3b 0d8d 83bd e7d0 84bd 0a17 bfbb
000003c0: dfa7 863c 40bb 2f3d 0260 abbc 94d9 ec3c
000003d0: d506 363d ad79 c4bd f3ae a73d 1fa2 a0bd
000003e0: bdb1 dbbc 69b0 93ba 11b2 cdbc 5fc4 ac3c
000003f0: 877a 453d a78b 7cbd c235 b2bd ab40 bfbd

down2.body.0.weight f4 [8, 16, 3, 3]
-0.07730686 -0.007660869 0.046856854 -0.0721992 -0.060823053 0.064407706 -0.010348234 0.028905395
-0.07446194 -0.035614032 -0.041537568 0.060422875 0.01589746 -0.08633589 -0.0052181426 -0.012911749
-0.024131075 -0.07563522 -0.02227252 0.03969961 -0.075942144 -0.08534671 -0.031330083 0.0057223802
-0.0062634065 0.0032248627 0.0010372313 -0.055476043 -0.01877705 -0.02426922 0.073280096 -0.0939845
-0.048175663 -0.059088603 -0.014767005 0.03527071 0.09714283 -0.050410554 -0.0030698946 0.03932421
0.057772946 0.0681437 0.023689086 -0.01577514 0.023241326 -0.03128856 0.0053563393 -0.049108993
0.02865874 0.08399613 0.08174509 -0.06298247 -0.05834029 0.00588424 -0.057843443 0.04562698
-0.021350436 -0.024755748 -0.019543426 -0.09463306 0.004637497 -0.05848715 -0.07087218 -0.09836263
0.022461182 0.03550318 -0.06464239 0.014623333 0.04908805 -0.0024457804 -0.022993533 -0.0051317443
-0.004157952 0.01074891 -0.0695027 0.033236254 0.027956512 -0.051872913 0.051828224 0.07675832
0.010764804 -0.02732899 0.038141057 -0.019204075 0.060282018 0.010850648 0.04404706 -0.037786778
-0.063980564 0.0037741947 0.059018586 -0.080056734 -0.056499626 -0.07259169 -0.057398114 -0.027811633
0.054267287 -0.023512764 0.061723053 0.04595295 0.02255917 -0.074062236 0.06591965 0.025074411
0.061566092 -0.08211048 0.045138173 0.06560125 -0.08837853 0.027936732 0.094224975 -0.062110685
0.042969473 0.04422416 0.032838836 0.08760859 0.053805295 0.061292224 0.008918644 0.055298783
-0.039094735 -0.049146757 -0.011683615 -0.03447815 0.07011223 0.034218553 0.03285579 0.046504788
-0.031317092 -0.004859046 0.0061465907 -0.0013626864 0.044969108 -0.013921993 -0.028111719 0.049611986
-0.039789777 -0.114349864 0.03646876 0.027485458 -0.020708606 -0.05858826 -0.06540991 -0.08993603
-0.0023946615 -0.060611334 0.030643564 -0.073550574 -0.021647343 0.0069179414 0.023723997 0.057659928
0.030189294 0.017242333 -0.06454815 -0.046955418 -0.06953228 -0.028799843 0.05394906 -0.009699679
-0.030831018 -0.05488698 -0.0005533933 0.029792985 -0.067486905 -0.06645574 0.04492439 0.027757922
-0.0019952268 0.020197084 0.0065544625 -0.0690312 -0.081752665 0.039258882 0.005445605 -0.027674858
-0.012033818 -0.07399208 -0.05470115 -0.051027764 0.04073826 0.048527416 -0.02018278 -0.03731741
0.017145311 -0.026646487 0.07337151 0.04386094 -0.033861075 0.016427852 0.022276077 0.043669418
-0.050471287 0.0071509057 0.08924811 -0.067364596 0.009864977 0.05856492 -0.03170168 0.037069056
0.038947213 0.053943317 -0.007305821 0.053857677 -0.035703067 -0.041161634 0.042634703 -0.017208925
0.028203478 0.0689947 -0.07027942 0.049834672 0.035332594 0.03650578 0.023118636 -0.048899252
-0.02973791 0.057898324 -0.01434365 0.036317565 -0.075856134 -0.030095099 -0.0025639453 -0.020901287
-0.015269557 0.031338476 0.010255139 -0.0043955226 0.10506558 -0.055792004 -0.01625451 -0.008725855
0.08802942 0.08642987 0.018286934 -0.016988318 -0.072632104 0.053115215 2.3341992e-05 0.06165857
0.072039515 0.045156572 0.055423133 -0.009454683 0.026651477 -0.02679591 0.05691347 0.0047014304
0.035155956 -0.0466425 -0.06321252 0.042443268 0.003552368 0.010577548 0.046616282 -0.029749716
00000000: 0f53 9ebd 0708 fbbb f9ec 3f3d 2ddd 93bd
00000010: 9821 79bd 30e8 833d a48b 29bc 02cb ec3c
00000020: 807f 98bd 05e0 11bd 4c23 2abd fa7d 773d
00000030: 643b 823c dfd0 b0bd f4fc aabb cd8b 53bc
00000040: 88ae c5bc a3e6 9abd dc74 b6bc 0f9c 223d
00000050: 8e87 9bbd 42ca aebd f953 00bd ce82 bb3b
00000060: 433d cdbb 3858 533b b5f3 873a d93a 63bd
00000070: 54d2 99bc 3ed0 c6bc e013 963d f27a c0bd
00000080: d853 45bd e406 72bd 4ff1 71bc 0578 103d
00000090: d2f2 c63d 4c7b 4ebd 4930 49bb 6c12 213d
000000a0: 53a3 6c3d ed8e 8b3d 9d0f c23c de3a 81bc
000000b0: 9864 be3c 6f28 00bd 3b84 af3b 8326 49bd
000000c0: bcc5 ea3c 2a06 ac3d f869 a73d f4fc 80bd
000000d0: 3af6 6ebd 95d0 c03b 3fed 6cbd 5be3 3a3d
000000e0: 1ce7 aebc 91cc cabc 8919 a0bc face c1bd
000000f0: 25f6 973b 3990 6fbd 6f25 91bd 5972 c9bd
00000100: 8300 b83c c86b 113d 3b63 84bd b496 6f3c
00000110: 8d10 493d 6349 20bb ef5c bcbc 3128 a8bb
00000120: 6e3f 88bb 321c 303c 6e57 8ebd bd22 083d
00000130: 0e05 e53c b178 54bd d549 543d 7733 9d3d
00000140: dc5e 303c 0ce1 dfbc cc39 1c3d dd51 9dbc
00000150: 47ea 763d ebc6 313c b16a 343d 4fc6 1abd
00000160: 3e08 83bd 7b58 773b 79bd 713d c9f4 a3bd
00000170: 276c 67bd f4aa 94bd 491a 6bbd 39d5 e3bc
00000180: 6047 5e3d d79d c0bc 50d1 7c3d 2939 3c3d
00000190: 02ce b83c f1ad 97bd e200 873d da68 cd3c
000001a0: ba2c 7c3d 8a29 a8bd cee2 383d f359 863d
000001b0: ceff b4bd 93db e43c 06f9 c03d c667 7ebd
000001c0: c200 303d 6524 353d 0482 063d 226c b33d
000001d0: f162 5c3d 8e0d 7b3d 811f 123c fa80 623d
000001e0: cd21 20bd 1c4e 49bd a26c 3fbc f638 0dbd
000001f0: 0097 8f3d c128 0c3d cb93 063d ce7b 3e3d
00000200: 5a46 00bd a238 9fbb 5769 c93b 2b9c b2ba
00000210: 8731 383d 1219 64bc 8c4a e6bc f035 4b3d
00000220: 9bfa 22bd 4330 eabd 4460 153d 2f29 e13c
00000230: 18a5 a9bc 3efa 6fbd a2f5 85bd 6230 b8bd
00000240: c1ef 1cbb 9743 78bd 3608 fb3c afa1 96bd
00000250: c555 b1bc e6af e23b d458 c23c d12c 6c3d
00000260: 8a4f f73c cb3f 8d3c d231 84bd 5354 40bd
00000270: f166 8ebd a6ed ebbc b1f9 5c3d 67eb 1ebc
00000280: 5591 fcbc 2cd1 60bd 9911 11ba 6b10 f43c
00000290: 9336 8abd f219 88bd a302 383d 9564 e33c
000002a0: 5ac2 02bb 5b74 a53c d1c6 d63b 3b60 8dbd
000002b0: f16d a7bd eccd 203d 0c71 b23b 62b6 e2bc
000002c0: 7e29 45bc 2989 97bd 500e 60bd 7d02 51bd
000002d0: 29dd 263d afc4 463d 5c56 a5bc 24da 18bd
000002e0: 5374 8c3c bc49 dabc cd43 963d 87a7 333d
000002f0: e9b1 0abd b493 863c 527c b63c b4de 323d
00000300: fbba 4ebd 2552 ea3b b7c7 b63d 73f6 89bd
00000310: b6a0 213c c5e1 6f3d 9fd9 01bd b9d5 173d
00000320: 1d87 1f3d abf3 5c3d ab65 efbb de99 5c3d
00000330: 613d 12bd 1a99 28bd baa1 2e3d bbf9 8cbc
00000340: fb0a e73c 184d 8d3d a8ee 8fbd 711f 4c3d
00000350: e9b8 103d 1687 153d 4b63 bd3c 954a 48bd
00000360: eb9c f3bc cb26 6d3d a101 6bbc bac1 143d
00000370: 765a 9bbd ff89 f6bc dd07 28bb 2d39 abbc
00000380: 2a2d 7abc c65c 003d 2c05 283c 5108 90bb
00000390: 9f2c d73d 2886 64bd 2e28 85bc e3f6 0ebc
000003a0: c548 b43d 2502 b13d 7bce 953c 162b 8bbc
000003b0: 24c0 94bd 578f 593d 8cce c337 b28d 7c3d
000003c0: 7489 933d 19f6 383d 5e03 633d d1e7 1abc
000003d0: 3354 da3c 1983 dbbc 191e 693d 750e 9a3b
000003e0: b1ff 0f3d 350c 3fbd 9175 81bd fed8 2d3d
000003f0: d8ce 683b 744d 2d3c b7f0 3e3d adb5 f3bc

EDMoE.gate.fc0.weight f4 [10, 8]
-0.3349925 -0.31679025 0.20471555 -0.20878638 0.25840017 0.11016339 0.08874773 0.28086722
-0.3274948 0.25890544 0.11465654 -0.23691952 0.086023785 -0.09853516 -0.1419129 -0.038291045
-0.16668804 0.30916005 0.30430415 -0.037716243 -0.3135229 -0.021628793 0.023359427 0.23632252
0.011375265 0.102900304 0.093810156 -0.20060673 -0.21930446 -0.31599545 -0.0027763816 0.1095059
-0.02513933 0.3431823 -0.067444734 -0.23070312 0.05892597 -0.09956455 -0.04846841 0.34257552
-0.010144325 0.30884364 0.04721547 -0.13152957 0.25921094 -0.2013942 0.011697984 0.07946961
0.15868685 -0.3262094 0.017343808 -0.09154194 0.22923212 0.11895088 0.14170314 0.21257745
-0.07915389 -0.022651993 0.2836395 -0.28496018 -0.24438307 0.025864214 -0.14005224 0.020248357
0.31231493 -0.040985197 -0.30145183 -0.16071744 0.32469168 -0.07767192 -0.15502533 0.15914376
0.043768574 -0.3117208 0.29443455 0.19909467 0.30730334 0.15471472 -0.119201906 -0.11541653
00000000: 2384 abbe 5532 a2be f4a0 513e 19cc 55be
00000010: 074d 843e 589d e13d 5fc1 b53d d4cd 8f3e
00000020: 66ad a7be 418f 843e 0cd1 ea3d 089b 72be
00000030: 3d2d b03d cdcc c9bd 9e51 11be 12d7 1cbd
00000040: 45b0 2abe 3a4a 9e3e c1cd 9b3e 597c 1abd
00000050: 1386 a0be de2e b1bc 455c bf3c 88fe 713e
00000060: 525f 3a3c 65bd d23d 8a1f c03d da6b 4dbe
00000070: 5991 60be 28ca a1be f4f3 35bb a144 e03d
00000080: fff0 cdbc 97b5 af3e 7720 8abd 703d 6cbe
00000090: 5c5c 713d 80e8 cbbd d086 46bd 0f66 af3e
000000a0: 6234 26bc c120 9e3e 0265 413d b0af 06be
000000b0: 4cb7 843e 483a 4ebe e7a8 3f3c f6c0 a23d
000000c0: ce7e 223e eb04 a7be 9a14 8e3c 577a bbbd
000000d0: d3bb 6a3e 859c f33d a11a 113e e7ad 593e
000000e0: 6f1b a2bd ac90 b9bc 3239 913e 4de6 91be
000000f0: 8e3f 7abe 30e1 d33c db69 0fbe e2df a53c
00000100: bee7 9f3e 18e0 27bd e557 9abe 1d93 24be
00000110: fd3d a63e 7512 9fbd f6be 1ebe 95f6 223e
00000120: ad46 333d de99 9fbe 20c0 963e 79df 4b3e
00000130: dd56 9d3e 896d 1e3e 2120 f4bd 805f ecbd

EDMoE.gate.fc0.bias f4 [10]
0.1713398 -0.06853769 0.06931538 -0.34258905 -0.17476933 0.13132654 -0.017429788 -0.16997103
-0.30839312 0.22470436
00000000: b373 2f3e 7d5d 8cbd 39f5 8d3d d567 afbe
00000010: bbf6 32be 777a 063e eac8 8ebc e30c 2ebe
00000020: b4e5 9dbe e618 663e

EDMoE.gate.fc1.weight f4 [10, 8]
0.03439931 0.03625191 -0.040147565 0.013854213 -0.059922975 0.031835828 -0.01990954 -0.0060292273
0.007205979 0.0040333206 -0.040081188 -0.014869629 -0.03878106 0.00029653037 -0.009460975 0.011527798
-0.03881727 -0.016164653 0.05530877 0.015675772 0.046419416 -0.012985539 0.02060134 -0.050665017
0.016940106 0.006602395 0.03741263 0.010362309 0.016505072 0.012191773 -0.009681419 -0.00728339
0.0022389437 0.023346556 -0.035462674 0.012665067 0.02437045 0.004722173 0.023281576 0.0019336888
-0.031727906 0.025315562 0.049644787 -0.01009255 0.020144818 0.011134181 0.0043575414 -0.027792865
-0.00020518717 0.016829627 -0.016801791 -0.03136446 0.00059918524 0.0051904186 -0.033431105 0.0036450725
-0.0032514415 -0.020543471 0.0058691716 -0.037231274 -0.0018932062 -0.02169718 -0.0019889341 0.012605194
0.02578812 -0.001609288 -0.023459097 0.04239352 0.04667278 0.00088704115 0.064167865 0.044622164
0.012623665 -0.05394857 -0.054030243 0.027652716 -0.015734836 -0.0097836135 0.00087444583 0.06296613
00000000: 4ae6 0c3d e27c 143d c671 24bd c8fc 623c
00000010: cb71 75bd 4966 023d 5519 a3bc d390 c5bb
00000020: 2220 ec3b f229 843b 2c2c 24bd bf9f 73bc
00000030: e4d8 1ebd a277 9b39 3502 1bbc 17df 3c3c
00000040: dcfe 1ebd bc6b 84bc 738b 623d 7a6a 803c
00000050: 4922 3e3d 4cc1 54bc 24c4 a83c 1f86 4fbd
00000060: fac5 8a3c e758 d83b fc3d 193d adc6 293c
00000070: a535 873c 01c0 473c d09e 1ebc 81a9 eebb
00000080: 3ebb 123b 4741 bf3c 4f41 11bd 2481 4f3c
00000090: 8aa4 c73c 75bc 9a3b 01b9 be3c d473 fd3a
000000a0: 1ff5 01bd 9562 cf3c 5558 4b3d 395b 25bc
000000b0: bf06 a53c 246c 363c b5c9 8e3b ddad e3bc
000000c0: 8327 57b9 49de 893c e9a3 89bc 0578 00bd
000000d0: a412 1d3a 6314 aa3b 0eef 08bd 2be2 6e3b
000000e0: 2316 55bb c84a a8bc 2e52 c03b d27f 18bd
000000f0: 7525 f8ba 49be b1bc c758 02bb 0486 4e3c
00000100: 9c41 d33c bfee d2ba 4b2d c0bc d4a4 2d3d
00000110: f52b 3f3d 5388 683a 716a 833d bbc5 363d
00000120: 7dd3 4e3c 2df9 5cbd d14e 5dbd f387 e23c
00000130: 58e6 80bc 734b 20bc 113b 653a 63f4 803d

EDMoE.gate.fc1.bias f4 [10]
0.26491633 -0.16869318 0.29533195 -0.16845745 -0.3077361 0.14625762 -0.2134044 -0.060785178
-0.09198087 -0.029416045
00000000: 1da3 873e e8bd 2cbe c035 973e 1c80 2cbe
00000010: 968f 9dbe 8fc4 153e af86 5abe e1f9 78bd
00000020: 7760 bcbd ebf9 f0bc

EDMoE.expertnet.0.conv1_1.conv.weight f4 [8, 8, 3, 3]
-0.107350074 -0.10344573 0.0374073 -0.021034295 -0.069847144 -0.009091399 -0.120427884 0.019751519
0.04432905 0.10640167 -0.09755675 -0.016671795 0.06160489 0.10613211 -0.07824555 0.048509732
0.03297428 0.083804965 -0.057694286 0.10196237 -0.021910707 -0.057940576 0.022993196 0.11865076
-0.06527304 0.07120807 -0.011750615 0.013655744 0.058942366 0.0006485254 -0.12462114 -0.034860667
0.0026056198 -0.10899761 0.0020781828 -0.07220169 -0.015836373 0.034552947 -0.09483741 -0.06889059
0.052817356 -0.11488621 0.089136265 -0.091832094 0.007734015 0.010601982 0.027844649 -0.08873375
0.009719289 0.049862307 0.0867237 -0.09715547 -0.073680334 0.023167156 -0.011412965 -0.09396709
-0.108367704 -0.110486746 -0.08103533 -0.06359462 -0.09485543 -0.111050375 -0.007636518 0.05752252
-0.087567866 0.0004957607 -0.00432299 0.05412973 -0.083258465 0.0063848933 0.10894673 0.06494218
-0.10812641 0.0016042127 0.008462225 -0.041783597 -0.076081686 -0.07655528 0.07953229 -0.026987854
-0.006775838 0.010684888 -0.07489563 0.014708936 0.07349599 -0.06770662 0.036652256 -0.0029167745
0.06377756 0.075678825 0.017046405 0.012461971 -0.11499774 0.007045601 0.07060493 -0.060542904
-0.12563299 0.080337465 -0.036731947 0.018714411 -0.045058012 0.07174746 0.11431608 0.07259215
-0.043653157 0.06911528 0.05895987 0.01717396 -0.1086596 -0.06543619 -0.1324236 0.07545606
0.11447387 0.049362436 0.022298574 0.013034765 0.0961826 -0.07962047 -0.06567934 -0.10709888
-0.02416393 0.0079425 0.015975837 -0.09945782 -0.031003935 -0.103562206 -0.087849155 0.039599903
-0.10050152 0.040161677 -0.10667867 -0.073154345 -0.015469184 -0.11406096 0.09909372 0.09510305
-0.049467478 0.03562059 0.065978125 0.03680358 -0.011731393 -0.109642245 0.08841974 -0.099583425
-0.05179294 -0.015920779 -0.056655653 -0.050514854 -0.10008253 -0.012602481 -0.013124403 0.08818381
-0.060355492 0.08635904 -0.00020419921 -0.04756308 -0.027755246 -0.013141606 -0.002279191 -0.015157247
0.037521947 0.09781405 0.015015153 0.042546768 0.07277558 -0.005303292 0.053381566 0.06623694
0.11745999 -0.10102049 0.048172876 -0.0016553602 -0.033260867 -0.04109293 0.062668175 0.10593491
-0.08538388 0.059705604 0.08626574 0.020336896 -0.0056854975 0.10791183 0.01757596 -0.0043712393
-0.008551789 0.048962086 0.03287347 0.0017056935 0.050318133 0.034340084 -0.121076755 0.031613432
0.06498159 0.013280493 -0.009591728 0.08617093 -0.103841454 -0.062014088 -0.0510775 0.078827076
-0.1181792 -0.002334024 -0.11217867 -0.006560845 0.04156479 -0.045198116 0.12015124 -0.027893951
-0.07667871 0.0074264393 0.04505351 -0.00023008708 0.091845274 -0.083948724 0.03840041 0.047949515
0.068652794 0.010649966 0.042490747 -0.08742807 -0.09088352 -0.01262891 -0.020367976 0.06707983
0.08105062 0.08260711 -0.057595078 -0.08413639 -0.10063867 0.04191027 -0.06360871 -0.09927893
-0.05947936 -0.10122089 -0.042975314 -0.06484753 -0.068810485 0.09606546 -0.021824064 0.09226041
-0.006551285 0.003875161 -0.035217073 -0.0688884 -0.06873411 0.07833553 -0.036967024 -0.11290678
0.12626684 0.021882368 -0.07044123 -0.089472234 -0.111468665 -0.10454184 0.10144684 0.073671125
00000000: 5bda dbbd 5bdb d3bd 6638 193d 1d50 acbc
00000010: 050c 8fbd 17f4 14bc e5a2 f6bd f0cd a13c
00000020: 6192 353d 1ee9 d93d d5cb c7bd 4a93 88bc
00000030: 6955 7c3d cb5b d93d 343f a0bd 24b2 463d
00000040: 0a10 073d f0a1 ab3d d850 6cbd a6d1 d03d
00000050: 157e b3bc 1953 6dbd 3a5c bc3c 2bff f23d
00000060: dfad 85bd 89d5 913d a785 40bc 57bc 5f3c
00000070: 8d6d 713d ce01 2a3a 5e39 ffbd 0fca 0ebd
00000080: 0cc3 2a3b 243a dfbd 1f32 083b 7bde 93bd
00000090: 48bb 81bc 6487 0d3d 1e3a c2bd 8216 8dbd
000000a0: 0357 583d 7649 ebbd 138d b63d 7712 bcbd
000000b0: 9f6d fd3b efb3 2d3c 761a e43c 0aba b5bd
000000c0: a73d 1f3c 6b3c 4c3d 329c b13d 72f9 c6bd
000000d0: b7e5 96bd 0cc9 bd3c 72fd 3abc d171 c0bd
000000e0: e3ef ddbd e046 e2bd daf5 a5bd e53d 82bd
000000f0: 9043 c2bd 616e e3bd c23b fabb bc9c 6b3d
00000100: c856 b3bd f0f5 013a dea7 8dbb 23b7 5d3d
00000110: 6a83 aabd 5e38 d13b 771f df3d 6800 853d
00000120: 6171 ddbd 7244 d23a 25a5 0a3c 4725 2bbd
00000130: b7d0 9bbd 04c9 9cbd d3e1 a23d a215 ddbc
00000140: d907 debb ab0f 2f3c e162 99bd c0fd 703c
00000150: 1185 963d c5a9 8abd ad20 163d 5b27 3fbb
00000160: cf9d 823d 80fd 9a3d e7a4 8b3c 4b2d 4c3c
00000170: ef83 ebbd c9de e63b 5199 903d d6fb 77bd
00000180: efa5 00be f887 a43d 3d74 16bd f74e 993c
00000190: c08e 38bd 55f0 923d 8d1e ea3d 31ab 943d
000001a0: a7cd 32bd 508c 8d3d e87f 713d 68b0 8c3c
000001b0: ed88 debd 6903 86bd 0d9a 07be b588 9a3d
000001c0: 4771 ea3d 4430 4a3d 80ab b63c c48f 553c
000001d0: 62fb c43d 0f10 a3bd e482 86bd a856 dbbd
000001e0: 6ff3 c5bc 4221 023c c2df 823c 8bb0 cbbd
000001f0: f7fb fdbc 6c18 d4bd 42ea b3bd 8233 223d
00000200: bed3 cdbd 9280 243d 597a dabd f2d1 95bd
00000210: 7672 7dbc cb98 e9bd a6f1 ca3d 63c5 c23d
00000220: 699e 4abd e5e6 113d 8a1f 873d 5abf 163d
00000230: 0735 40bc 1d8c e0bd 6915 b53d 65f2 cbbd
00000240: d524 54bd 4b6c 82bc c20f 68bd aae8 4ebd
00000250: 12f8 ccbd a37a 4ebc bc07 57bc b799 b43d
00000260: 5237 77bd 02dd b03d 4f1e 56b9 81d1 42bd
00000270: f85e e3bc e44f 57bc 7b5e 15bb 1a56 78bc
00000280: 9db0 193d bc52 c83d 1e02 763c 8545 2e3d
00000290: 5d0b 953d 3dc7 adbb a1a6 5a3d 3ca7 873d
000002a0: dd8e f03d d5e3 cebd ec50 453d acf8 d8ba
000002b0: 8c3c 08bd 0f51 28bd 2c58 803d 67f4 d83d
000002c0: bedd aebd dd8d 743d 18ac b03d 9099 a63c
000002d0: 694d babb e100 dd3d 76fb 8f3c 9d3c 8fbb
000002e0: ce1c 0cbc 788c 483d 55a6 063d 9491 df3a
000002f0: 631a 4e3d 30a8 0c3d 17f7 f7bd 167d 013d
00000300: 1115 853d 6d96 593c a026 1dbc 627a b03d
00000310: d4aa d4bd 7c02 7ebd a436 51bd 1770 a13d
00000320: f007 f2bd 6df6 18bb eebd e5bd 5bfc d6bb
00000330: d73f 2a3d a921 39bd da11 f63d db81 e4bc
00000340: ba09 9dbd 7d59 f33b 088a 383d 8843 71b9
00000350: 6019 bc3d 4fed abbd c049 1d3d b666 443d
00000360: d699 8c3d 327d 2e3c c70a 2e3d 7d0d b3bd
00000370: 2421 babd 7de9 4ebc beda a6bc 2661 893d
00000380: defd a53d eb2d a93d d1e8 6bbd b34f acbd
00000390: a61b cebd 1aaa 2b3d 4945 82bd c052 cbbd
000003a0: a1a0 73bd e64c cfbd e206 30bd c8ce 84bd
000003b0: 83ec 8cbd f8bd c43d 61c8 b2bc 07f3 bc3d
000003c0: 29ac d6bb 6af6 7d3b c73f 10bd 5d15 8dbd
000003d0: 78c4 8cbd 616e a03d bc6a 17bd ab3b e7bd
000003e0: 184c 013e a742 b33c 7e43 90bd 383d b7bd
000003f0: af49 e4bd 081a d6bd 5cc3 cf3d e3e0 963d

EDMoE.expertnet.0.conv1_1.conv.bias f4 [8]
0.09348457 -0.055329286 0.008802995 -0.044854183 -0.088745296 0.060685996 0.09254982 -0.06291109
00000000: d774 bf3d f6a0 62bd 703a 103c 05b9 37bd
00000010: 18c0 b5bd e191 783d c38a bd3d 88d7 80bd

EDMoE.expertnet.0.conv1_2.conv.weight f4 [8, 8, 3]
0.088859476 0.058050998 0.07526439 0.105268694 0.17639233 0.11115351 -0.18946554 -0.09352403
0.12521917 -0.1047883 0.032570366 -0.08290932 0.05416561 0.10542555 0.059029683 0.14510255
-0.011337717 0.11397413 0.067794114 -0.053864773 -0.13587347 0.1884229 -0.057814278 0.18414867
0.12339501 -0.015855446 -0.16310018 -0.030073373 -0.09118794 0.054825325 -0.079694845 0.12842306
-0.18845174 -0.058493014 0.043015376 -0.01448356 0.16657569 -0.045646425 -0.16193315 0.09186878
0.05215887 0.0991434 -0.12143613 -0.104762554 -0.06915775 0.0044100913 0.074328616 -0.11496865
-0.0373657 -0.0171689 0.21200797 -0.09167742 0.19890554 -0.12027472 -0.08713921 -0.1993345
0.15372716 -0.13561727 0.057329316 -0.0797831 0.16421469 0.042333033 -0.18970914 0.043049186
0.007402849 -0.18487877 0.050669532 0.16995141 0.04801426 -0.008518971 -0.05041134 0.057785485
-0.08471511 0.20712881 0.16824222 0.089899555 -0.10479911 -0.16319598 -0.09453459 0.18344691
-0.19880766 -0.16621558 -0.04884432 0.086050965 -0.21672203 -0.18312575 -0.00022011541 -0.08093911
0.12807992 0.056663863 -0.19403997 -0.20357399 0.115446426 -0.03713659 -0.1071621 0.08562877
-0.028969005 0.09319008 0.065893255 -0.09830044 -0.14205664 0.07926726 -0.10117827 -0.012180353
0.06046558 -0.14806497 0.11894171 -0.15199953 0.030344652 0.026551431 0.060936093 -0.20842306
0.041654795 0.12163977 -0.12340688 0.08293066 0.0184732 0.14947286 -0.049616758 0.006823129
-0.06122223 -0.06862841 0.062996246 -0.19160323 0.15533528 0.1502103 0.09650547 0.15552802
-0.051469777 0.01916696 0.038066767 -0.11311008 -0.057278693 -0.049101792 -0.020085612 -0.17978963
-0.13375205 -0.005313789 -0.038924087 -0.19759107 0.02992246 0.10821628 0.17152758 0.17804047
-0.17758925 -0.020372383 -0.09315604 0.064304225 0.046575032 0.048384424 0.124006264 0.1101582
-0.0939421 0.12406019 0.11743497 -0.005323938 -0.19192572 -0.11890408 0.053690758 0.102969326
0.18525286 0.09931641 0.05172807 -0.009681487 0.121063024 -0.05963719 0.10030396 -0.10612563
-0.008184428 0.114444666 0.099738635 -0.06761811 -0.002870444 -0.12035196 0.08024182 0.12970653
0.04093541 -0.1824848 -0.13214135 0.1123153 -0.039439302 0.13751398 0.14340399 -0.07926441
-0.11282086 -0.2150577 0.020170117 0.10194562 -0.02894197 -0.18937117 -0.11059163 -0.010713772
00000000: f5fb b53d e2c6 6d3d 3724 9a3d 1d97 d73d
00000010: 31a0 343e 74a4 e33d 4103 42be 8789 bfbd
00000020: 7439 003e 409b d6bd 8168 053d 5dcc a9bd
00000030: c2dc 5d3d 5ae9 d73d 1cc9 713d c395 143e
00000040: d5c1 39bc 456b e93d a4d7 8a3d 4fa1 5cbd
00000050: 6a22 0bbe eff1 403e aace 6cbd 7891 3c3e
00000060: 86b6 fc3d 48e3 81bc bc03 27be 6f5c f6bc
00000070: bec0 babd 8590 603d 0d37 a3bd 5681 033e
00000080: 7ef9 40be 5f96 6fbd e430 303d 744c 6dbc
00000090: d192 2a3e bff7 3abd ced1 25be b325 bc3d
000000a0: 8aa4 553d b20b cb3d 81b3 f8bd c08d d6bd
000000b0: 94a2 8dbd 8782 903b 9a39 983d af74 ebbd
000000c0: c70c 19bd cba5 8cbc 9e18 593e 5fc1 bbbd
000000d0: e5ad 4b3e 9852 f6bd 0b76 b2bd 581e 4cbe
000000e0: a76a 1d3e 41df 0abe 25d2 6a3d 5265 a3bd
000000f0: e527 283e 6765 2d3d 1d43 42be 5854 303d
00000100: 9993 f23b dc50 3dbe db8a 4f3d be07 2e3e
00000110: 9aaa 443d 2793 0bbc 1f7c 4ebd 79b0 6c3d
00000120: 1e7f adbd 9319 543e b047 2c3e 421d b83d
00000130: eaa0 d6bd d91c 27be 5a9b c1bd 82d9 3b3e
00000140: 3c94 4bbe 6b34 2abe fb10 48bd 7d3b b03d
00000150: 61ec 5dbe 5185 3bbe c8ce 66b9 67c3 a5bd
00000160: 6227 033e 5e18 683d 6ab2 46be b375 50be
00000170: 2d6f ec3d 891c 18bd ce77 dbbd 235e af3d
00000180: 6850 edbc 71da be3d 0bf3 863d be51 c9bd
00000190: 4c77 11be e056 a23d 8e36 cfbd 1a90 47bc
000001a0: c2aa 773d 589e 17be b697 f33d c4a5 1bbe
000001b0: 5995 f83c 6382 d93c 2098 793d db6c 55be
000001c0: 389e 2a3d 461e f93d bfbc fcbd 8dd7 a93d
000001d0: 1c55 973c 6a0f 193e f13a 4bbd 8e94 df3b
000001e0: 29c4 7abd 0d8d 8cbd 2d04 813d a333 44be
000001f0: 3610 1f3e bbd0 193e a9a4 c53d bd42 1f3e
00000200: f9d1 52bd 0704 9d3c e6eb 1b3d 42a6 e7bd
00000210: 109d 6abd f61e 49bd 958a a4bc c61a 38be
00000220: 4cf6 08be 4b1f aebb dd6e 1fbd 5055 4abe
00000230: f21f f53c 7fa0 dd3d eda4 2f3e 3e50 363e
00000240: f5d9 35be fce3 a6bc 98c8 bebd efb1 833d
00000250: 76c5 3e3d bf2e 463d fff6 fd3d 9f9a e13d
00000260: b764 c0bd 4513 fe3d bf81 f03d 6e74 aebb
00000270: 2d88 44be fb83 f3bd d7ea 5b3d 95e1 d23d
00000280: edb2 3d3e 6766 cb3d d0e0 533d 1a9f 1ebc
00000290: e4ef f73d 2046 74bd 2a6c cd3d 6558 d9bd
000002a0: fb17 06bc f761 ea3d c543 cc3d 5d7b 8abd
000002b0: 0f1e 3cbb 177b f6bd d355 a43d cad1 043e
000002c0: e3ab 273d 4cdd 3abe 1050 07be 9005 e63d
000002d0: 1b8b 21bd 77d0 0c3e 7fd8 123e 6155 a2bd
000002e0: a00e e7bd 1638 5cbe cd3b a53c ddc8 d03d
000002f0: b617 edbc 84ea 41be dd7d e2bd d188 2fbc

EDMoE.expertnet.0.conv1_2.conv.bias f4 [8]
0.09140116 -0.06708764 -0.12968455 -0.13921277 0.1797526 0.07197967 -0.16283081 -0.12422486
00000000: 8830 bb3d 3f65 89bd 07cc 04be cb8d 0ebe
00000010: 1111 383e 146a 933d 1fbd 26be 9a69 febd

EDMoE.expertnet.0.conv1_3.conv.weight f4 [8, 8, 3]
-0.15381905 0.04109479 -0.0824393 -0.010666564 -0.011790317 -0.21020567 -0.14966576 -0.14200534
-0.048407543 -0.0019153209 -0.10305597 -0.026574701 -0.029725894 0.18500829 -0.10534674 0.18011698
-0.16317503 -0.1801768 0.07471216 -0.11695912 0.115058504 -0.13196993 0.122619055 0.20374094
0.018549737 0.050349843 0.20131004 0.084205225 -0.17623939 0.0059236605 -0.18232593 0.18004358
-0.046021435 0.013829784 -0.14206168 -0.12769625 0.02669583 0.16361904 -0.10473988 0.0033419053
0.17155756 0.1906841 -0.04965694 0.22516 0.082994364 0.18087786 0.011926922 -0.1538842
-0.087714024 0.044849556 0.120375596 -0.2119689 0.14323585 -0.17301321 0.103309885 0.19033004
0.03001656 -0.027229676 0.08800689 -0.04994535 -0.16287589 -0.13283513 0.09468444 0.16824391
-0.025322681 -0.15978812 -0.19436327 -0.053470533 0.07504469 -0.15090296 0.048724495 -0.11753627
0.18974704 -0.024140202 -0.019554157 -0.18961667 -0.18096937 0.03059814 0.05530199 0.09734008
-0.18966898 0.019362478 -0.014420526 0.11221731 -0.08768836 0.060821813 0.09308489 0.07795047
-0.08807363 0.05069841 -0.028345313 0.046346206 -0.13550945 -0.18269123 -0.18518193 -0.12109241
-0.08933078 0.054560404 -0.045540944 -0.13593452 0.006838769 -0.10646008 0.14838256 -0.14037822
-0.047049023 -0.13810387 0.055997573 0.023643631 -0.040507663 0.1772828 -0.091294944 -0.040602732
0.05049653 0.1753182 0.14382774 0.030833444 -0.0729122 0.054658968 0.1266342 0.011636746
0.11595614 0.14971173 -0.12760666 -0.06208044 -0.21499087 -0.0055729016 0.15671058 -0.04242553
0.05026409 0.032900628 -0.0070338002 0.18208785 0.017694853 -0.1978587 -0.15758333 -0.21149842
0.027572632 0.07774382 -0.01216691 0.17786716 -0.004244406 0.029274398 0.18078835 0.110305764
-0.041837275 0.2015552 -0.1222281 0.11229103 0.10675821 -0.10065909 -0.153959 0.04067359
-0.020191925 -0.10182059 0.03621242 -0.16588864 0.15825085 -0.037653163 -0.0718944 0.18860868
0.044458237 0.020095708 -0.105742805 0.18390469 -0.07481965 0.16475452 -0.03930911 0.07027999
0.15781157 -0.19330984 -0.11091624 -0.21891335 0.14390449 0.14830692 -0.083900854 -0.102503754
0.02727036 0.11413122 0.06723936 -0.059882417 -0.119084015 0.16830382 -0.12581106 -0.183215
-0.081564546 0.04666273 0.06960766 0.10584077 -0.0807 -0.06775304 -0.086937904 -0.09339465
00000000: be82 1dbe 0353 283d f0d5 a8bd d0c2 2ebc
00000010: 2c2c 41bc 2840 57be fb41 19be d969 11be
00000020: fd46 46bd 810b fbba 020f d3bd 30b3 d9bc
00000030: b883 f3bc d072 3d3e 08c0 d7bd 9670 383e
00000040: 5b17 27be 4480 38be b002 993d 4388 efbd
00000050: cba3 eb3d 2023 07be b31f fb3d 77a1 503e
00000060: 9ef5 973c a33b 4e3d 3824 4e3e ca73 ac3d
00000070: 1978 34be 441b c23b a6b3 3abe 585d 383e
00000080: f980 3cbd 5196 623c 9e78 11be cec2 02be
00000090: 37b1 da3c c08b 273e dd81 d6bd de03 5b3b
000000a0: c9ac 2f3e b142 433e 1365 4bbd 5890 663e
000000b0: f3f8 a93d 0c38 393e 2369 433c d293 1dbe
000000c0: 69a3 b3bd 2bb4 373d 7b87 f63d 600e 59be
000000d0: 6bac 123e 602a 31be 2294 d33d e1e5 423e
000000e0: 4ae5 f53c c510 dfbc f53c b43d 7f93 4cbd
000000f0: f0c8 26be ef05 08be eae9 c13d 2248 2c3e
00000100: 8371 cfbc 7f9f 23be 2a07 47be eb03 5bbd
00000110: 08b1 993d 4e86 1abe 5693 473d dbb6 f0bd
00000120: 0c4d 423e acc1 c5bc 0a30 a0bc df2a 42be
00000130: 0950 39be f3a8 fa3c 5784 623d 3c5a c73d
00000140: 9638 42be 0f9e 9e3c 1244 6cbc 30d2 e53d
00000150: f495 b3bd 4b20 793d 4aa3 be3d 7fa4 9f3d
00000160: f35f b4bd 23a9 4f3d 6e34 e8bc 85d5 3d3d
00000170: fdc2 0abe 6913 3bbe 55a0 3dbe 4cff f7bd
00000180: 0ef3 b6bd bb7a 5f3d 2489 3abd 6b32 0bbe
00000190: c117 e03b be07 dabd 99f1 173e 4fbf 0fbe
000001a0: 7ab6 40bd 1a6b 0dbe b65d 653d 4ab0 c13c
000001b0: 5deb 25bd 9f89 353e d8f8 babd 0d4f 26bd
000001c0: 73d5 4e3d 9d86 333e 9447 133e 6b96 fc3c
000001d0: fe52 95bd 15e2 5f3d 65ac 013e 0da8 3e3c
000001e0: 6a7a ed3d 084e 193e 52ab 02be 0f48 7ebd
000001f0: 9126 5cbe e39c b6bb bd78 203e 64c6 2dbd
00000200: b8e1 4d3d cfc2 063d cb7b e6bb 3d75 3a3e
00000210: ccf4 903c 799b 4abe 865d 21be 0b93 58be
00000220: 00e0 e13c 2738 9f3d b857 47bc cf22 363e
00000230: a814 8bbb ddd0 ef3c 9520 393e fde7 e13d
00000240: 905d 2bbd 7d64 4e3e ba52 fabd d7f8 e53d
00000250: 0ca4 da3d 5a26 cebd 6ea7 1dbe 5a99 263d
00000260: 8969 a5bc 5087 d0bd 7953 143d b6de 29be
00000270: 830c 223e 343a 1abd 5f3d 93bd a222 413e
00000280: d719 363d c19f a43c af8f d8bd 8351 3c3e
00000290: 0b3b 99bd 69b5 283e 9702 21bd f5ee 8f3d
000002a0: 5b99 213e 04f3 45be 0e28 e3bd d22a 60be
000002b0: b35b 133e c5dd 173e 36d4 abbd 7ded d1bd
000002c0: 1766 df3c a1bd e93d cab4 893d 4447 75bd
000002d0: 52e2 f3bd d657 2c3e 9dd4 00be b79c 3bbe
000002e0: 500b a7bd 6b21 3f3d 768e 8e3d 0cc3 d83d
000002f0: 0b46 a5bd 1bc2 8abd 800c b2bd b245 bfbd

EDMoE.expertnet.0.conv1_3.conv.bias f4 [8]
-0.16907981 0.041183088 -0.058544952 -0.1926436 -0.11683042 -0.12110679 -0.08650591 -0.12429102
00000000: 4223 2dbe 99af 283d d5cc 6fbd 5d44 45be
00000010: ca44 efbd d606 f8bd 032a b1bd 4a8c febd
