cls_param/Trento/_best_model.pth (torch, 751414 bytes, 316 tensors)

encoder_pos_embed1 f4 [1, 16, 4, 4]
000000 37 10 4b bf 6d c3 7e 3e aa 26 52 bf f2 a3 82 3f
       -0.79321617 0.24879237 -0.82090247 1.0206282
000010 fd 11 91 3f 1d 2b 81 bf 6a 8d b5 3f b7 d2 11 40
       1.1333615 -1.0091282 1.4183781 2.278486
000020 19 65 df 3e 58 6a a1 bf f4 d8 39 3f 9b 5f f2 be
       0.4363182 -1.2610579 0.7259667 -0.47338566
000030 f3 e5 61 bf 57 cb 0b 3f 93 4e 0f bf 6f 79 3f 3f
       -0.882415 0.54607147 -0.5597927 0.7479467
000040 8b 8e a9 bf 3e d7 b7 bf f5 ef ae bf e0 9c 6f 3e
       -1.3246626 -1.4362562 -1.3666979 0.23399687
000050 84 89 5c be df 75 5d bf ce a4 0c c0 69 c6 02 bf
       -0.21536833 -0.8650798 -2.1975589 -0.51084
000060 03 27 d5 be 47 ea d9 bf c5 ea e6 3e b8 d6 1f be
       -0.41631326 -1.7024621 0.4510099 -0.15609252
000070 63 f3 74 bf f0 b0 8c 3f c7 38 50 3f ed 80 9c 3f
       -0.9568388 1.0991497 0.81336635 1.2226845
000080 ed 44 59 3f d9 50 28 3e c4 6c 30 3e ab bf 26 3d
       0.848708 0.16437091 0.17228991 0.040710133
000090 d4 f3 3c 3f 12 06 15 bf 01 67 07 be 26 e6 da 3f
       0.7380955 -0.5821239 -0.13222887 1.7101486
0000a0 16 c0 8b 3f 39 a0 95 bf 20 30 78 be ad 5b ca 3c
       1.0917995 -1.1689521 -0.24237108 0.024701918
0000b0 5f f1 63 3f 1e 1e 11 c0 9a 76 2c be 04 4c 2c bd
       0.8904018 -2.2674632 -0.16842118 -0.04206468
0000c0 4f 4d c7 bf 36 f8 65 be 41 a3 bf be 32 1c e3 3e
       -1.5570468 -0.22457966 -0.3742924 0.4435745
0000d0 9b 65 c8 bf 61 05 1b c0 e4 9f 04 3f 9d a0 03 be
       -1.5656008 -2.4222033 0.51806474 -0.12854238
0000e0 70 07 42 3f 4c e1 bd 3f e1 7a 12 c0 c0 e3 fc 3e
       0.757926 1.483438 -2.28875 0.4939251
0000f0 85 79 cd bd 49 ce 1f be ff 8a e9 bd 76 6e d4 3e
       -0.10032944 -0.15606035 -0.114034645 0.41490525
000100 36 c8 e1 3f 83 c8 8d 3f a8 0c 84 3f 27 e6 49 3f
       1.7639225 1.1076816 1.0316362 0.7886681
000110 a7 f0 6a bf f8 cf e4 bd eb 3a b8 3f 46 63 d1 bf
       -0.91773456 -0.111724794 1.439298 -1.6358421
000120 a0 ba a8 bf 43 9f 3b 40 99 df ab bd 7c b7 d6 3e
       -1.3181953 2.9315956 -0.08392257 0.41936862
000130 8a da 1f 3e 9d 8a 75 bd a9 82 23 3f 5d 79 bb be
       0.1561071 -0.059946645 0.63871247 -0.3661603
000140 aa 52 2a bf 2d 38 08 bf 8f 2c 53 3e 49 d3 26 3f
       -0.66532385 -0.5321072 0.20622467 0.65166146
000150 36 a5 0b 3f 37 56 c6 3f d3 93 b2 3f e3 5b b3 3e
       0.54548967 1.5495061 1.3951362 0.35031042
000160 91 34 c6 3e 0f 6f 0f c0 79 f2 63 3e 0b 9d b0 3c
       0.3871198 -2.2411535 0.22260465 0.021559259
000170 5e 54 b9 3f 85 cc 98 3e 8b 91 4d 3f 0e 5d 4d bf
       1.4478872 0.29843536 0.80300206 -0.80220115
000180 5a 04 d8 bf 98 5f a5 bf a3 42 10 be 33 ce 15 c0
       -1.6876328 -1.2919798 -0.1408792 -2.3407104
000190 32 fe 1c 40 ef b0 0b 3e 80 f9 8b bf 34 07 31 be
       2.4530149 0.13641714 -1.0935516 -0.17287904
0001a0 93 ee 29 bf 59 0e 82 bf bf 23 1e 40 8a 32 e5 3f
       -0.6637966 -1.0160629 2.4709318 1.7906048
0001b0 f7 bc 56 be aa 5a 67 bf 7e 00 81 bf 10 40 bc bf
       -0.20970522 -0.9037272 -1.0078275 -1.470705
0001c0 33 8d fe be 23 40 28 bf c0 cf 8d 3e 4b 51 d5 bc
       -0.497171 -0.65722865 0.27697563 -0.02603974
0001d0 46 4e 95 3c 2d fc 80 bf 8d f0 54 3e 79 c4 9a bf
       0.0182258 -1.0076958 0.20794888 -1.2091209
0001e0 6c 21 fa be 2f 00 0b 3f 46 51 86 bf ed 24 61 bf
       -0.48853624 0.54297155 -1.0493553 -0.8794697
0001f0 47 fe ee 3f e0 33 88 3f 7f f6 d2 bf 4d 96 62 3f
       1.8671349 1.0640831 -1.6481475 0.8851059
000200 6f af 0e be 88 05 dc be 05 6a ae 3f d5 e1 a8 bc
       -0.1393411 -0.4297297 1.3626105 -0.020615498
000210 e3 ba 25 3f 16 dd 84 bf d2 56 9c bd 5d 1e b8 bf
       0.6473829 -1.037997 -0.07633747 -1.4384266
000220 8d cc bb bf 87 ac 3c 3f f1 cb 38 bf 43 ba e2 3e
       -1.4671799 0.73700756 -0.7218619 0.4428273
000230 33 64 92 3f 1b d1 f3 3f eb 4d ec bf 52 5d 38 be
       1.1436828 1.9048189 -1.8461279 -0.18004349
000240 f9 dc 41 3f 68 f2 9e 3d 62 2e b9 bf 26 60 85 3c
       0.757278 0.07761079 -1.446728 0.016281199
000250 7d 3a 9c bf ad c5 97 bf 34 93 81 bf 25 34 9c 3e
       -1.2205349 -1.1857201 -1.0123048 0.30508533
000260 d0 95 81 bf 2e 0e f9 bd 2e eb e1 bf 6f 82 03 bf
       -1.0123844 -0.12160908 -1.7649896 -0.513709
000270 29 35 1f bd ad 96 26 3f 0f fa 9f 3f 8f fa b4 3e
       -0.038869057 0.65073663 1.2498187 0.3534741
000280 3f 30 99 bf 12 4f 07 bd a7 97 94 3f cd e9 3f bf
       -1.1967849 -0.03303439 1.1608781 -0.74966127
000290 0b 0f 2e bf a1 53 ba 3e a2 c5 15 bf e6 5f 09 3e
       -0.67991704 0.3639193 -0.5850469 0.13415489
0002a0 1c 11 4a 3f 28 52 e5 bc 3c 18 63 bf 04 ec 81 bf
       0.78932357 -0.027993277 -0.88708854 -1.0150151
0002b0 3a 6d d1 3d 95 cb f3 bf 2f 79 9d 3f 7b 19 9b 3f
       0.102259114 -1.9046503 1.2302607 1.2117151
0002c0 c2 15 92 be a1 24 01 3f 7a a9 36 bf 57 47 34 3f
       -0.28532225 0.50446516 -0.7135235 0.70421356
0002d0 3e 61 eb 3d f3 f0 65 bf c8 b5 5e 3f 5f 6f 2c 3f
       0.11493157 -0.89820784 0.86996126 0.6735744
0002e0 5b 98 44 bf f5 e3 40 bf 09 f2 b8 be 80 80 08 3e
       -0.76794976 -0.75347835 -0.36122158 0.13330269
0002f0 15 36 db bf 83 a1 3a bf d7 7a 95 bf 36 f3 8e bf
       -1.712588 -0.729027 -1.1678113 -1.1167972
000300 85 2c 9d 3e 15 8e c2 be e6 1e 37 3f 01 0b 6c bf
       0.30698028 -0.37999025 0.7153152 -0.9220429
000310 df fe db bf 54 54 10 c0 d5 8b 87 bf be 27 c5 bf
       -1.7187155 -2.255147 -1.0589548 -1.5402753
000320 01 66 67 3f 76 54 32 bf 07 e1 13 bf 58 7b 95 bf
       0.9039002 -0.6966013 -0.5776524 -1.1678267
000330 ff 25 be bf 53 94 71 3e e4 1b 1c be 61 b9 62 bf
       -1.4855345 0.23591737 -0.15245014 -0.88564116
000340 f5 5f 28 c0 e1 9f ac 3f 75 c1 34 bf 41 a7 e2 3d
       -2.6308568 1.3486291 -0.7060769 0.110670574
000350 49 8b 6a 3e a3 06 a6 3d 66 c5 bc 3f ea 8e 82 3f
       0.22904696 0.081067346 1.4747741 1.0199864
000360 25 ff 60 3e 8c 99 dd bf fd de 20 bf d4 b6 24 3e
       0.2197233 -1.7312484 -0.62840253 0.16085368
000370 63 b9 c0 3e 72 19 19 bf cd ac c5 bf 94 c1 db 3f
       0.3764144 -0.5980445 -1.544336 1.716845
000380 c7 6c d2 be 84 12 ff bd 61 38 b2 3f 8b b9 8c 3e
       -0.41098616 -0.124547035 1.3923455 0.27485308
000390 02 e1 cb 3f 6c fe bc bf 14 5d 54 3e 40 a2 c4 3f
       1.5928042 -1.4765143 0.20738631 1.5362015
0003a0 6c 05 a2 3f b6 ed 04 be 77 54 f1 3d f2 e6 ba 3f
       1.2657905 -0.12981305 0.117836885 1.4601729
0003b0 82 c9 89 3f 46 e8 66 3e d7 37 bf bd 0f 2b 4a bf
       1.076462 0.22549543 -0.093368225 -0.7897195
0003c0 f3 f8 3a be 10 34 48 3e f9 83 e3 be 94 2d 99 3e
       -0.18259029 0.1955111 -0.44436625 0.29917586
0003d0 37 e5 7a be 37 b4 cd bf 39 2b 33 be 32 0f ca be
       -0.24501501 -1.6070622 -0.17496957 -0.39464718
0003e0 68 0d 2e bf af a9 39 bf 43 9c c5 bf ec e7 9e 3e
       -0.67989206 -0.7252454 -1.5438312 0.31036317
0003f0 f0 6a 96 3f 26 f6 69 be e3 48 37 3d 12 11 ba be
       1.1751385 -0.22847804 0.044747245 -0.3634115

encoder_pos_embed2 f4 [1, 32, 2, 2]
000000 e5 9a 2a c0 6f 10 19 c0 93 51 e8 3f 0c f5 ef bd
       -2.665704 -2.391628 1.8149894 -0.11716661
000010 5e 80 b7 bc 9a 24 b7 3e 89 da d5 3f 9f f3 9a be
       -0.022400077 0.35770112 1.6707317 -0.30263993
000020 7e ad 41 3f cb 36 42 3e 57 42 6b 3e 91 61 02 3f
       0.75655353 0.18966214 0.22974525 0.50930125
000030 c5 4f 56 3f 56 3a f3 3e ea 10 98 3f a7 5a c2 3f
       0.8371547 0.47505444 1.1880162 1.5183915
000040 7e 7b 45 3f cb 20 dc bf 3f bf 14 3f f9 f1 ed be
       0.7714156 -1.7197508 0.5810432 -0.46473673
000050 df ff 86 3e 88 82 83 3f 3f d6 e3 3e 10 17 fe 3e
       0.2636709 1.027421 0.44499394 0.4962697
000060 17 ed 5d bf 40 c1 63 bf d0 16 de 3f 50 c3 83 3f
       -0.86689895 -0.8896675 1.7350712 1.029398
000070 43 ee 23 be 2e 0a 6e 3f 44 dd 08 40 4d f8 ff bf
       -0.16008858 0.9298428 2.138505 -1.999765
000080 fc fa cc bf 56 2f 72 3e b6 56 6d bf 5f 01 d5 3c
       -1.6014094 0.2365087 -0.92710435 0.02600163
000090 f3 d2 42 40 76 01 b5 bf d1 93 8b be db e9 c6 3f
       3.0441253 -1.4141071 -0.27261212 1.5540117
0000a0 6b ca 34 3f 26 02 a2 3f fe 89 cf 3f 0a 08 78 bf
       0.70621365 1.2656906 1.6213987 -0.96887267
0000b0 b4 3d 4e 3f 1c da 08 3f 8d 8b 84 3f 9e 5f d4 be
       0.805629 0.5345781 1.0355088 -0.414792
0000c0 00 bf 67 be d8 7f f7 bc f6 57 f5 3f 43 42 4d bf
       -0.22631454 -0.030212328 1.9167469 -0.8017923
0000d0 23 72 1f 3f e6 59 90 3f 00 af 55 3f 54 2f 73 bf
       0.62283534 1.1277435 0.83470154 -0.9499409
0000e0 16 3b 88 3e 3f 66 eb 3d e8 1c 12 3f 25 6e 04 3f
       0.2660758 0.11494111 0.5707536 0.5173057
0000f0 dd 49 08 3e 18 c0 a9 3e 57 b9 d3 3e 92 21 e3 3f
       0.13309427 0.33154368 0.4135234 1.774462
000100 20 34 55 3d 3b e0 7b bf ea 0a 86 bf 94 59 17 bf
       0.052051663 -0.98389024 -1.0472081 -0.5912106
000110 29 72 ae 3e 64 31 a5 bf 50 d2 37 bf 21 24 b7 bd
       0.34071472 -1.2905698 -0.71805286 -0.08942438
000120 59 57 06 bf 9b 7b 53 3f 30 d0 45 bf 58 0b bc bc
       -0.5247703 0.8261048 -0.77270794 -0.022954628
000130 55 59 0d 3f 53 ab 41 bd 9d 1d 4f 3f 6c d1 41 bf
       0.55214435 -0.047282528 0.8090456 -0.7571018
000140 60 58 83 3f fe b0 45 3f d6 5b 56 3d af a1 cf 3f
       1.0261345 0.77223194 0.052333675 1.6221217
000150 25 a8 a9 bd 96 b7 ac 3e dc fa 57 bf ea 91 ba be
       -0.08284024 0.33733815 -0.84367156 -0.3643945
000160 03 8b 2d 40 dc 9d e0 3f 1e c7 87 3f 01 6b c3 bf
       2.7116096 1.7548175 1.0607641 -1.526703
000170 cf ca c5 be 21 34 ee bf 72 d3 79 be a7 5a 0c bf
       -0.38631293 -1.8609658 -0.24397066 -0.54825824
000180 3a b5 08 40 3f 81 82 bf d2 73 fd be 45 b2 ae 3c
       2.1360612 -1.0195693 -0.49502426 0.02132524
000190 5b d3 a1 be 7e cd cd be b0 c1 86 3f dc 44 b8 bf
       -0.31606564 -0.4019584 1.0527859 -1.4396014
0001a0 82 46 8a 3f bd 3a 8d bf ae 35 90 3f 1b 63 f7 3f
       1.0802767 -1.103355 1.1266382 1.932712
0001b0 2d 1d a6 3f 81 00 47 be 5e 50 a4 bf f5 9b 6c 3d
       1.2977654 -0.19433786 -1.2837026 0.05776592
0001c0 20 75 7f 3f 9b 51 12 bf 9f 93 70 be 78 8a eb bf
       0.99788094 -0.5715577 -0.23493813 -1.8401632
0001d0 16 16 e4 bf ed e7 9a bf a5 18 c2 3f ba a8 d9 3e
       -1.781924 -1.2102028 1.5163771 0.4251154
0001e0 a1 77 11 40 7f 71 ea bf 6d 2c 76 3f 6c 89 23 3e
       2.2729266 -1.8315886 0.9616154 0.15970391
0001f0 c3 0d fe be 45 ce b1 3f 5d 98 3c bf 52 69 cb bf
       -0.49619874 1.3891073 -0.7366999 -1.5891516

encoder_pos_embed f4 [1, 15, 16, 16]
000000 a1 78 28 3f 08 84 f3 be 19 d2 ba bf 33 16 83 3e
       0.65809065 -0.4756167 -1.4595367 0.25602874
000010 5e 5f 35 3f 62 4e 85 3e 43 f6 36 3f 69 5b 65 bf
       0.70848644 0.26036364 0.71469516 -0.89592606
000020 f9 8b 17 be 1f 7b 11 3e 09 4d b7 bf 40 e3 f6 3f
       -0.14799489 0.14207123 -1.4320384 1.9288101
000030 ac a2 7e 3f 43 b1 15 3f 87 8b 63 3f 23 0f 89 3f
       0.9946697 0.58473605 0.88884777 1.0707744
000040 03 78 4e 3f 42 45 a2 3e 2f 74 ae bf 07 59 bc 3f
       0.80651873 0.31693465 -1.3629206 1.4714669
000050 66 e5 9a bf f9 d4 8d 3e 43 de f1 3e fd 31 bf 3e
       -1.2101257 0.27701548 0.47239885 0.37342826
000060 ce 21 45 bf e5 0f 90 3f 77 cf b6 3f 7b 1f ff be
       -0.77004707 1.1254851 1.4282063 -0.49828705
000070 35 0c 05 3f fe 41 8b bf b8 2d e7 3f be 2b a3 be
       0.5197175 -1.0879514 1.8060827 -0.3186931
000080 52 14 cc 3e 1b 3b 11 be 0b 60 34 bf 5b 46 be be
       0.39859253 -0.14182703 -0.7045905 -0.37163052
000090 cc d7 fb be f0 6e eb 3b 96 c6 23 3c 6e 4d 48 3f
       -0.49188077 0.0071848556 0.009996077 0.7824315
0000a0 50 62 51 3f 26 3b d6 3e 95 40 da bf 2b ba a1 3e
       0.8179064 0.41842002 -1.7050959 0.31587347
0000b0 04 8b d2 3e eb 6a 17 bf 2c 70 93 3f 88 0d 8d bf
       0.41121686 -0.5914752 1.1518607 -1.1019754
0000c0 ce b3 cd bf 1f 2a d0 be 1b c5 c9 bf 2a 09 45 bf
       -1.6070497 -0.40657136 -1.5763277 -0.7696711
0000d0 e6 24 3a 3f 8d 87 99 3e 26 20 49 bf bf 61 ae 3e
       0.7271255 0.2998623 -0.7856468 0.3405895
0000e0 0d 32 27 3f 62 11 0f bf b4 12 94 3e b6 cd e8 bf
       0.65310746 -0.558859 0.2892052 -1.8187778
0000f0 b9 e5 45 be 6c af 1d 3d 35 5a d0 be 1d e9 13 40
       -0.19325913 0.038497373 -0.40693823 2.311103
000100 e7 17 b0 3f 3b 98 d6 3f 73 7c ad bf f6 64 aa 3e
       1.3757294 1.6765207 -1.3553604 0.33280152
000110 a2 96 80 be 6a 36 6d 3f 27 9d aa bf 7f 6e 07 3f
       -0.25114924 0.92661154 -1.3329209 0.5290298
000120 78 9e 0d 3f dd 5f 17 3e 87 ba f6 bf 23 6b b7 3e
       0.5531993 0.14782663 -1.9275674 0.35823926
000130 a1 e5 89 bf bb ec 87 3f 5f 06 87 bf 96 8c 46 3f
       -1.0773202 1.061912 -1.0548819 0.7755827
000140 3c 3a 03 c0 53 8e a5 bf 86 0f c7 bf a8 da 18 3e
       -2.0504293 -1.2934059 -1.5551612 0.1492716
000150 36 f7 2c 3f e4 a1 ee 3f d0 40 32 bf 69 f6 85 be
       0.67564714 1.8643155 -0.69630146 -0.2616456
000160 96 9d bf be 79 aa 7f 3f fa fe 7f bf 4c 90 60 bf
       -0.37424916 0.99869496 -0.9999844 -0.8772018
000170 ed b2 d6 3f 89 4e c1 be fc 32 19 bf 12 05 1e be
       1.6773354 -0.3775523 -0.5984342 -0.15431622
000180 f6 70 42 bf 16 20 f9 bd dd ff 0b bf 69 d1 a8 3f
       -0.75953615 -0.12164323 -0.5468729 1.3188907
000190 63 bc e5 bf e7 d8 7f be cb a0 84 bf bf fd 6d 3f
       -1.7948116 -0.24985085 -1.036157 0.9296531
0001a0 37 a7 45 3f 4f 99 63 be d2 d3 fa be a6 50 04 c0
       0.77208275 -0.22226451 -0.4898973 -2.0674224
0001b0 8f 4f 96 be a8 f9 01 c0 57 a3 ae 3d ca 22 c3 3f
       -0.29357573 -2.0308628 0.08527248 1.5244992
0001c0 9a 3b 0f 3f 5f c8 11 bf ce 6b d2 3e 91 72 f4 bf
       0.5595032 -0.5694637 0.41097873 -1.9097463
0001d0 92 c1 76 3e 07 f9 ac 3f 9b 31 ba bf cf 27 73 bf
       0.24097279 1.3513497 -1.4546388 -0.9498262
0001e0 36 91 86 3f 0d 1d eb be 8f d0 91 3f 3a 6f 5f bf
       1.0513065 -0.459206 1.1391772 -0.87279093
0001f0 fa 45 b0 bf 74 80 df bf d6 08 c5 bf a4 7b b4 bf
       -1.3771355 -1.7461076 -1.5393322 -1.4100232
000200 48 e8 43 3e 3f 58 57 bf 3e ec 42 3f e6 28 bd 3f
       0.19131577 -0.8411903 0.76141727 1.4778106
000210 2f 0f fd 3f 83 84 20 bf de 00 c6 3f a8 78 95 3f
       1.9770259 -0.62702197 1.5469015 1.1677446
000220 0b 61 7a 3e 10 d4 0c 40 7d 4a 70 3f c2 4d 7a 3f
       0.24451081 2.2004433 0.9386366 0.977749
000230 1b e0 ff 3d 4d 4c 0b 3f 76 78 c4 3e 3f 3e 41 be
       0.124939166 0.544133 0.38373154 -0.18871401
000240 f9 66 47 3f ed 20 bf 3e c7 49 b6 3e 37 7f 39 c0
       0.778915 0.37329808 0.35603163 -2.8983896
000250 1c 3e 0c c0 0b e0 dc bf 2a 3a 5b 3f 6d 48 80 3f
       -2.1912909 -1.7255872 0.85635626 1.0022103
000260 a9 5a fb be 6d 46 37 3f 8e 71 d7 3f 98 f3 b9 3f
       -0.49092606 0.71591836 1.6831529 1.4527464
000270 78 50 7a 3e 9d 9b ab 3f fd b6 ad 3e 1b 50 43 bf
       0.24444759 1.3406864 0.3392867 -0.76294106
000280 42 c4 00 3f 9d 7f 37 3e fc 64 09 bf 0e 6b 94 bd
       0.50299466 0.17919774 -0.53669715 -0.072469816
000290 a1 8a b4 3e e1 15 9f 3e bb 2d 4e be a1 51 3d be
       0.35262015 0.3107138 -0.20134632 -0.1848817
0002a0 57 5c 8f be 16 5f 41 be e0 c1 0f 3f 02 2b 02 bf
       -0.28000137 -0.18883929 0.56155205 -0.50846875
0002b0 4d 74 ec be dc f2 96 bf f6 d8 83 bf e0 e3 eb bd
       -0.4618248 -1.1792865 -1.0300586 -0.11518073
0002c0 7b e4 8f bf ff c1 ca 3f 04 12 62 be 6a 9e c9 3f
       -1.1241602 1.5840453 -0.22077185 1.5751469
0002d0 b8 01 9b bf 4a 07 8f be f4 3f fd 3f 67 64 9e 3f
       -1.21099 -0.2793525 1.9785142 1.237439
0002e0 27 44 bd bf 7e 9f b5 be 28 1c 8d 3f 07 4e d1 3e
       -1.4786423 -0.35473245 1.1024218 0.40879843
0002f0 0c fc 4c 3f 78 a5 e0 bf f3 8a a3 3f 3b 29 2f bf
       0.80072093 -1.7550497 1.2776779 -0.6842229
000300 c2 2f 00 c0 d7 3d b9 3e 9f c0 dd bd 29 5d 17 3f
       -2.002915 0.36179993 -0.10827755 0.59126526
000310 68 a8 0c bf d1 1a 56 bc c3 49 6b be 2b 29 11 3e
       -0.5494447 -0.013067917 -0.22977357 0.1417586
000320 d3 c7 a3 be 2d 33 a8 bf 70 35 75 be 94 f3 9e 3f
       -0.3198839 -1.3140618 -0.23946166 1.2418084
000330 94 3f 19 3f ba 9e dc bf e7 34 8f 3d 60 7b 35 3f
       0.5986264 -1.723594 0.06992512 0.7089138
000340 d6 96 24 bf f8 d7 96 be 42 c3 69 3e 29 bc b4 be
       -0.6429266 -0.29461646 0.22828391 -0.35299805
000350 53 1e 0b 3f 00 54 01 3f 61 4e 37 3f b7 1e 82 3c
       0.54343146 0.505188 0.7160397 0.015883787
000360 7d be 81 3f 6f 31 3c 3e ab a0 e4 bf 22 5c e2 be
       1.0136257 0.18378232 -1.7861532 -0.44210917
000370 ab 2a ef 3f 6d fa b0 bc f9 47 99 3e 7e 4d 5d bf
       1.8684896 -0.021603787 0.29937723 -0.8644637
000380 2b ad dc bf 87 a1 5d bf 86 7e 0d 3f 7e 24 e2 3e
       -1.7240347 -0.86574596 0.55271184 0.44168466
000390 f1 90 da be f3 19 40 bf 87 3f 80 3e c8 cf 8b 3e
       -0.42688707 -0.75039595 0.25048468 0.27306962
0003a0 80 b8 0c bf 92 4f 2c bf 88 7b ec 3f 46 a9 14 3f
       -0.54969025 -0.67308915 1.8475199 0.5807079
0003b0 e2 b7 03 40 2f 3b e2 bf 4e a9 92 bf 7d 4c 8d be
       2.0580983 -1.7674311 -1.1457918 -0.27597418
0003c0 92 d5 fb 3f eb 08 88 bf 63 3a 29 3f 9a d5 1b 3c
       1.9674551 -1.0627722 0.66104716 0.009511376
0003d0 81 74 8a bf 10 ba 93 bf 71 b1 a5 3e 08 e9 2a be
       -1.0816804 -1.1541157 0.3236194 -0.16690457
0003e0 28 cd 8f be 3d 72 8d 3f d0 e7 c4 be 3b 44 38 be
       -0.2808621 1.1050488 -0.3845811 -0.17994778
0003f0 4f 30 4e be 1e b1 a9 3e 2a e8 08 c0 23 34 78 be
       -0.20135616 0.33142942 -2.1391702 -0.24238639

down1.body.0.weight f4 [8, 16, 3, 3]
000000 f8 e1 bd bb 75 86 44 3d 5b 2d a6 bd 5b ed 47 bd
       -0.00579476 0.04797979 -0.081141196 -0.048810344
000010 8d 0c 13 bd 91 31 94 3c 1b 7e f0 3a 68 45 7b 3d
       -0.03590064 0.018090041 0.0018348129 0.061345488
000020 ce 88 3b bb 0f 04 f2 ba 2f cb 4d bd 4a 9b 8f bc
       -0.0028615477 -0.0018464344 -0.0502426 -0.017530102
000030 1c 7d b5 bd 09 8c 88 bd 5d 4b 0f bd fa de 0f 3c
       -0.08861753 -0.066673346 -0.03498398 0.008781189
000040 92 5c d9 3c 02 a7 32 3d 1a 90 78 bd 0a f2 19 bd
       0.026533399 0.043616302 -0.0606843 -0.037584342
000050 6a bc a7 3c ab 2d 8e 3d a1 47 f2 bb 20 b3 74 3d
       0.020475585 0.06942304 -0.0073937927 0.05974114
000060 91 d0 d9 bc 7b ff 37 3c 83 a0 9c 3d 79 c1 c4 bd
       -0.02658871 0.011230345 0.07647803 -0.096072145
000070 a0 f5 74 bd 9b 8a 53 bd 5d 92 68 bd fd 32 8b 3d
       -0.05980456 -0.051645856 -0.056780208 0.067968346
000080 a2 e9 86 bd 20 93 42 bd 1e 2f 87 bd 05 88 d3 bd
       -0.06587531 -0.04750359 -0.06600784 -0.10328678
000090 ce 2e bf bc 2d 7b a2 3d 85 ee 7d 3c 51 71 09 3d
       -0.023337748 0.0793365 0.015498762 0.033555333
0000a0 c1 33 74 bc e4 46 76 bd 25 be 89 bb 3a e8 d0 bd
       -0.014904917 -0.0601262 -0.004203575 -0.10200544
0000b0 09 0a b3 bd 6e 67 ea bc 1e d5 4c 3d 05 89 5e 3d
       -0.087421484 -0.028613772 0.050007932 0.05432989
0000c0 73 d3 ba bc 51 c5 23 bc 63 e4 65 3d 5c 44 ae 3d
       -0.022805905 -0.009995774 0.05612601 0.08509132
0000d0 a9 47 03 3d 22 8a cf 3c f7 9b e9 3c 07 4b 3e bd
       0.032050762 0.025334422 0.028516753 -0.04645827
0000e0 c3 27 08 3c ec 63 ab bd 9a a2 8e bd 71 e8 87 bd
       0.008310261 -0.08368668 -0.069646075 -0.066361316
0000f0 bf 49 b6 3c 0e 8f 96 3c 96 0b 8d bd c3 cd 21 3d
       0.022251962 0.01837876 -0.068869755 0.03950287
000100 56 02 8b 3d f1 7e 09 38 68 f1 e8 3c 8d 4d 07 3d
       0.06787555 3.278157e-05 0.028435424 0.033032943
000110 9e d4 8a 3d bb 28 db 3d 85 7d 27 bd cd 47 41 3a
       0.06778835 0.10701128 -0.04089119 0.0007373065
000120 59 6e f0 3c be fc b3 3d 3c 9b a0 3d 14 cc b3 3d
       0.029349493 0.08788441 0.078421086 0.08779159
000130 c3 4e 78 3b 16 0e c2 bd 1e 4c 16 bc bd 80 a0 bd
       0.0037888743 -0.09475343 -0.009173421 -0.07837055
000140 31 15 c5 bd 81 9e bd 3d 8c 88 a7 3d 3e 87 bf bd
       -0.096231826 0.09258748 0.08180341 -0.09351967
000150 c8 2b 88 3c ee 8f cb bc 70 51 fa bc 1c b2 53 bd
       0.016622439 -0.024848904 -0.03055641 -0.05168353
000160 c2 8b 8f 3c 3b fd 50 bd 15 4e 39 3d 41 96 52 3d
       0.017522696 -0.05102275 0.04524048 0.051412825
000170 60 8a 7b 3d cb 27 d4 3c c8 5d aa bd 57 c5 82 bd
       0.06141126 0.025897881 -0.083186686 -0.06385296
000180 66 40 26 3d c1 5d a9 3b 6c 02 c4 bd 79 12 87 bd
       0.04058876 0.005168647 -0.095707744 -0.0659532
000190 16 3d 8f 3d 8b 62 50 3d 9b 73 3f bd 89 65 f8 bc
       0.06994073 0.050875228 -0.04674111 -0.030321853
0001a0 fc df a7 bd f7 67 e9 b9 c7 6a 8b bd 19 5a 96 bd
       -0.081970185 -0.00044518683 -0.068074755 -0.073414035
0001b0 43 a2 b3 bc 32 36 bd bb f6 91 49 bd e2 7c df 3c
       -0.021927958 -0.005774283 -0.049211465 0.027281228
0001c0 ac 19 48 bd e3 cc 82 3d 52 fd 67 3d f6 7a a3 bd
       -0.048852608 0.06386735 0.05663807 -0.07982437
0001d0 2a 99 12 bd 54 f9 5b 3c 6a 6f 37 3c 4d 8b 09 3c
       -0.0357906 0.013426144 0.011195997 0.008395028
0001e0 41 6c 0d 3d 21 cb 8b 3b 80 7f 2a bd 33 d8 b2 3c
       0.034527067 0.004266158 -0.0416255 0.021831607
0001f0 69 e8 b6 bd ed 6d 71 bd e1 5d 97 bc ab 48 45 bd
       -0.089310475 -0.058942724 -0.018477382 -0.048165005
000200 8c c7 36 bd 69 00 ab bd 17 d9 2e bd cd 3b 28 bc
       -0.044623896 -0.083496876 -0.0426875 -0.010268164
000210 0b da 93 bd 31 11 0f bd 4d 0d e2 3c 01 d0 a1 bb
       -0.07219323 -0.034928504 0.027594233 -0.004938126
000220 62 e8 e6 39 90 b8 12 bd 6a b7 5b 3c aa 91 24 3d
       0.00044042157 -0.035820544 0.013410429 0.04017798
000230 5b 2e 85 3d e9 f3 1b 3d c9 90 84 3d d1 6d 5f bc
       0.06502982 0.038074408 0.06472928 -0.013637022
000240 ca 54 84 bd 0e 0e 13 bd bd fa 85 3d ce 6e 60 3a
       -0.06461485 -0.035902075 0.06541965 0.0008561433
000250 f0 26 10 bd 49 9f 79 bd 86 91 a9 bd 46 a0 95 bd
       -0.035193384 -0.06094292 -0.082797095 -0.0730596
000260 d0 dc 00 bc ca 95 ba 3c f3 83 14 3d 83 12 d2 bd
       -0.007865146 0.022776503 0.03625865 -0.10257437
000270 5c 4f 3d 3d 0e 5b ba bd 24 17 4b bd ef 9d 31 bd
       0.04621826 -0.090993986 -0.049582615 -0.043363508
000280 3f 96 27 bd 79 67 1b bd 9d 0f a6 bd ce 4c 9e bd
       -0.04091477 -0.037940476 -0.08108447 -0.07729493
000290 e0 64 0c bd 64 29 c6 bb 08 a6 23 bd f5 40 d3 3c
       -0.03427589 -0.0060474146 -0.03995326 0.02578781
0002a0 3c 87 90 bd 59 07 3d bc 7a 32 9b 3d c8 de 4c bd
       -0.07057044 -0.011537396 0.07577987 -0.05001715
0002b0 cb ab 76 3d 7e b5 97 3c bb 45 bd bd 17 cf 1a 3d
       0.06022243 0.01851916 -0.09241816 0.037795153
0002c0 c9 09 c4 bc 0e e1 7f bd bc 47 67 3d ad 67 8c bd
       -0.023930447 -0.06247049 0.056464896 -0.06855712
0002d0 43 f8 d3 3b 44 93 b4 bc ce 51 5c 3d de 5a 0b 3d
       0.006468804 -0.022042878 0.053788953 0.034022205
0002e0 24 25 3e 3d c5 d1 00 3d 7c 30 b8 bb 0f 6c 6b ba
       0.04642214 0.03145005 -0.005621014 -0.00089806406
0002f0 b1 67 55 bd a5 02 3f 3d c2 62 9f 3d 45 fe 57 3d
       -0.05210084 0.04663338 0.077825084 0.052732725
000300 b2 35 39 bd 77 21 da 39 71 12 8c bd ed 59 30 bd
       -0.045217223 0.00041605133 -0.06839455 -0.04305451
000310 7e 1f 4a bd 12 64 02 3d 17 98 84 bd bd b5 b3 bc
       -0.04934644 0.031833716 -0.06474321 -0.021937246
000320 17 94 c9 bc 4e 56 4a 3d 7f 1a 96 bd 47 f8 a2 bd
       -0.024606748 0.049398713 -0.073292725 -0.079575114
000330 47 77 17 bd 37 db 6e 3d 38 27 d7 bc 9a 4a bf 3d
       -0.036978986 0.05831453 -0.026263818 0.09340401
000340 46 38 86 3d 3f 3f 3e 3d 23 f6 3a bb 93 1a 03 bc
       0.06553702 0.046447035 -0.0028528057 -0.008001941
000350 fe 8f 09 3d af 88 5c bc 01 7b 76 3c db 44 9d 3c
       0.033584587 -0.013460322 0.015043975 0.019197872
000360 cb 03 a8 bd b3 82 98 bd 59 e9 04 3d 31 42 b5 bd
       -0.082038485 -0.07446804 0.0324491 -0.08850516
000370 c8 68 ad bc 98 df 91 3d 21 af 2b 3d 39 50 34 3c
       -0.021168128 0.07122725 0.041915063 0.011005455
000380 88 ed 9b bd 71 bd 1c 3d 9e 48 b5 bd ce 2a 18 bd
       -0.07613665 0.038266603 -0.08851741 -0.037150197
000390 1a d3 fd bc e8 eb 9c bc 0e b6 2c 3c b4 c2 b3 3d
       -0.03098445 -0.019155458 0.010541452 0.08777371
0003a0 c3 c3 ea 3c e8 40 a7 3d a1 04 2c 3d 30 21 51 bd
       0.0286578 0.08166677 0.041996602 -0.05105704
0003b0 cc 70 6d 3d 7e 52 85 bd c9 c1 0c bd 4a 72 ee 3c
       0.0579689 -0.06509875 -0.034364495 0.029107232
0003c0 fe d3 d8 3c cc 66 5c 3d c0 f7 ff bc d2 7b f1 3c
       0.026468273 0.053808972 -0.031246066 0.029477987
0003d0 d4 1e 69 3d 5b d6 a2 bd 7d 0f 8d 3d 32 2e 51 bd
       0.056914166 -0.07951041 0.0688772 -0.051069446
0003e0 87 d2 4c 3c 01 81 ef bc 2f c8 40 bd 47 f3 7f 3c
       0.0125013655 -0.029236319 -0.04706591 0.015621967
0003f0 b1 ad 90 3d 16 8b 2c bc fe 2a 32 bd 7d c7 22 bd
       0.07064379 -0.010531208 -0.04349803 -0.039741028

down2.body.0.weight f4 [8, 16, 3, 3]
000000 10 4e 63 bd d7 5d 10 3b 8f 0d 7d 3d fa e1 76 bd
       -0.055494368 0.002202859 0.06178051 -0.0602741
000010 40 c6 1b bd 93 44 78 3d a8 93 80 bc 28 6d a2 3c
       -0.038030863 0.060612272 -0.015695408 0.01982744
000020 f9 10 a3 bd 0f 78 af bc 67 2d 0f bd aa 42 91 3d
       -0.07962222 -0.021419553 -0.03495541 0.07092793
000030 12 5d bd 3c 5e 83 61 bd 64 ba c9 3c f6 98 09 3c
       0.023115668 -0.055056922 0.02462501 0.008398285
000040 f5 64 f1 bc b2 7a 3b bd 09 8c b9 bc 62 a4 5e 3d
       -0.029467085 -0.04577131 -0.022649782 0.054355986
000050 dc 4c 85 bd 24 47 87 bd 31 97 09 bd b4 c8 d0 bb
       -0.065088004 -0.06605366 -0.033591453 -0.006371582
000060 14 cb b3 3c 79 8d c5 3b 2c 00 77 bc 09 f9 2a bd
       0.021947421 0.0060288277 -0.015075725 -0.041741405
000070 19 28 43 bc 43 a7 2d bd b0 dd 67 3d f7 25 86 bd
       -0.0119114155 -0.04239584 0.056607902 -0.0655021
000080 bd a5 4b bd ff ec 91 bd 8a 76 87 bc 90 18 4c 3d
       -0.049718607 -0.071252815 -0.016536016 0.049828112
000090 52 19 a5 3d b7 da 8c bd 20 76 33 ba ce d2 20 3d
       0.0806147 -0.06877654 -0.000684591 0.03926354
0000a0 6b 34 0f 3d 01 cb 7a 3d aa e4 38 3c 78 fd 18 bd
       0.0349621 0.061228756 0.0112849865 -0.0373511
0000b0 be 5f 66 3d 62 39 23 bd 13 7e 10 3d 54 c3 75 bc
       0.05624365 -0.039849646 0.035276484 -0.015000183
0000c0 2f ab ff 3c ce 68 a7 3d db 24 b6 3d ba 00 92 bd
       0.031209556 0.08174287 0.088937484 -0.07129045
0000d0 27 31 5b bd 6e e5 f8 bc a9 1a 56 bd 3f fd 86 3d
       -0.053513672 -0.030382838 -0.05227152 0.065912716
0000e0 23 21 c1 bc 5a 1e 42 bd 4a ec 06 bd 9c 64 5a bd
       -0.023575371 -0.047392227 -0.032940187 -0.053318605
0000f0 b8 e9 c9 3c bf d1 b4 bd 37 68 ac bd 87 3c a4 bd
       0.024647579 -0.088290684 -0.08418315 -0.08019357
000100 67 ce bd 3c 7b 79 19 3d 47 7c 6f bd a1 b2 80 3c
       0.02316971 0.03746937 -0.05846813 0.015710177
000110 ee 01 6f 3d ef d2 90 3b d8 8d 95 bc 82 25 9f 3c
       0.05835145 0.0044196765 -0.018256113 0.019427065
000120 09 f0 bf 3b 3d d9 5b 3d 1f be 4a bd 4d 3f 1f 3d
       0.005857472 0.05367397 -0.04949772 0.038878728
000130 d2 dc 08 3d 98 53 6f bd f0 83 72 3d e8 7d 91 3d
       0.033413716 -0.05842933 0.059207857 0.07104093
000140 58 e9 17 bd a3 cb 98 bc c1 b0 19 3d 91 b0 40 bd
       -0.03708777 -0.018651789 0.03752208 -0.047043387
000150 60 b8 e3 3c 17 26 51 3c ca 08 82 3d af 3c 92 bd
       0.027797878 0.012765429 0.06349333 -0.07140481
000160 a6 54 9f bd 5e eb 01 3d bf 58 1d 3d 50 35 8e bd
       -0.07779817 0.031718604 0.038414713 -0.06943762
000170 16 56 2c bd eb 2b 5f bd fd 66 60 bd 08 0c 1f bd
       -0.042074285 -0.054485243 -0.054785717 -0.038829833
000180 19 c0 93 3d 01 d2 c8 bc 6f b1 36 3d af da 9c 3d
       0.07214374 -0.0245142 0.044602808 0.07658898
000190 4b 4d 36 3d 37 80 8f bd 5f 91 5c 3d a0 09 ea 3c
       0.044507306 -0.07006877 0.053849574 0.028569043
0001a0 4a 0b 4f 3d 76 3e ad bd 6d 86 22 3d f7 65 6a 3d
       0.050547875 -0.08459179 0.03967898 0.057226148
0001b0 c4 dc 85 bd ab fc c5 3c 87 c5 77 3d 26 fd 5b bd
       -0.06536248 0.024168333 0.06049111 -0.053708218
0001c0 d4 6a 0b 3d 6f a2 21 3d 3d e3 98 3c 0c 28 98 3d
       0.034037426 0.03946155 0.018663043 0.07429513
0001d0 5e fc 6c 3d 1d 6f 96 3d 12 85 ff 38 f9 59 9b 3d
       0.057857864 0.07345412 0.00012184134 0.0758552
0001e0 1a 73 94 bd 30 5b 2a bd 9f 20 20 bc 9c 14 38 bc
       -0.072485164 -0.04159087 -0.0097734025 -0.011235382
0001f0 91 1d a0 3d 03 cb 35 3d 74 ab 5e 3d 35 87 67 3d
       0.07818139 0.04438306 0.05436273 0.056525428
000200 a4 7b 50 bd af 13 5a bc bd 61 8a 3c 4a cb b2 3c
       -0.050899163 -0.013310357 0.016892308 0.021825451
000210 6e 46 14 3d 4a 92 e2 bc e1 fa 9d bc 99 92 68 3d
       0.03619998 -0.027657647 -0.019284667 0.05678043
000220 c8 e0 db bc fa a5 92 bd 84 cf 1e 3d 4c c9 4e 3d
       -0.026840582 -0.07160564 0.03877212 0.05048494
000230 8d a7 6c bc c9 f2 3c bd 9c be 81 bd 85 18 8a bd
       -0.014444244 -0.046129975 -0.06335184 -0.06742958
000240 11 99 2a 3d 8e f1 ab bc 00 a5 8e 3d 9d d8 82 bd
       0.04164988 -0.020989206 0.06965065 -0.06388972
000250 e4 ee af ba 75 f7 d4 3b 42 8d 04 3d 30 17 7a 3d
       -0.0013422635 0.0064992257 0.032361276 0.06105727
000260 30 f6 36 3d fb 32 17 3d a1 7c 1d bd 45 2a 81 bd
       0.044668376 0.036913853 -0.038448934 -0.063068904
000270 09 a8 89 bd 0b dd 86 bb 95 89 8f 3d b7 1b 3c 38
       -0.06721503 -0.004115706 0.070086636 4.4848504e-05
000280 6b 7c 6a b9 5b 95 62 bd d9 bf d1 3b 4d 85 52 3d
       -0.00022362328 -0.055318218 0.006401044 0.051396657
000290 be eb 98 bd 54 fb 89 bd a8 20 41 3d b7 5d 48 3c
       -0.07466839 -0.0673739 0.047150284 0.012229375
0002a0 1d 26 70 bc 23 11 04 3c 0e 61 91 bc 8f 4c 68 bd
       -0.014657524 0.008060726 -0.017746475 -0.056713637
0002b0 fc 54 97 bd f7 ac 63 3d c7 32 74 bb a0 35 b9 bc
       -0.07389256 0.055584874 -0.003726171 -0.022608578
0002c0 d7 a9 44 bc 44 d3 46 bd 62 bc dc bc 5d ec 8d bd
       -0.012003384 -0.048541322 -0.026945297 -0.06929848
0002d0 97 06 6d 3d 4c 3b 26 3d de e2 23 bd 63 99 dd bc
       0.057867613 0.040583894 -0.04001128 -0.02705068
0002e0 61 7f 05 3d 6d a5 21 bd 76 f2 a3 3c dd 09 87 3c
       0.03259218 -0.039464403 0.020013075 0.016484195
0002f0 a1 7d 4c bd 7e 99 d3 3c 42 27 a0 3c 23 5c 8a 3d
       -0.049924497 0.025830027 0.01954997 0.06755855
000300 f5 d8 af bc 39 f2 1e bc b5 de 93 3d b0 6b 8b bd
       -0.021465758 -0.009701305 0.07220212 -0.06807649
000310 d9 4d 9f 3c ea f7 a7 3d 48 9d 27 bd cf 18 7d 3d
       0.0194463 0.08201583 -0.04092148 0.061791237
000320 3f e2 82 3d 6c 79 7d 3d 42 e2 fe bb fd 12 80 3d
       0.06390809 0.061883375 -0.007778437 0.06253622
000330 0c 3a 0e bd f0 e0 e3 bc 4c 16 d8 3c 69 79 9c 3c
       -0.034723327 -0.02781722 0.02637782 0.019100862
000340 f2 80 68 3d 27 da aa 3d f9 9d 71 bd d5 12 45 3d
       0.056763597 0.083423905 -0.058988545 0.048113663
000350 5e 3d 16 3d bb da c7 3c aa 17 14 3d 4b 1e ec bc
       0.036679618 0.024396291 0.03615538 -0.028823039
000360 23 ab 7f bd 65 8f 7c 3d 84 15 0b bd 75 2a 34 3d
       -0.062419068 0.06166019 -0.033956066 0.043985803
000370 af 52 90 bd 9a a1 06 bc 05 42 18 3a 1a de 37 3c
       -0.07047021 -0.00821724 0.00058081775 0.011222387
000380 4a 48 02 3c 0d f4 c1 3c 79 7c 18 bb d7 d9 67 3c
       0.007951805 0.023675943 -0.002326755 0.014151058
000390 68 dd 8f 3d 82 30 80 bd e7 d2 c8 bb f9 26 00 bd
       0.07024652 -0.06259252 -0.006128657 -0.031287167
0003a0 45 f5 33 3d 23 2e 79 3d 86 c0 db 3a de 78 01 bd
       0.04393508 0.060835015 0.001676575 -0.03160941
0003b0 f2 60 51 bd 3c 02 72 3d 07 0b 86 bb 9f 3d 8a 3d
       -0.051117845 0.059084162 -0.00409067 0.067500345
0003c0 73 fe 81 3d 75 c2 8e 3d a8 8d 60 3d 50 bf 58 bd
       0.063473605 0.069706835 0.054822594 -0.052916825
0003d0 19 57 70 3c c7 98 0a bd 59 2e 1a 3d 64 9c dd 39
       0.014669203 -0.033837106 0.037641857 0.00042268925
0003e0 20 08 92 3c 43 b0 53 bd 00 32 73 bd a3 f4 fe 3c
       0.01782614 -0.05168177 -0.059373856 0.031122511
0003f0 e4 e3 d2 3c dd 73 19 3c e7 21 1e 3d 2c e5 38 bd
       0.025743432 0.009366003 0.03860655 -0.04514043

EDMoE.gate.fc0.weight f4 [10, 8]
000000 23 84 ab be 55 32 a2 be f4 a0 51 3e 19 cc 55 be
       -0.3349925 -0.31679025 0.20471555 -0.20878638
000010 07 4d 84 3e 58 9d e1 3d 5f c1 b5 3d d4 cd 8f 3e
       0.25840017 0.11016339 0.08874773 0.28086722
000020 66 ad a7 be 41 8f 84 3e 0c d1 ea 3d 08 9b 72 be
       -0.3274948 0.25890544 0.11465654 -0.23691952
000030 3d 2d b0 3d cd cc c9 bd 9e 51 11 be 12 d7 1c bd
       0.086023785 -0.09853516 -0.1419129 -0.038291045
000040 45 b0 2a be 3a 4a 9e 3e c1 cd 9b 3e 59 7c 1a bd
       -0.16668804 0.30916005 0.30430415 -0.037716243
000050 13 86 a0 be de 2e b1 bc 45 5c bf 3c 88 fe 71 3e
       -0.3135229 -0.021628793 0.023359427 0.23632252
000060 52 5f 3a 3c 65 bd d2 3d 8a 1f c0 3d da 6b 4d be
       0.011375265 0.102900304 0.093810156 -0.20060673
000070 59 91 60 be 28 ca a1 be f4 f3 35 bb a1 44 e0 3d
       -0.21930446 -0.31599545 -0.0027763816 0.1095059
000080 ff f0 cd bc 97 b5 af 3e 77 20 8a bd 70 3d 6c be
       -0.02513933 0.3431823 -0.067444734 -0.23070312
000090 5c 5c 71 3d 80 e8 cb bd d0 86 46 bd 0f 66 af 3e
       0.05892597 -0.09956455 -0.04846841 0.34257552
0000a0 62 34 26 bc c1 20 9e 3e 02 65 41 3d b0 af 06 be
       -0.010144325 0.30884364 0.04721547 -0.13152957
0000b0 4c b7 84 3e 48 3a 4e be e7 a8 3f 3c f6 c0 a2 3d
       0.25921094 -0.2013942 0.011697984 0.07946961
0000c0 ce 7e 22 3e eb 04 a7 be 9a 14 8e 3c 57 7a bb bd
       0.15868685 -0.3262094 0.017343808 -0.09154194
0000d0 d3 bb 6a 3e 85 9c f3 3d a1 1a 11 3e e7 ad 59 3e
       0.22923212 0.11895088 0.14170314 0.21257745
0000e0 6f 1b a2 bd ac 90 b9 bc 32 39 91 3e 4d e6 91 be
       -0.07915389 -0.022651993 0.2836395 -0.28496018
0000f0 8e 3f 7a be 30 e1 d3 3c db 69 0f be e2 df a5 3c
       -0.24438307 0.025864214 -0.14005224 0.020248357
000100 be e7 9f 3e 18 e0 27 bd e5 57 9a be 1d 93 24 be
       0.31231493 -0.040985197 -0.30145183 -0.16071744
000110 fd 3d a6 3e 75 12 9f bd f6 be 1e be 95 f6 22 3e
       0.32469168 -0.07767192 -0.15502533 0.15914376
000120 ad 46 33 3d de 99 9f be 20 c0 96 3e 79 df 4b 3e
       0.043768574 -0.3117208 0.29443455 0.19909467
000130 dd 56 9d 3e 89 6d 1e 3e 21 20 f4 bd 80 5f ec bd
       0.30730334 0.15471472 -0.119201906 -0.11541653

EDMoE.gate.fc0.bias f4 [10]
000000 b3 73 2f 3e 7d 5d 8c bd 39 f5 8d 3d d5 67 af be
       0.1713398 -0.06853769 0.06931538 -0.34258905
000010 bb f6 32 be 77 7a 06 3e ea c8 8e bc e3 0c 2e be
       -0.17476933 0.13132654 -0.017429788 -0.16997103
000020 b4 e5 9d be e6 18 66 3e
       -0.30839312 0.22470436

EDMoE.gate.fc1.weight f4 [10, 8]
000000 b9 ce 30 bc e9 49 7e 3b b2 d2 c8 bc 9a db 85 3b
       -0.010791474 0.0038801378 -0.02451453 0.0040850164
000010 ae 94 ee ba a0 b8 2f ba 96 38 7d bc 86 f4 f7 3c
       -0.0018202269 -0.00067032315 -0.015455386 0.030267965
000020 48 a3 48 bb 70 f9 22 bc ed 94 95 3b 44 b4 f9 ba
       -0.0030614901 -0.009947166 0.0045648725 -0.0019050916
000030 da e3 a5 39 01 dd 9b bb 00 4c 61 bc 86 82 7a 3b
       0.00031641015 -0.0047565703 -0.01375103 0.003822477
000040 9d d9 cd bb d5 9e 2b bb 63 d3 16 bc 09 85 79 bc
       -0.006282045 -0.00261872 -0.009205672 -0.015229472
000050 e7 f5 42 bc 18 1a 83 bc 16 de 97 bc 77 22 22 3c
       -0.011899448 -0.016003653 -0.018538516 0.009895912
000060 e2 a2 29 bc 4c 54 9a bc 2d 6e 39 3c 1f ae fa 3c
       -0.010353776 -0.018839024 0.011317772 0.030600606
000070 46 37 c9 3b 8d 69 2f bb e7 be c4 3c 84 af 83 bc
       0.0061406223 -0.0026765794 0.02401681 -0.016074903
000080 ce 61 8c 3b 88 26 38 3b 55 1f 53 3a ce 46 33 bc
       0.00428412 0.0028099138 0.000805368 -0.010942174
000090 d4 96 7a ba 7b 2c e0 3b e8 78 6d bb e8 ab 0d 3c
       -0.00095592183 0.00684124 -0.0036235396 0.008646943
0000a0 fb 30 e9 bb d1 da 83 bb 59 d1 1e bc 4c 60 51 3b
       -0.0071164346 -0.0040238877 -0.009693467 0.0031948267
0000b0 f1 6f c5 bc a0 c2 8f bc 9c b3 1f bc 50 cf f0 3b
       -0.02410123 -0.01754886 -0.009747412 0.0073489323
0000c0 b0 71 af 3c 04 a4 2b 3c 74 71 b6 3c e5 13 93 bc
       0.021416515 0.010476116 0.022270896 -0.017953822
0000d0 f7 86 8c 3c 09 96 6e 3c ed 29 be 3c 32 35 11 bd
       0.0171542 0.014562138 0.023213351 -0.03545112
0000e0 e9 fe 20 3c e9 6d 7c 3c 51 c9 98 bb b4 f8 e5 bb
       0.0098264 0.015407064 -0.0046626707 -0.007018173
0000f0 26 c7 d3 3c d5 20 03 3d 37 59 78 3c df 0b bb 3c
       0.025851797 0.032013733 0.015157989 0.022832809
000100 a7 2d 6f 3c 9f 6f 17 bc df 55 99 3c 0e e5 be 3c
       0.014598287 -0.009242921 0.018717704 0.023302581
000110 72 50 8d 3c e7 12 f8 3b 4f 26 29 3d 60 a9 b9 bc
       0.017250273 0.0075706127 0.0412963 -0.022663772
000120 5d 17 01 3b 6c ca d1 ba ae cb b4 3c 6f d8 ba bb
       0.0019697763 -0.0016005761 0.022069778 -0.0057020704
000130 78 ed 13 3c 28 80 2a 3b b7 60 89 3c 58 87 ba bc
       0.009028785 0.0026016328 0.01676975 -0.022769615

EDMoE.gate.fc1.bias f4 [10]
000000 66 62 68 3e a5 2d 34 be de 29 a6 3e 28 38 3f be
       0.22693786 -0.17595537 0.32453817 -0.18673766
000010 29 0b a2 be d8 e5 17 3e a0 46 46 be 64 cb 67 bd
       -0.3164914 0.14833772 -0.19362879 -0.056590453
000020 11 32 dd bd 56 6c a2 bc
       -0.10800565 -0.01982705

EDMoE.expertnet.0.conv1_1.conv.weight f4 [8, 8, 3, 3]
000000 e0 b5 d2 bd b7 da e3 bd c7 cf 39 3d 1f 93 95 bc
       -0.10288596 -0.11125701 0.045364168 -0.01825863
000010 15 96 90 bd 5a 41 b4 ba 61 8a cd bd fc 0b 16 3d
       -0.07059876 -0.0013752386 -0.10036159 0.036632523
000020 22 d0 4f 3d 98 34 d9 3d 7b 59 c0 bd 89 17 49 bc
       0.0507356 0.106057346 -0.09392067 -0.012273678
000030 a3 4c 7a 3d 5f aa db 3d a8 14 af bd 57 f0 58 3d
       0.061108243 0.10725855 -0.08548862 0.05296358
000040 92 b5 2f 3d 4c 91 96 3d 0e 4a 88 bd ca b6 d9 3d
       0.04289777 0.07351932 -0.0665475 0.10630567
000050 b5 03 24 bd 06 8d 76 bd 7e 5e be 3c 44 9a d1 3d
       -0.040042598 -0.060193084 0.023238417 0.10234502
000060 7b 1b 81 bd f4 76 a9 3d e7 d2 4f 3b 65 f5 50 3d
       -0.063040696 0.08274642 0.00317114 0.051015276
000070 7b 5a d1 3d d4 f3 39 3d cc 99 a4 bd 70 53 10 bd
       0.10222336 0.04539855 -0.08037147 -0.035235822
000080 f0 25 2a 3d 14 a2 b0 bd c5 d9 08 3d 8b 71 50 bd
       0.041540086 -0.08624664 0.033410806 -0.050889533
000090 9d fe ed bc 64 0f 2a 3d bc 90 bc bd 7a 26 80 bd
       -0.029052073 0.041518584 -0.092072934 -0.06257339
0000a0 33 a5 5a 3d 42 8f 00 be 67 01 a6 3d df 18 be bd
       0.053380203 -0.12554649 0.08105736 -0.092820875
0000b0 8e d1 87 3b 0b c4 8b 3c 5a 38 36 3d 8c f0 98 bd
       0.004144854 0.017061254 0.044487335 -0.07467756
0000c0 26 aa 72 3c 0b 6a 4e 3d 54 4a c9 3d 03 f8 b3 bd
       0.014811074 0.0503941 0.0982863 -0.08787539
0000d0 f7 01 61 bd 79 20 20 3d c4 4d 04 bc 99 9f 90 bd
       -0.054933514 0.03909347 -0.008075181 -0.07061691
0000e0 8b 1a bc bd 1b 00 d6 bd d6 b8 a7 bd 6e 44 2b bd
       -0.0918475 -0.10449239 -0.081895515 -0.041813307
0000f0 c4 71 9a bd 91 90 c9 bd 43 4d b4 3c 74 d5 94 3d
       -0.0754123 -0.09842027 0.022009498 0.072672755
000100 96 ff 58 bd ce 41 3f 3c c2 41 1f 3c 3a 13 60 3d
       -0.05297812 0.011673404 0.009720268 0.054705836
000110 b3 5b a5 bd 0f 93 81 3b af 5b e1 3d 69 a2 ac 3d
       -0.08074131 0.0039542983 0.110038154 0.08429415
000120 76 0f d3 bd 09 f3 8e bc d0 5e 29 3c 38 81 1a bd
       -0.10305683 -0.017449873 0.0103375465 -0.03772089
000130 2b 7a 9d bd b2 73 a7 bd 10 98 bb 3d 35 39 fc bc
       -0.07689317 -0.08176364 0.09159863 -0.030788997
000140 21 5d 89 39 56 eb b9 3c e6 e6 9f bd 37 c5 6c bc
       0.00026200063 0.022695225 -0.07807712 -0.014451317
000150 32 3e 86 3d 35 24 8c bd 62 41 e1 3c 08 59 6a bc
       0.065548316 -0.068428434 0.027496997 -0.014303453
000160 9b 61 64 3d e0 a4 8d 3d 9e eb ed 3c 68 a7 f2 3b
       0.055757146 0.06916213 0.029043015 0.0074052103
000170 5a be ce bd 1a d8 3f 3d 16 21 92 3d 41 c3 23 bd
       -0.100949004 0.04683695 0.07135217 -0.03998113
000180 35 19 f9 bd 1a 85 b0 3d 85 5b b6 bc 1f 55 2a 3b
       -0.12163011 0.08619137 -0.022260437 0.0025990678
000190 94 c3 22 bd 8b 86 9a 3d 57 6a bf 3d 69 3f 96 3d
       -0.0397373 0.07545193 0.093464546 0.07336313
0001a0 a6 7a 0f bd 31 1c 82 3d ed 4e 43 3d cc f1 bb 3b
       -0.035029076 0.06353033 0.04768269 0.0057356115
0001b0 88 42 c1 bd 2a 6e 4a bd d0 29 fa bd de 12 8d 3d
       -0.09436518 -0.049421467 -0.12215006 0.06888364
0001c0 46 ef ec 3d 5c 17 90 3d 3c 8a 01 3d e4 59 ab 3c
       0.11569075 0.070357054 0.03162597 0.020916887
0001d0 93 cc ff 3d 76 d0 5c bd 70 33 2c bd 8a 46 da bd
       0.12490191 -0.05390974 -0.042041242 -0.106579855
0001e0 70 bf 80 bc 62 87 03 3c 83 f5 14 3d 2f 49 b2 bd
       -0.015716285 0.008027883 0.03636695 -0.08705365
0001f0 85 fa a2 bc 8a b9 d0 bd a4 a3 bf bd 71 9b 91 3c
       -0.019894848 -0.10191639 -0.09357384 0.017774316
000200 a7 9a de bd e7 90 f2 3c 55 ce dc bd f5 e8 99 bd
       -0.10869341 0.02961011 -0.10781542 -0.07515136
000210 6a 04 f1 bc c4 c7 de bd 91 ef ab 3d 9d 49 d9 3d
       -0.02942105 -0.10877946 0.08395303 0.10609744
000220 99 2a 62 bd e3 56 1b 3d 5f fc 8a 3d 87 56 18 3d
       -0.055216406 0.03792466 0.06786417 0.037191894
000230 b5 0f 06 bc a1 40 cf bd d6 d7 ca 3d 28 bf c1 bd
       -0.008182456 -0.10119749 0.09904449 -0.09460288
000240 bd a9 a1 bc 20 9a 12 3c a7 cd 15 bd 6f 65 35 bd
       -0.019734258 0.008947879 -0.03657308 -0.044286188
000250 c4 27 cf bd 70 4f 51 3c 54 d1 27 bc 7b d0 d2 3d
       -0.101150066 0.012775287 -0.010242779 0.10293671
000260 11 5a 0e bd 7b 26 da 3d 00 d8 a0 3c d7 f4 fa bc
       -0.034753863 0.10651871 0.019634247 -0.030634327
000270 c7 17 a1 bc 32 9a 59 bc 4e 4c 18 3c b1 41 13 3c
       -0.019664658 -0.013281392 0.009295536 0.00898783
000280 96 ff 37 3d 2d 6d d1 3d f7 ff bc 3c da 7f 30 3d
       0.04492148 0.10225902 0.023071272 0.04309068
000290 10 68 a9 3d eb e3 c2 3c 3d fc 5c 3d a1 86 83 3d
       0.082718015 0.02379032 0.05395149 0.06422163
0002a0 24 2a da 3d e9 a8 e1 bd 97 68 5a 3d 54 b9 17 3a
       0.10652569 -0.11018545 0.0533224 0.0005787809
0002b0 9c 2c 87 bc d2 ba 41 bd aa f1 96 3d 7a 44 db 3d
       -0.016500764 -0.047297306 0.073703125 0.1070642
0002c0 2f fc af bd de 4d 94 3d ec aa af 3d 04 f6 e1 3c
       -0.08593022 0.072414145 0.08577523 0.02758313
0002d0 27 2f 67 3b 14 5e b1 3d 7c e1 41 3c 06 47 d6 bc
       0.0035275908 0.08660522 0.011833545 -0.026156913
0002e0 96 99 0d bc 55 87 2f 3d 9c 80 03 3d 09 a9 2d 3a
       -0.008642575 0.042853672 0.032105073 0.00066246145
0002f0 c6 32 44 3d b4 d3 e3 3c 37 d2 bc bd bc 57 14 3d
       0.047899984 0.027810909 -0.09219783 0.036216483
000300 9d b0 56 3d ca e7 5b 3c 28 80 7a bc d4 12 bb 3d
       0.052414525 0.013421962 -0.015289344 0.091344506
000310 cc 79 cb bd e4 25 4f bd 18 ee 5f bd fb d1 c3 3d
       -0.0993534 -0.050573245 -0.054670423 0.09561535
000320 92 f4 f1 bd f6 83 3c 3b 94 2f e8 bd e7 c4 eb bb
       -0.11814226 0.0028765178 -0.113372 -0.0071951034
000330 12 bb 39 3d 2f a1 fe bc 05 f6 e9 3d 0a 6c 8d bc
       0.04534442 -0.031082718 0.114238776 -0.017263431
000340 68 38 6b bd 13 e3 a7 3c 3b cb 46 3d ec d1 73 b9
       -0.05742684 0.02049402 0.04853366 -0.00023252488
000350 0f 76 cd 3d 09 97 aa bd a7 17 3d 3d 8a a6 7f 3d
       0.100322835 -0.08329589 0.046165135 0.062414683
000360 73 55 84 3d 01 31 d5 39 cf c0 1a 3d 6d 49 b9 bd
       0.06461611 0.00040663037 0.037781533 -0.09047208
000370 df 19 bc bd 89 4a de ba 6d f7 81 bc 28 72 b5 3d
       -0.09184622 -0.0016959469 -0.015865052 0.08859664
000380 92 70 bb 3d 54 c6 b4 3d 7b 5a 24 bd 14 dc b0 bd
       0.091523305 0.088268906 -0.04012535 -0.086357266
000390 30 ee c1 bd 22 7e 2d 3d 5b 11 c2 bd a6 db e2 bd
       -0.09469259 0.042356618 -0.094759665 -0.11077051
0003a0 1c fa 1a bd 67 f6 b3 bd 49 dd 5c bd 75 df 9c bd
       -0.03783618 -0.08787232 -0.05392197 -0.076598085
0003b0 d8 14 88 bd 67 c5 d9 3d 22 ad b4 bc 61 16 c3 3d
       -0.06644601 0.10633355 -0.022055212 0.09525753
0003c0 4d a4 ad 3b 56 5d c9 bc 2f f0 30 bd 1e 2a ba bd
       0.005299127 -0.024580639 -0.043197807 -0.090900645
0003d0 e8 cb c1 bd 9b e1 ba 3d 2f e7 19 bd 5a b0 e9 bd
       -0.0946272 0.09125062 -0.03757399 -0.114105895
0003e0 ec 0b fc 3d d8 7c 2e 3b 3f a1 94 bd c8 28 b3 bd
       0.123069614 0.0026624706 -0.07257318 -0.08748013
0003f0 2b 24 c9 bd 89 bb cd bd d3 55 d6 3d 5d 17 ad 3d
       -0.098213516 -0.10045535 0.104655884 0.08451722

EDMoE.expertnet.0.conv1_1.conv.bias f4 [8]
000000 0e ba c1 3d 12 7e 64 bd bc 7b 16 3c c5 3f 3b bd
       0.09459315 -0.055784293 0.009184774 -0.045715112
000010 8d 02 b8 bd 74 2f 7e 3d a9 2b bf 3d 8e 4b 81 bd
       -0.089848615 0.062056974 0.093344994 -0.06313239

EDMoE.expertnet.0.conv1_2.conv.weight f4 [8, 8, 3]
000000 fb 8d a3 3d 29 96 59 3d 1c 1d ca 3d 07 7c c1 3d
       0.07986065 0.05312172 0.098688334 0.094474845
000010 a4 a3 42 3e ac b1 1d 3e 6b 80 33 be 96 28 95 bd
       0.19007736 0.15399808 -0.17529456 -0.07283132
000020 85 ee de 3d 6a ca e3 bd ce e0 10 3d 69 26 b3 bd
       0.10885338 -0.11122592 0.03537064 -0.087475605
000030 ab 8c 9a 3c 2e 47 f8 3d c3 b0 6b 3d 07 8a 0b 3e
       0.018865904 0.121229514 0.05754162 0.13626872
000040 eb 6c ac bc 58 6e c9 3d b7 b9 54 3d 4b 2a 92 bd
       -0.02104803 0.098354995 0.051934924 -0.07136973
000050 df 39 1c be b7 1c 4b 3e 77 d2 4a bd 2f a7 16 3e
       -0.15256451 0.19835173 -0.04951712 0.14712213
000060 4f 0c 11 3e 04 9e de bb c5 43 22 be 16 d2 17 3d
       0.14164852 -0.0067937393 -0.15846165 0.037065588
000070 08 c5 ba bd 1f eb 52 3d ae 22 ac bd c4 49 1c 3e
       -0.09119612 0.05149376 -0.08405052 0.15262514
000080 94 1a 4e be 46 f2 97 bd a5 1d 6a 3c 8b 52 25 3c
       -0.20127326 -0.07419257 0.014289294 0.010090481
000090 df 85 39 3e 5a 8f a3 bd a8 1f 40 be 90 5f 14 3e
       0.18117474 -0.079863265 -0.18762076 0.14489579
0000a0 59 f0 45 3d 13 2b 0b 3e ef 88 04 be 13 65 05 be
       0.048324917 0.1359065 -0.12942861 -0.13026838
0000b0 88 8a 90 bd db 06 24 3b 61 ec 8f 3d b5 02 ea bd
       -0.07057673 0.00250285 0.070275076 -0.114262976
0000c0 3a 52 90 bc 62 79 28 bd 13 40 3c 3e d7 a3 b0 bd
       -0.017617334 -0.041131385 0.18383817 -0.08625
0000d0 9f 59 4c 3e 02 0b d7 bd e8 8c cc bd f7 1a 21 be
       0.19956063 -0.105001464 -0.09987813 -0.15732943
0000e0 60 df fe 3d a1 58 08 be 85 42 a0 3d d9 ce 96 bd
       0.12444949 -0.13315059 0.078251876 -0.07363672
0000f0 59 86 48 3e 1a df d7 3c 07 27 42 be 3d 68 b5 3c
       0.195825 0.0263515 -0.189602 0.022144431
000100 11 71 41 3c c8 61 4a be 93 bb 42 3d 2f a7 40 3e
       0.011806742 -0.19763863 0.047542166 0.18813775
000110 08 9e 70 3d cc 81 fc bb 12 11 4f bd 3b 26 46 3d
       0.05874446 -0.0077059027 -0.05055339 0.048376303
000120 c1 8e aa bd 33 f5 48 3e 18 13 21 3e 50 b6 cf 3d
       -0.083280094 0.19624786 0.1572994 0.10142195
000130 50 8c 96 bd 77 c4 4d be ea 27 f1 bd 8c 24 46 3e
       -0.07350981 -0.20094477 -0.11775191 0.19349879
000140 ee 59 2a be a7 48 5b be ff 99 de bc a9 71 74 3d
       -0.16635868 -0.21414433 -0.02717304 0.059678707
000150 0f 85 48 be fd a7 42 be 6b 84 36 3a 07 61 81 bd
       -0.19582008 -0.19009395 0.0006962481 -0.063173346
000160 c3 29 11 3e 66 80 81 3d fa 05 3e be 19 b9 28 be
       0.14176087 0.06323318 -0.18556967 -0.16476859
000170 68 0b 1a 3e 44 61 0f bd d3 c4 bd bd 02 99 7b 3d
       0.15043414 -0.03500487 -0.09266057 0.061425216
000180 de 21 4c bd 87 c1 c3 3d 82 88 7f 3d c1 05 bc bd
       -0.049836986 0.09558397 0.062386043 -0.09180785
000190 83 e1 3a be 60 b8 e8 3d 57 d5 01 be 57 f0 a2 bc
       -0.18250088 0.11363292 -0.12679039 -0.019889994
0001a0 a6 d4 ec 3c d6 03 df bd 88 15 fe 3d c0 74 04 be
       0.028909992 -0.108894035 0.124064505 -0.12935162
0001b0 a9 2a e1 3c ff 2d 9c 3c f5 69 a2 3d 39 77 54 be
       0.027486162 0.019064901 0.07930366 -0.20748605
0001c0 9a 14 88 3c 37 e4 d4 3d 2d 97 fd bd 4d a3 63 3d
       0.016611386 0.10395091 -0.1238235 0.055575658
0001d0 78 ec e5 bb b2 6c 3a 3e 09 bc 07 bd 1f 6e 37 3c
       -0.0070167147 0.18205526 -0.03313831 0.0111956885
0001e0 09 c5 cb bd 07 73 86 bd e7 cc 71 3d ea 6d 58 be
       -0.09949691 -0.065649085 0.0590333 -0.21135679
0001f0 6c 4a 0f 3e b7 d6 0b 3e fc 27 9d 3d aa 4b 13 3e
       0.13993233 0.13656126 0.07673642 0.14384332
000200 32 9f 76 bd 95 81 86 3d 97 b8 a6 3c 7d bb f9 bd
       -0.060210414 0.065676846 0.020351691 -0.12193964
000210 ad 54 ba bd 9e 58 92 bd b5 21 27 bd 17 a8 46 be
       -0.09098182 -0.07145809 -0.04080363 -0.19400059
000220 81 71 0e be 37 92 fe bb bf 2a d9 bc 44 68 2e be
       -0.13910486 -0.007768895 -0.02650964 -0.17031962
000230 f1 69 40 3d 55 8d f6 3d 6e ea 2f 3e 28 04 48 3e
       0.046976034 0.12038676 0.17179272 0.19532835
000240 5c 8b 1f be e0 c4 9d bd c4 f1 dc bd 54 74 02 3d
       -0.15580505 -0.077035666 -0.10788301 0.03184922
000250 e1 df 5c 3d 11 de 17 3d c9 21 f2 3d fb 20 d7 3d
       0.053924445 0.037077013 0.1182285 0.105043374
000260 12 4b c6 bd a2 79 13 3e c0 e1 17 3e 60 5c 5b 3d
       -0.09682287 0.14401868 0.1483221 0.053554893
000270 6d 32 46 be dc 48 df bd 16 62 99 3d 91 4d 73 3d
       -0.19355173 -0.10902569 0.074894115 0.059400145
000280 1b 45 34 3e e5 36 f2 3d 2e c6 87 3d 90 a5 3f bb
       0.17604487 0.118268766 0.06629597 -0.002924297
000290 dd 1e 16 3e be b2 5f bd 74 fa a5 3d 5d 18 c7 bd
       0.14660211 -0.05461382 0.08104411 -0.09721444
0002a0 5e 93 ad bb 1f c9 17 3e 7d 29 a9 3d c2 15 06 bd
       -0.0052971086 0.14822815 0.082598664 -0.032735594
0002b0 aa f4 e4 3a 2c a2 c2 bd 2f c3 c8 3d 9e db fd 3d
       0.0017467935 -0.09503588 0.09802853 0.12395404
0002c0 f0 23 7c 3d 53 f3 54 be ae 57 20 be 70 0b 03 3e
       0.06155771 -0.20795946 -0.15658447 0.12797332
0002d0 b7 c9 c1 bc 4e 57 00 3e 7f 66 17 3e dd fc 67 bd
       -0.023655755 0.12533304 0.14785193 -0.056637634
0002e0 a4 ab d2 bd 6e 7d 46 be 9a 16 8d 3d 53 5a cd 3d
       -0.10286644 -0.19383785 0.068890765 0.100269936
0002f0 76 63 e9 bc 46 4f 4e be 66 f9 04 be 31 bc 7f bc
       -0.02848981 -0.20147428 -0.12985763 -0.015608833

EDMoE.expertnet.0.conv1_2.conv.bias f4 [8]
000000 26 69 bd 3d 1a 95 8a bd 20 ed 05 be 7f 76 10 be
       0.09248571 -0.0676672 -0.13078737 -0.14107703
000010 ba df 39 3e 5c 7a 96 3d e7 b7 28 be a3 16 00 be
       0.18151751 0.07347557 -0.16476403 -0.12508635
