cls_param/Trento/IDNet_Trento.pkl (torch, 751764 bytes, 316 tensors)

encoder_pos_embed1 f4 [1, 16, 4, 4]
0	0xbf4b0f72	-0.7932044
1	0x3e7853f7	0.2425078
2	0xbf5311db	-0.8244912
3	0x3f82d758	1.0221968
4	0x3f91413e	1.1348035
5	0xbf80fcdc	-1.0077167
6	0x3fb51e5c	1.414989
7	0x40119123	2.2744834
8	0x3edfd084	0.43713772
9	0xbfa19d56	-1.262614
10	0x3f3acbf8	0.7296748
11	0xbef00d75	-0.46885267
12	0xbf62a250	-0.8852892
13	0x3f0c8aef	0.54899496
14	0xbf1092c5	-0.5647395
15	0x3f405ea9	0.7514444
16	0xbfa96b1d	-1.3235813
17	0xbfb70742	-1.429909
18	0xbfaf149c	-1.3678164
19	0x3e675582	0.22591212
20	0xbe5dd7e4	-0.21664387
21	0xbf5bb6a8	-0.85825586
22	0xc00c8c4b	-2.1960628
23	0xbf03eab6	-0.51530015
24	0xbed3e70e	-0.41387218
25	0xbfd9e13e	-1.7021863
26	0x3ee75dc7	0.45188734
27	0xbe1f393e	-0.1554918
28	0xbf7494c0	-0.95539474
29	0x3f8d3f7f	1.1035002
30	0x3f5081e0	0.81448174
31	0x3f9cce2b	1.2250417
32	0x3f5b06c1	0.8555718
33	0x3e2b7731	0.16744687
34	0x3e2b86f8	0.16750705
35	0x3d236890	0.03989464
36	0x3f3d1675	0.7386239
37	0xbf15cc33	-0.5851471
38	0xbe0883c2	-0.13331512
39	0x3fdac978	1.7092733
40	0x3f8c0422	1.0938761
41	0xbf95a7e0	-1.1691856
42	0xbe7c3468	-0.24629366
43	0x3cd6d11b	0.026222756
44	0x3f63b0bc	0.8894155
45	0xc01122b7	-2.2677438
46	0xbe2f76f2	-0.17135218
47	0xbd210498	-0.03931102
48	0xbfc73a25	-1.5564619
49	0xbe68129d	-0.2266335
50	0xbebeb045	-0.37243858
51	0x3ee26b15	0.44222322
52	0xbfc7f8f1	-1.5622846
53	0xc01b0401	-2.4221194
54	0x3f039860	0.5140438
55	0xbe06c70d	-0.1316187
56	0x3f4290c5	0.7600215
57	0x3fbd271c	1.477756
58	0xc012564e	-2.2865176
59	0x3f000775	0.5001138
60	0xbdcfc1d8	-0.10144395
61	0xbe1ef389	-0.15522589
62	0xbde53232	-0.111912146
63	0x3ed40e07	0.41416952
64	0x3fe21f85	1.7665869
65	0x3f8d614f	1.1045321
66	0x3f83f0d6	1.0307872
67	0x3f4b17d4	0.79333234
68	0xbf6a0a48	-0.9142194
69	0xbdedfae8	-0.11620122
70	0x3fb82433	1.4386047
71	0xbfd19ec7	-1.637658
72	0xbfa8e854	-1.3195901
73	0x403b50cc	2.9268064
74	0xbdafec93	-0.08590045
75	0x3ed26e82	0.41099936
76	0x3e2051b1	0.15656163
77	0xbd872fee	-0.06600939
78	0x3f22e25a	0.63626635
79	0xbebc1911	-0.36737874
80	0xbf2a6728	-0.66563654
81	0xbf0759fd	-0.52871686
82	0x3e55eae1	0.2089038
83	0x3f27d276	0.6555551
84	0x3f0b4dc3	0.5441553
85	0x3fc5e5d6	1.5460765
86	0x3fb21839	1.3913642
87	0x3eb081c3	0.34474
88	0x3ec6d041	0.3883076
89	0xc00fb3f8	-2.2453594
90	0x3e601da2	0.21886304
91	0x3c9f5858	0.019451305
92	0x3fb8eba6	1.4446914
93	0x3e93db8a	0.28878433
94	0x3f4e24b0	0.8052473
95	0xbf4cb956	-0.799703
96	0xbfd80181	-1.6875459
97	0xbfa5e710	-1.296114
98	0xbe139093	-0.1441062
99	0xc015fa25	-2.3433926
100	0x401ce400	2.451416
101	0x3e0a7679	0.13521756
102	0xbf8cb27b	-1.0991968
103	0xbe283ba2	-0.16428998
104	0xbf28f113	-0.6599285
105	0xbf82b23f	-1.0210646
106	0x401e081e	2.4692454
107	0x3fe4d8f7	1.7878712
108	0xbe5417c0	-0.20712185
109	0xbf67e47b	-0.9058301
110	0xbf809191	-1.0044423
111	0xbfbc56be	-1.4713972
112	0xbefd93c5	-0.49526802
113	0xbf2814f6	-0.65656984
114	0x3e8cb27e	0.2747993
115	0xbce81bb5	-0.028333524
116	0x3ca830b3	0.020531034
117	0xbf815759	-1.0104781
118	0x3e53ed6a	0.20696035
119	0xbf9a4e3e	-1.2055128
120	0xbefa3485	-0.48868194
121	0x3f0b6d4a	0.54463637
122	0xbf85d57e	-1.0455778
123	0xbf61f6e7	-0.8826737
124	0x3feeed9e	1.8666265
125	0x3f883660	1.0641594
126	0xbfd33c31	-1.6502744
127	0x3f62d963	0.88612956
128	0xbe0bce95	-0.13653024
129	0xbedc179d	-0.42986766
130	0x3faee6e6	1.3664215
131	0xbcd0eb47	-0.025502814
132	0x3f261972	0.64882576
133	0xbf84ebf3	-1.0384506
134	0xbd94952d	-0.072550155
135	0xbfb877ba	-1.4411538
136	0xbfbb31f3	-1.4624618
137	0x3f3cc6d5	0.73740894
138	0xbf38c7dc	-0.7217996
139	0x3ee0fc10	0.43942308
140	0x3f923a3c	1.1424022
141	0x3ff3ac48	1.9036951
142	0xbfec4fae	-1.8461816
143	0xbe35d552	-0.17757156
144	0x3f4318d6	0.7620977
145	0x3d946f0f	0.07247745
146	0xbfb96921	-1.4485208
147	0x3c2abb79	0.0104206735
148	0xbf9bf5d0	-1.2184391
149	0xbf9826fc	-1.1886897
150	0xbf8156f6	-1.0104663
151	0x3e9912df	0.2989721
152	0xbf824ef4	-1.0180345
153	0xbdf93e83	-0.12170126
154	0xbfe1c15e	-1.7637136
155	0xbf02e2c8	-0.5112729
156	0xbd196df5	-0.03745838
157	0x3f267e01	0.65036017
158	0x3fa0077e	1.2502286
159	0x3eb5efc7	0.35534498
160	0xbf98eac6	-1.1946647
161	0xbd00a683	-0.031408798
162	0x3f944987	1.1584939
163	0xbf3eaa55	-0.74478656
164	0xbf2f115e	-0.68385875
165	0x3eb8fc06	0.3612978
166	0xbf15afb2	-0.58471215
167	0x3e10fb95	0.14158471
168	0x3f496927	0.78676075
169	0xbd063688	-0.03276685
170	0xbf647fb6	-0.8925737
171	0xbf81b5d6	-1.0133617
172	0x3dd7c478	0.1053552
173	0xbff36325	-1.9014632
174	0x3f9ce94e	1.2258699
175	0x3f9b5bc3	1.2137378
176	0xbe9172f7	-0.28408024
177	0x3f010bd1	0.50408655
178	0xbf36f095	-0.7146085
179	0x3f34fc16	0.7069715
180	0x3dde390e	0.10850726
181	0xbf658a4e	-0.8966416
182	0x3f5dc26d	0.86624795
183	0x3f2be372	0.6714393
184	0xbf44b200	-0.76834106
185	0xbf40a61d	-0.7525347
186	0xbeb8bfed	-0.36083928
187	0x3e06f6fc	0.13180155
188	0xbfdb2f7c	-1.7123866
189	0xbf3ace24	-0.72970796
190	0xbf9541d0	-1.1660709
191	0xbf8f2521	-1.1183206
192	0x3e9dea46	0.308428
193	0xbec0dde8	-0.376693
194	0x3f370f38	0.71507597
195	0xbf6b9a43	-0.9203226
196	0xbfdb6e1e	-1.714298
197	0xc0102c3d	-2.2527
198	0xbf87a470	-1.0597057
199	0xbfc5a924	-1.5442243
200	0x3f6480f9	0.89259297
201	0xbf32fb4b	-0.6991469
202	0xbf1398f9	-0.5765529
203	0xbf9534e2	-1.1656764
204	0xbfbe9bca	-1.4891293
205	0x3e6e5d9e	0.232779
206	0xbe1d9de0	-0.15392256
207	0xbf632116	-0.8872236
208	0xc0286f6a	-2.6318002
209	0x3fac8fba	1.3481362
210	0xbf35fb5e	-0.7108668
211	0x3dddc4fc	0.108285874
212	0x3e6cf6a1	0.23140956
213	0x3da82032	0.08209266
214	0x3fbc5a94	1.4715142
215	0x3f833919	1.02518
216	0x3e62b681	0.22139932
217	0xbfde3636	-1.7360294
218	0xbf1fa912	-0.62367356
219	0x3e22878a	0.15872017
220	0x3ec045d2	0.3755327
221	0xbf18c9ea	-0.59683096
222	0xbfc576be	-1.5426862
223	0x3fdbc938	1.7170782
224	0xbed1d571	-0.40983155
225	0xbe016d04	-0.12639242
226	0x3fb2af85	1.3959814
227	0x3e89f328	0.26943326
228	0x3fcbc11a	1.5918305
229	0xbfbc99d9	-1.473445
230	0x3e567a07	0.20944987
231	0x3fc44d23	1.533604
232	0x3fa1dc83	1.264542
233	0xbdf942ff	-0.121709816
234	0x3df19e71	0.117977984
235	0x3fbb6cd8	1.4642591
236	0x3f89bfe1	1.0761682
237	0x3e6974ab	0.22798412
238	0xbdbe4f5d	-0.09292481
239	0xbf49b751	-0.78795344
240	0xbe37d770	-0.17953277
241	0x3e4ab63d	0.19796081
242	0xbee6b634	-0.45060885
243	0x3e9801be	0.2968883
244	0xbe7dfafc	-0.24802774
245	0xbfcd79ab	-1.6052755
246	0xbe33cf8f	-0.17559646
247	0xbeca200c	-0.39477575
248	0xbf2e012f	-0.67970556
249	0xbf39362a	-0.7234827
250	0xbfc56371	-1.5420972
251	0x3ea0cff4	0.31408656
252	0x3f9645d5	1.1740061
253	0xbe68ace6	-0.22722206
254	0x3d2c8792	0.042121477
255	0xbeb9beaa	-0.36278278

encoder_pos_embed2 f4 [1, 32, 2, 2]
0	0xc02a93b4	-2.665265
1	0xc018e1c2	-2.3887792
2	0x3fe825c0	1.813652
3	0xbde5fdcc	-0.112300485
4	0xbcaf650e	-0.021410491
5	0x3eb67fc1	0.35644343
6	0x3fd5f0de	1.6714132
7	0xbe9bf068	-0.30456853
8	0x3f42c260	0.7607784
9	0x3e3f26f2	0.186672
10	0x3e6744bb	0.22584812
11	0x3f021733	0.5081665
12	0x3f55edf5	0.8356622
13	0x3ef2d653	0.4742914
14	0x3f977c8a	1.1834881
15	0x3fc18ae7	1.5120515
16	0x3f46092a	0.77357733
17	0xbfdc0682	-1.7189486
18	0x3f147c0d	0.58001786
19	0xbeee7913	-0.46576747
20	0x3e8641f1	0.26222184
21	0x3f83afe5	1.0288054
22	0x3ee3cbf3	0.44491538
23	0x3efd849b	0.49515232
24	0xbf5e1601	-0.86752325
25	0xbf62704b	-0.88452595
26	0x3fde0dc2	1.7347949
27	0x3f8404da	1.031398
28	0xbe24bed3	-0.16088419
29	0x3f6e2f6f	0.9304113
30	0x4008b960	2.1363144
31	0xc0001d29	-2.0017798
32	0xbfcd3ad0	-1.6033573
33	0x3e704577	0.23463999
34	0xbf6ced65	-0.92549735
35	0x3cc4718b	0.023979923
36	0x40430e1c	3.0477362
37	0xbfb4c969	-1.4123966
38	0xbe8bd82d	-0.27313367
39	0x3fc6fa4f	1.5545138
40	0x3f348791	0.7051936
41	0x3fa23311	1.2671834
42	0x3fcf52e6	1.6197174
43	0xbf78ecd5	-0.97236377
44	0x3f4e6991	0.8062983
45	0x3f08843f	0.5332679
46	0x3f83db9e	1.0301397
47	0xbed34ac4	-0.4126798
48	0xbe68b628	-0.22725737
49	0xbce96710	-0.028491527
50	0x3ff520a1	1.9150583
51	0xbf4d7e21	-0.8027058
52	0x3f1edab3	0.6205246
53	0x3f90d441	1.1314775
54	0x3f55f13c	0.8357122
55	0xbf733a5f	-0.9501094
56	0x3e89c487	0.2690775
57	0x3de6adc3	0.11263611
58	0x3f12135e	0.570608
59	0x3f03650b	0.51326054
60	0x3e0ba9bc	0.13638967
61	0x3eaa1067	0.3321564
62	0x3ed44c12	0.41464287
63	0x3fe346f1	1.7756025
64	0x3d5d0174	0.053956464
65	0xbf7bdbd7	-0.98382324
66	0xbf8596e8	-1.0436678
67	0xbf174df8	-0.59103346
68	0x3eaf4723	0.3423396
69	0xbfa512b9	-1.2896339
70	0xbf386c56	-0.7204031
71	0xbdb3af21	-0.087736376
72	0xbf069813	-0.52575797
73	0x3f531aef	0.8246297
74	0xbf45d4d6	-0.77277887
75	0xbcc3350b	-0.023829004
76	0x3f0ee131	0.55812365
77	0xbd460db7	-0.048352923
78	0x3f4ed5a5	0.80794746
79	0xbf428f1b	-0.7599961
80	0x3f830380	1.0235443
81	0x3f456976	0.77114046
82	0x3d581330	0.052752674
83	0x3fd0472a	1.6271718
84	0xbda7b150	-0.081881166
85	0x3eaff87f	0.34369275
86	0xbf58a795	-0.8463071
87	0xbeba770c	-0.3641895
88	0x402dc883	2.7153633
89	0x3fe06a1d	1.7532383
90	0x3f87e34f	1.0616244
91	0xbfc3b532	-1.5289671
92	0xbec6544c	-0.38736188
93	0xbfed37ed	-1.8532692
94	0xbe7af76d	-0.24508448
95	0xbf0c1983	-0.5472643
96	0x4008f1a9	2.1397498
97	0xbf81f21c	-1.0152011
98	0xbefd7266	-0.49501342
99	0x3c96f019	0.018425034
100	0xbea14aa5	-0.31502262
101	0xbeccd5f3	-0.4000698
102	0x3f86e3a9	1.0538226
103	0xbfb85558	-1.4401045
104	0x3f8a1b14	1.0789514
105	0xbf8d7905	-1.1052557
106	0x3f902586	1.1261451
107	0x3ff711ca	1.9302304
108	0x3fa65bc7	1.2996758
109	0xbe482490	-0.19545197
110	0xbfa4ab3f	-1.286476
111	0x3d70fb1a	0.05883322
112	0x3f7fe9b5	0.99965984
113	0xbf10c771	-0.56554323
114	0xbe767e60	-0.24071646
115	0xbfeb8f09	-1.8403026
116	0xbfe3a8ad	-1.7785851
117	0xbf9b5d07	-1.2137765
118	0x3fc1c2a9	1.513753
119	0x3edbedcc	0.42954862
120	0x40116c57	2.2722375
121	0xbfea8938	-1.8323126
122	0x3f76a2cb	0.9634215
123	0x3e25c0fa	0.16186896
124	0xbefe0f42	-0.49621016
125	0x3fb1e2e6	1.3897369
126	0xbf3c9985	-0.7367175
127	0xbfcb5bca	-1.5887387

encoder_pos_embed f4 [1, 15, 16, 16]
0	0x3f280203	0.6562807
1	0xbef4358b	-0.476971
2	0xbfb9cfd4	-1.4516549
3	0x3e834264	0.2563659
4	0x3f367060	0.7126522
5	0x3e851e89	0.2599986
6	0x3f378500	0.71687317
7	0xbf653851	-0.89539057
8	0xbe199554	-0.1499837
9	0x3e0c9b0c	0.1373102
10	0xbfb6e056	-1.4287212
11	0x3ff6f08a	1.9292157
12	0x3f7e3179	0.9929424
13	0x3f1472cc	0.57987666
14	0x3f640506	0.89070165
15	0x3f89e2b2	1.0772307
16	0x3f4feb7b	0.8121869
17	0x3ea16b66	0.3152725
18	0xbfae988f	-1.3640307
19	0x3fbd313e	1.4780653
20	0xbf9b48d4	-1.21316
21	0x3e8c2cf5	0.2737805
22	0x3ef095b8	0.46989226
23	0x3ebefcee	0.37302345
24	0xbf447b3d	-0.76750547
25	0x3f900cb0	1.1253872
26	0x3fb6b088	1.4272623
27	0xbefd8166	-0.49512786
28	0x3f0462c3	0.517132
29	0xbf8b37e3	-1.087643
30	0x3fe6dde2	1.8036463
31	0xbea3af0c	-0.31969488
32	0x3eccb736	0.3998353
33	0xbe1011c7	-0.14069282
34	0xbf34d70c	-0.70640635
35	0xbec04aee	-0.37557167
36	0xbefa87bf	-0.4893169
37	0x3c2b9a5f	0.010473817
38	0x3c277327	0.010220326
39	0x3f4968fb	0.7867581
40	0x3f50a781	0.8150559
41	0x3ed3f60b	0.41398653
42	0xbfdaa29b	-1.7080873
43	0x3ea3b13a	0.3197115
44	0x3ed28953	0.41120395
45	0xbf17f824	-0.5936301
46	0x3f93a591	1.1534902
47	0xbf8d65a9	-1.1046649
48	0xbfcdd492	-1.6080496
49	0xbed03a65	-0.40669551
50	0xbfca2e07	-1.5795296
51	0xbf43b6e7	-0.7645096
52	0x3f3a61f0	0.7280569
53	0x3e9a54d1	0.30142835
54	0xbf48a5d0	-0.7837801
55	0x3eb2afca	0.3489974
56	0x3f2736d6	0.6531805
57	0xbf0eb5c6	-0.55746114
58	0x3e92c433	0.28665313
59	0xbfe9439f	-1.8223761
60	0xbe483749	-0.1955234
61	0x3d203aad	0.039118458
62	0xbed29a8b	-0.41133532
63	0x4013855c	2.3050146
64	0x3fb0a4b5	1.3800265
65	0x3fd655ea	1.6744969
66	0xbfadd1db	-1.3579668
67	0x3ea8f008	0.3299563
68	0xbe7cf318	-0.24702108
69	0x3f6d7a79	0.92765003
70	0xbfaa9c75	-1.3328997
71	0x3f06fc72	0.5272895
72	0x3f0dcc0d	0.5538948
73	0x3e15c580	0.14626122
74	0xbff6fcb4	-1.9295869
75	0x3eb38aaf	0.35066745
76	0xbf895dd4	-1.0731759
77	0x3f876f7b	1.0580896
78	0xbf867c0d	-1.0506607
79	0x3f469546	0.77571523
80	0xc00364c0	-2.0530243
81	0xbfa52ecc	-1.2904906
82	0xbfc7320e	-1.556215
83	0x3e16573a	0.14681712
84	0x3f2ce8f7	0.67542976
85	0x3fee70e3	1.86282
86	0xbf32445c	-0.6963556
87	0xbe848d3b	-0.25889
88	0xbec00f3e	-0.3751163
89	0x3f7ebfd8	0.9951148
90	0xbf7ecff9	-0.9953609
91	0xbf60cfda	-0.87817156
92	0x3fd6d43e	1.6783521
93	0xbec09381	-0.37612537
94	0xbf1a2bad	-0.60222894
95	0xbe1fdaa0	-0.15610743
96	0xbf4277b6	-0.75963914
97	0xbdef7b7e	-0.11693476
98	0xbf0b9125	-0.5451835
99	0x3fa8c9f8	1.3186636
100	0xbfe5195a	-1.7898362
101	0xbe8093a2	-0.25112635
102	0xbf84e650	-1.0382786
103	0x3f6e4568	0.93074656
104	0x3f45dd7b	0.7729108
105	0xbe65dd91	-0.22447802
106	0xbefb1a0b	-0.49043307
107	0xc004620f	-2.068485
108	0xbe9833db	-0.29727063
109	0xc00250ad	-2.036174
110	0x3db55472	0.08853997
111	0x3fc2ecb8	1.5228491
112	0x3f0f158b	0.55892247
113	0xbf1185b9	-0.5684467
114	0x3ed0b056	0.40759534
115	0xbff3f319	-1.9058563
116	0x3e7582d7	0.23975693
117	0x3fad3ca0	1.3534126
118	0xbfba04c8	-1.4532709
119	0xbf732540	-0.94978714
120	0x3f869f7b	1.051742
121	0xbeeb40a9	-0.4594777
122	0x3f91d074	1.139174
123	0xbf5f5ac9	-0.872479
124	0xbfb033ae	-1.3765771
125	0xbfdf504c	-1.744638
126	0xbfc4d90d	-1.5378739
127	0xbfb4b5e5	-1.411801
128	0x3e488b1b	0.19584315
129	0xbf583e3a	-0.8446995
130	0x3f4364f4	0.7632592
131	0x3fbda49c	1.481586
132	0x3ffcd045	1.9751059
133	0xbf203f75	-0.6259683
134	0x3fc60971	1.5471631
135	0x3f955faa	1.1669819
136	0x3e7a949b	0.24470751
137	0x400c86f8	2.1957378
138	0x3f70aefa	0.94016993
139	0x3f7a864f	0.9786119
140	0x3df90e0f	0.121608846
141	0x3f0c17e3	0.5472395
142	0x3ec267c6	0.37969798
143	0xbe42b89b	-0.19015734
144	0x3f4740e8	0.77833414
145	0x3ebeaa4e	0.37239307
146	0x3eb658df	0.35614678
147	0xc0396a80	-2.8971252
148	0xc00c6fe0	-2.1943283
149	0xbfdcd753	-1.7253212
150	0x3f5a69cc	0.85317683
151	0x3f7f79af	0.9979505
152	0xbefb3d3d	-0.4907016
153	0x3f363e03	0.7118837
154	0x3fd795fb	1.6842645
155	0x3fba416d	1.4551216
156	0x3e7c401d	0.24633832
157	0x3fac2a25	1.3450361
158	0x3ead0dda	0.3379963
159	0xbf42e4ad	-0.7613018
160	0x3f01ee9b	0.5075471
161	0x3e37216f	0.17883848
162	0xbf0a7fa6	-0.54101026
163	0xbd9aa3f6	-0.07550804
164	0x3eb4f5fe	0.35343927
165	0x3ea03d18	0.3129661
166	0xbe55fd48	-0.208974
167	0xbe3e03a3	-0.18556075
168	0xbe8fca1c	-0.28083885
169	0xbe3d2674	-0.184717
170	0x3f0fd2e6	0.5618118
171	0xbf02bc32	-0.51068413
172	0xbee6306c	-0.44958818
173	0xbf971c2b	-1.1805471
174	0xbf8371e2	-1.0269129
175	0xbde312b9	-0.110875554
176	0xbf8fdcb5	-1.123923
177	0x3fcab19d	1.5835453
178	0xbe5d9529	-0.21638931
179	0x3fc9604a	1.573251
180	0xbf9ae8f5	-1.2102343
181	0xbe8e63ad	-0.27810422
182	0x3ffd18a1	1.9773141
183	0x3f9df4f8	1.2340384
184	0xbfbd489b	-1.4787782
185	0xbeb4e214	-0.35328734
186	0x3f8cfc2f	1.101446
187	0x3ed06e0c	0.4070896
188	0x3f4ccf12	0.80003464
189	0xbfe0c8bf	-1.7561263
190	0x3fa37289	1.2769328
191	0xbf2e988e	-0.6820153
192	0xc0001437	-2.0012338
193	0x3eb8508f	0.3599896
194	0xbde27472	-0.110573664
195	0x3f16a216	0.58841074
196	0xbf0cc80e	-0.5499276
197	0xbc4cb585	-0.0124944495
198	0xbe6612cc	-0.22468108
199	0x3e0bf4d1	0.13667609
200	0xbea34cd2	-0.31894547
201	0xbfa7d380	-1.311142
202	0xbe7a9cd1	-0.24473883
203	0x3f9eb538	1.2399054
204	0x3f19d8cd	0.60096437
205	0xbfdc773e	-1.722389
206	0x3d96eb31	0.07369078
207	0x3f35fe86	0.71091497
208	0xbf23c91c	-0.63978744
209	0xbe963e87	-0.2934458
210	0x3e678b11	0.22611643
211	0xbeb5dec7	-0.35521528
212	0x3f0a690f	0.54066557
213	0x3f025f62	0.5092679
214	0x3f387211	0.7204905
215	0x3c7cde12	0.015433805
216	0x3f819fad	1.0126854
217	0x3e3b3f3d	0.18285842
218	0xbfe4bb3a	-1.7869637
219	0xbee15835	-0.4401261
220	0x3fef71e9	1.8706638
221	0xbca4693a	-0.020069707
222	0x3e9967ec	0.299621
223	0xbf5dd97c	-0.8665998
224	0xbfdcaeea	-1.724088
225	0xbf5cea44	-0.8629496
226	0x3f0d691d	0.55238515
227	0x3ee1baba	0.44087774
228	0xbed95d24	-0.42453873
229	0xbf40bcdd	-0.7528818
230	0x3e7c3040	0.24627781
231	0x3e8a521c	0.2701577
232	0xbf0c43ce	-0.5479096
233	0xbf2bd65c	-0.6712396
234	0x3feca0f8	1.8486624
235	0x3f1450b8	0.5793567
236	0x40038b77	2.0553873
237	0xbfe19a2c	-1.7625175
238	0xbf927090	-1.1440601
239	0xbe8bb04a	-0.27282935
240	0x3ffb5e06	1.9638069
241	0xbf88ba07	-1.0681771
242	0x3f297506	0.6619419
243	0x3c60797c	0.013700839
244	0xbf8a7a50	-1.0818577
245	0xbf93b647	-1.1540002
246	0x3ea354c1	0.319006
247	0xbe2d1e3d	-0.16906066
248	0xbe8df811	-0.27728322
249	0x3f8e4207	1.11139
250	0xbec35e75	-0.38158002
251	0xbe445d6e	-0.19176266
252	0xbe49d1b7	-0.19708906
253	0x3eabbfb2	0.3354469
254	0xc008f373	-2.139859
255	0xbe77b276	-0.24189171

down1.body.0.weight f4 [8, 16, 3, 3]
0	0xbb7a9d5b	-0.0038240764
1	0x3d32856e	0.04358428
2	0xbda604c9	-0.081063814
3	0xbd72fc33	-0.059322547
4	0xbd2e88d4	-0.04261096
5	0x3be6f25c	0.0070479345
6	0xbb805b75	-0.0039171525
7	0x3d7772f0	0.060412347
8	0xbc0b76a3	-0.008512172
9	0xbb04a437	-0.0020239481
10	0xbd571176	-0.052506886
11	0xbca504fd	-0.02014398
12	0xbdc59c1d	-0.09648917
13	0xbd7ec9e5	-0.06220426
14	0xbd08067c	-0.03320931
15	0x3b2519e3	0.0025192432
16	0x3cfc4f55	0.030799547
17	0x3d4a6719	0.049414728
18	0xbd996ad8	-0.07491082
19	0xbd29709b	-0.041367155
20	0x3cfda667	0.030963136
21	0x3d9ea37a	0.077460244
22	0xbc0c8e81	-0.008578897
23	0x3d7b914e	0.06141787
24	0xbcbd2ea9	-0.023093538
25	0x3c62e760	0.013849109
26	0x3d9c75ed	0.0763968
27	0xbdbb987d	-0.09159944
28	0xbd888096	-0.06665151
29	0xbd5e9f1c	-0.054350957
30	0xbd6b1099	-0.057388876
31	0x3d76846e	0.06018489
32	0xbd85d4de	-0.06534742
33	0xbd47eb02	-0.048808105
34	0xbd7b3f14	-0.061339453
35	0xbdc61f5d	-0.09673951
36	0xbc8003e9	-0.015626865
37	0x3d9ed219	0.07754917
38	0x3c7b865c	0.015351858
39	0x3d23ddb3	0.04000635
40	0xbcb6d45b	-0.022318056
41	0xbd7ddb81	-0.061976913
42	0x3ae70bc2	0.0017627405
43	0xbdd65c54	-0.10466829
44	0xbdc4bde8	-0.09606534
45	0xbccc8c36	-0.024969202
46	0x3d5e7722	0.054312833
47	0x3d83f1d3	0.06442609
48	0xbc7b2274	-0.0153280385
49	0xbba895de	-0.0051448187
50	0x3d838d6d	0.06423459
51	0x3dbe3eb2	0.09289302
52	0x3d2fd726	0.04292979
53	0x3cc36304	0.023850925
54	0x3d0de6e6	0.03464403
55	0xbd54bddd	-0.05193888
56	0x3b981723	0.00464143
57	0xbdaef47f	-0.08542728
58	0xbd870f66	-0.06594734
59	0xbd85219b	-0.0650055
60	0x3c97ebc0	0.018545032
61	0x3ca75ebd	0.020430917
62	0xbd97dc57	-0.07415073
63	0x3d152e8c	0.036421344
64	0x3d4a3c3e	0.049373858
65	0xbb68b492	-0.003550802
66	0x3ccde800	0.02513504
67	0x3cc83769	0.024440484
68	0x3d739171	0.059464876
69	0x3dcaa3e2	0.098945394
70	0xbd58e56a	-0.05295316
71	0xbbb98782	-0.0056619057
72	0x3d06ff6a	0.032958426
73	0x3dae91b3	0.08523884
74	0x3d8f7f08	0.07006651
75	0x3db6f703	0.089338325
76	0x3bf83f36	0.0075758947
77	0xbdc02cbb	-0.09383532
78	0xbbbc69a8	-0.0057499
79	0xbd9842c2	-0.07434608
80	0xbdb6c320	-0.08923936
81	0x3db7c2e1	0.08972717
82	0x3da8200b	0.08209237
83	0xbdbd4637	-0.09241908
84	0x3cc71399	0.024301337
85	0xbcc3548e	-0.02384403
86	0xbcdd2877	-0.026996834
87	0xbd39decd	-0.045378495
88	0x3cc63332	0.024194334
89	0xbd470cff	-0.04859638
90	0x3d4b49a3	0.049630772
91	0x3d4531cc	0.048143193
92	0x3d87950e	0.06620227
93	0x3ce28864	0.027652927
94	0xbdad107d	-0.084504105
95	0xbd828e33	-0.063747786
96	0x3d1c6df9	0.038190816
97	0x3c007bb7	0.007841996
98	0xbdaef721	-0.0854323
99	0xbd927819	-0.07151813
100	0x3d80c4ea	0.062875584
101	0x3d3647c4	0.044502035
102	0xbd5acdb0	-0.053418815
103	0xbd25405a	-0.040344574
104	0xbdc663b0	-0.09686983
105	0xbc86cfa0	-0.016456425
106	0xbda43b27	-0.08019095
107	0xbda9e069	-0.08294756
108	0xbcb33a79	-0.021878468
109	0xba6f26e8	-0.0009122924
110	0xbd3c6530	-0.045994937
111	0x3d10cce7	0.03535166
112	0xbd5c0d46	-0.053723596
113	0x3d5c43b7	0.053775515
114	0x3d675a14	0.05648239
115	0xbd9b8ddc	-0.07595417
116	0xbcfdd067	-0.030983163
117	0x3cbd6865	0.023121068
118	0x3c581c86	0.013190394
119	0x3ca0dd3f	0.019636748
120	0x3d2d1871	0.042259637
121	0x3c07be7a	0.008285159
122	0xbd1d8618	-0.03845796
123	0x3d0b3251	0.033983532
124	0xbda173fc	-0.078834504
125	0xbd3d31c5	-0.046190042
126	0xbc007dd2	-0.007842498
127	0xbd5386f1	-0.051642362
128	0xbd1cea97	-0.03830966
129	0xbda91feb	-0.08258041
130	0xbd2c332e	-0.042040996
131	0xbc022bc3	-0.007945004
132	0xbd842671	-0.064526446
133	0xbcf4a04f	-0.029861597
134	0x3cfbee7f	0.030753372
135	0xbc0f39d8	-0.008741818
136	0x3bc40a40	0.005982667
137	0xbca45e7a	-0.020064581
138	0x3c760c79	0.015017622
139	0x3d305998	0.043054193
140	0x3d979eb8	0.0740332
141	0x3d522185	0.051301498
142	0x3d921790	0.071334004
143	0xbc1a354c	-0.009412121
144	0xbda758a7	-0.08171206
145	0xbd3368a7	-0.043800976
146	0x3d8538a5	0.06504945
147	0x3bb01c77	0.005374487
148	0xbce3f4d0	-0.027826697
149	0xbd81348b	-0.0630885
150	0xbd93fb01	-0.072256096
151	0xbd81ba7e	-0.06334399
152	0xbc150d96	-0.009097477
153	0x3d161e70	0.03665012
154	0x3d33cfb7	0.043899264
155	0xbdc8ef64	-0.09811285
156	0x3d40355e	0.046925895
157	0xbdb5df35	-0.08880464
158	0xbd32b043	-0.043625128
159	0xbd6d3bd2	-0.057918377
160	0xbd5169ee	-0.051126413
161	0xbd2cca8e	-0.04218536
162	0xbdaace6d	-0.08340154
163	0xbda0a12c	-0.07843241
164	0xbd239428	-0.039936215
165	0xba2842cc	-0.0006418645
166	0xbd11d730	-0.03560561
167	0x3cdd69e4	0.027028032
168	0xbd9d8c50	-0.07692778
169	0xbbfb0b6a	-0.007661273
170	0x3da3b80a	0.07994087
171	0xbd275b61	-0.04085863
172	0x3d84fb17	0.06493204
173	0x3cad7dad	0.021178091
174	0xbdb395ef	-0.08768832
175	0x3d4a90c0	0.04945445
176	0xbcbe863e	-0.023257371
177	0xbd70e7cf	-0.05881482
178	0x3d700a5f	0.05860364
179	0xbd8a08e2	-0.067399755
180	0xbb392380	-0.002824992
181	0xbd16ab36	-0.036784373
182	0x3d357d59	0.044308994
183	0x3ce27d58	0.02764766
184	0x3d2804f7	0.04102036
185	0x3c940955	0.018070856
186	0xbb033a4b	-0.002002376
187	0xbbf7be11	-0.0075604995
188	0xbd6379fa	-0.055536248
189	0x3d357784	0.044303432
190	0x3da071a4	0.07834175
191	0x3d72a5b9	0.059240077
192	0xbd28358c	-0.04106669
193	0x3b475e5c	0.0030421233
194	0xbd7deef5	-0.061995465
195	0xbd30252a	-0.043004192
196	0xbd4cdbee	-0.05001443
197	0x3cf3e75c	0.029773407
198	0xbd7c835d	-0.061648715
199	0xbc90a97e	-0.017658945
200	0xbcec856b	-0.028872212
201	0x3d624f84	0.055251613
202	0xbd9b97e5	-0.07597331
203	0xbdaa091f	-0.08302521
204	0xbd242803	-0.04007722
205	0x3d699022	0.05702222
206	0xbcd42677	-0.025897248
207	0x3db6a166	0.08917503
208	0x3d7e7fc4	0.062133566
209	0x3d473f3a	0.048644282
210	0x3acb1ef1	0.0015496892
211	0xbbed6118	-0.0072442405
212	0x3d0c9e67	0.03433075
213	0xbc657d68	-0.01400695
214	0x3c6992bc	0.014256176
215	0x3c301269	0.010746577
216	0xbd999f3f	-0.07501077
217	0xbd940516	-0.072275326
218	0x3cf49e69	0.029860692
219	0xbdae5930	-0.08513105
220	0xbca2749c	-0.019830994
221	0x3d8d2ce8	0.06893331
222	0x3d2fa79a	0.042884447
223	0x3c1e8342	0.009674849
224	0xbda24bc8	-0.079246104
225	0x3d052a45	0.032511014
226	0xbdb79a03	-0.08964922
227	0xbd2865a1	-0.041112546
228	0xbd1d203d	-0.038360823
229	0xbcc9593c	-0.024578683
230	0x3b8d88ff	0.0043193097
231	0x3da53f62	0.0806873
232	0x3cb73c8e	0.022367742
233	0x3da1a41a	0.07892628
234	0x3d291eea	0.041289248
235	0xbd7c7ec2	-0.061644323
236	0x3d53b9d6	0.0516909
237	0xbd89c103	-0.06726267
238	0xbd1aa37a	-0.03775356
239	0x3ce26c66	0.027639579
240	0x3cdd108a	0.026985426
241	0x3d47dcd7	0.048794594
242	0xbce26f3a	-0.027640928
243	0x3cefa422	0.02925307
244	0x3d6d88cb	0.057991784
245	0xbd95ae6e	-0.073086604
246	0x3d9c90f2	0.076448336
247	0xbd452836	-0.04813405
248	0x3c8ff1ef	0.017571418
249	0xbce4f684	-0.027949579
250	0xbd35cfae	-0.044387512
251	0x3c37513f	0.011188804
252	0x3d9e1ff1	0.07720936
253	0xbc365d85	-0.011130695
254	0xbd257746	-0.04039695
255	0xbcfe7fdd	-0.03106683

down2.body.0.weight f4 [8, 16, 3, 3]
0	0xbd5b12a1	-0.053484563
1	0x3a9f450a	0.0012151313
2	0x3d620b22	0.0551864
3	0xbd733127	-0.059373047
4	0xbd142445	-0.0361674
5	0x3d6d1b04	0.057887092
6	0xbc889179	-0.01667093
7	0x3ca760ad	0.02043184
8	0xbda9222d	-0.08258472
9	0xbcb61a51	-0.022229346
10	0xbd1ac37a	-0.037784077
11	0x3d9a354d	0.075296976
12	0x3cb09076	0.02155326
13	0xbd388a51	-0.045053784
14	0x3cdcd088	0.026954904
15	0x3c184500	0.009293795
16	0xbcec43e1	-0.028840961
17	0xbd253fbc	-0.040343985
18	0xbc9a8396	-0.018861573
19	0x3d44cfec	0.048049852
20	0xbd8577f1	-0.06517018
21	0xbd87f1b7	-0.066379
22	0xbd0dfece	-0.03466683
23	0xbc2c1729	-0.010503569
24	0x3c87639b	0.016526988
25	0x3c057111	0.008144633
26	0xbc809e19	-0.015700387
27	0xbd3caba8	-0.04606214
28	0xbc753035	-0.014965107
29	0xbd225a0f	-0.039636668
30	0x3d6bcc70	0.057568014
31	0xbd85edc3	-0.0653949
32	0xbd46aeda	-0.048506595
33	0xbda1812c	-0.07885966
34	0xbc44f7ed	-0.012022001
35	0x3d47f22c	0.048814937
36	0x3d9f10ac	0.07766852
37	0xbd8990ba	-0.067170575
38	0xba47e549	-0.0007625414
39	0x3d1d0ca5	0.038342137
40	0x3d011c37	0.03152105
41	0x3d80a89c	0.0628216
42	0x3bc8f2ec	0.006132474
43	0xbd207bb5	-0.039180476
44	0x3d5ad54e	0.05342608
45	0xbd178214	-0.036989287
46	0x3d0732c7	0.03300741
47	0xbc825861	-0.015911283
48	0x3cf935a1	0.03042108
49	0x3da3071a	0.07960339
50	0x3dabe344	0.08392957
51	0xbd926e1f	-0.0714991
52	0xbd4ad7ba	-0.04952214
53	0xbd0098de	-0.031395786
54	0xbd5d1a63	-0.053980242
55	0x3d8c54ad	0.06852088
56	0xbca3afe9	-0.019981341
57	0xbd409668	-0.04701844
58	0xbcf551fb	-0.029946318
59	0xbd2ef45a	-0.0427135
60	0x3cc6a77a	0.02424978
61	0xbda426d2	-0.08015217
62	0xbdab0970	-0.083514094
63	0xbd99da8d	-0.075123884
64	0x3cc29e12	0.023757014
65	0x3cf11d8b	0.029433032
66	0xbd84f995	-0.064929165
67	0x3c0e463b	0.008683736
68	0x3d728816	0.059211813
69	0x3c23b379	0.00999152
70	0xbca58b02	-0.020207886
71	0x3cba8565	0.022768686
72	0x3c08ae63	0.008342358
73	0x3d537ae8	0.051630884
74	0xbd686888	-0.056740314
75	0x3d3898e9	0.0450677
76	0x3d0a12d9	0.03370938
77	0xbd6cad4a	-0.05778245
78	0x3d8eb8cf	0.06968843
79	0x3d9384bd	0.07203052
80	0xbd28be04	-0.041196838
81	0xbc8fdb8a	-0.01756074
82	0x3d1faa1d	0.038980592
83	0xbd3d0e2e	-0.0461561
84	0x3d05c4cd	0.032658387
85	0x3c896c4d	0.016775275
86	0x3d886314	0.06659523
87	0xbd872c6c	-0.0660027
88	0xbd8bd7bf	-0.0682826
89	0x3d15b90a	0.03655342
90	0x3d1ad863	0.03780402
91	0xbd8a29a0	-0.067462206
92	0xbd2ffe4b	-0.042967122
93	0xbd7c125c	-0.061540946
94	0xbd618199	-0.055055235
95	0xbd2e19fe	-0.042505257
96	0x3d8b66db	0.068067275
97	0xbcb0b1b4	-0.02156911
98	0x3d32246f	0.043491777
99	0x3d9f0d1a	0.07766171
100	0x3d38035e	0.044925086
101	0xbd90b03a	-0.070648625
102	0x3d801c4f	0.062553994
103	0x3ceb6a8c	0.028737329
104	0x3d49f566	0.049306296
105	0xbdac60ba	-0.08416887
106	0x3d140846	0.036140703
107	0x3d71e062	0.05905188
108	0xbda4672b	-0.0802749
109	0x3ca4daa1	0.020123782
110	0x3d85c024	0.065307885
111	0xbd332d63	-0.043744456
112	0x3d20c6dc	0.039252147
113	0x3d0df68a	0.034658946
114	0x3c9bb456	0.01900689
115	0x3d8dcc0b	0.06923684
116	0x3d565aa8	0.05233255
117	0x3d8b6c97	0.06807821
118	0xba3a9565	-0.00071175984
119	0x3d9a7ab1	0.07542933
120	0xbd9468ba	-0.072465375
121	0xbd35805c	-0.044311866
122	0xbb9543b2	-0.004555189
123	0xbc166f72	-0.009181844
124	0x3d9ad940	0.075609684
125	0x3d476f81	0.048690323
126	0x3d44d65b	0.048055988
127	0x3d487a25	0.04894461
128	0xbd6d4427	-0.057926323
129	0xbc848d30	-0.016180605
130	0x3c8b8598	0.017031476
131	0x3ca4f061	0.020134153
132	0x3d24c013	0.04022224
133	0xbcf1e3f4	-0.029527642
134	0xbcbf444d	-0.023347998
135	0x3d8068aa	0.06269963
136	0xbce43fdc	-0.027862482
137	0xbd92f51c	-0.07175657
138	0x3d17402a	0.036926426
139	0x3d3bfcb2	0.045895286
140	0xbc99e9ac	-0.018788181
141	0xbd499bf6	-0.049221
142	0xbd622cb9	-0.055218432
143	0xbd814b08	-0.06313139
144	0x3d2c36b8	0.04204437
145	0xbcb4a0f5	-0.022049407
146	0x3d8c5374	0.06851855
147	0xbd836707	-0.06416135
148	0xba72d7d2	-0.0009263727
149	0x3c063a33	0.008192587
150	0x3cffc415	0.031221429
151	0x3d83499d	0.06410525
152	0x3d393eb4	0.045225814
153	0x3d0dfef8	0.034666985
154	0xbd1aed32	-0.037823863
155	0xbd806082	-0.062684074
156	0xbd8ee64b	-0.06977519
157	0xbc179af6	-0.009253254
158	0x3d88d191	0.066805966
159	0xbb700e3a	-0.0036629573
160	0xb9b9fc38	-0.00035473867
161	0xbd63f4a5	-0.055653233
162	0x3bbf6608	0.0058410205
163	0x3d4b3c48	0.049618036
164	0xbda16bf7	-0.07881921
165	0xbd84d377	-0.06485646
166	0x3d465abd	0.04842638
167	0x3c58ad3d	0.013224897
168	0xbc7a6ad6	-0.015284261
169	0x3bb1d205	0.0054266476
170	0xbca35ff3	-0.019943213
171	0xbd64ec66	-0.05588951
172	0xbd923408	-0.071388304
173	0x3d608f43	0.054824125
174	0xbc4ea147	-0.012611694
175	0xbcf2030d	-0.02954247
176	0xbcac37b7	-0.02102266
177	0xbd5fc412	-0.054630347
178	0xbcfce604	-0.030871399
179	0xbd900637	-0.070324354
180	0x3d7a5617	0.061117258
181	0x3d18d831	0.03731555
182	0xbd255ba0	-0.040370584
183	0xbce8a4d5	-0.02839891
184	0x3d153d8c	0.03643565
185	0xbd2fef9f	-0.04295313
186	0x3cc459b5	0.023968557
187	0x3cbba9ae	0.022908058
188	0xbd47e294	-0.048800066
189	0x3ce1d376	0.027566653
190	0x3cacdf87	0.02110268
191	0x3d92eb71	0.07173813
192	0xbca25621	-0.01981646
193	0xbc0bd962	-0.008535715
194	0x3d98785e	0.07444833
195	0xbd868f97	-0.06570356
196	0x3cbd7829	0.023128586
197	0x3da7c798	0.08192366
198	0xbd2c747d	-0.04210328
199	0x3d8616ff	0.06547355
200	0x3d80fba8	0.062979996
201	0x3d835b99	0.06413955
202	0xbc107e96	-0.008819243
203	0x3d8140b7	0.063111715
204	0xbd08175c	-0.033225402
205	0xbcbca273	-0.02302668
206	0x3d100fd0	0.03517133
207	0x3ca1ed6a	0.019766528
208	0x3d653930	0.05596274
209	0x3da92a48	0.08260018
210	0xbd61c2f8	-0.055117577
211	0x3d4dfb72	0.050288625
212	0x3cf3a5ca	0.02974214
213	0x3ce12785	0.027484665
214	0x3d21cd7a	0.0395026
215	0xbcfd5400	-0.030923843
216	0xbd76906e	-0.060196333
217	0x3d7e2aea	0.062052645
218	0xbd05fb7a	-0.03271053
219	0x3d3c173b	0.04592059
220	0xbd8b9b86	-0.06816773
221	0xbc5a8f5a	-0.013339842
222	0x3c0bfc2c	0.008544009
223	0x3c6222e6	0.013802266
224	0xbb1593ad	-0.0022823617
225	0x3cda41bf	0.026642678
226	0xbb6ed425	-0.0036442366
227	0x3ca36f06	0.019950401
228	0x3d972897	0.07380789
229	0xbd7f015c	-0.062257156
230	0xbbbe3b4f	-0.00580541
231	0xbce82968	-0.028340057
232	0x3d30c9d0	0.043161213
233	0x3d78381d	0.06060039
234	0xb980ae8f	-0.0002454412
235	0xbd20f5c5	-0.039296884
236	0xbd55bc98	-0.05218181
237	0x3d6ce7fd	0.05783843
238	0xbb5d8fa3	-0.0033807538
239	0x3d80dac0	0.06291723
240	0x3d675953	0.05648167
241	0x3d8995f1	0.06718052
242	0x3d4cb41f	0.049976464
243	0xbd71921e	-0.05897724
244	0x3c913eda	0.017730165
245	0xbcfe297c	-0.03102564
246	0x3d2bcac9	0.041941438
247	0x3b847d7e	0.00404328
248	0x3caa008f	0.02075222
249	0xbd3b7f29	-0.045775566
250	0xbd6d9484	-0.058002964
251	0x3cf17ef4	0.029479481
252	0x3d027e58	0.031858772
253	0x3b72d0ac	0.0037050648
254	0x3d1b15ef	0.037862714
255	0xbd47df06	-0.048796676

EDMoE.gate.fc0.weight f4 [10, 8]
0	0xbeab8423	-0.3349925
1	0xbea23255	-0.31679025
2	0x3e51a0f4	0.20471555
3	0xbe55cc19	-0.20878638
4	0x3e844d07	0.25840017
5	0x3de19d58	0.11016339
6	0x3db5c15f	0.08874773
7	0x3e8fcdd4	0.28086722
8	0xbea7ad66	-0.3274948
9	0x3e848f41	0.25890544
10	0x3dead10c	0.11465654
11	0xbe729b08	-0.23691952
12	0x3db02d3d	0.086023785
13	0xbdc9cccd	-0.09853516
14	0xbe11519e	-0.1419129
15	0xbd1cd712	-0.038291045
16	0xbe2ab045	-0.16668804
17	0x3e9e4a3a	0.30916005
18	0x3e9bcdc1	0.30430415
19	0xbd1a7c59	-0.037716243
20	0xbea08613	-0.3135229
21	0xbcb12ede	-0.021628793
22	0x3cbf5c45	0.023359427
23	0x3e71fe88	0.23632252
24	0x3c3a5f52	0.011375265
25	0x3dd2bd65	0.102900304
26	0x3dc01f8a	0.093810156
27	0xbe4d6bda	-0.20060673
28	0xbe609159	-0.21930446
29	0xbea1ca28	-0.31599545
30	0xbb35f3f4	-0.0027763816
31	0x3de044a1	0.1095059
32	0xbccdf0ff	-0.02513933
33	0x3eafb597	0.3431823
34	0xbd8a2077	-0.067444734
35	0xbe6c3d70	-0.23070312
36	0x3d715c5c	0.05892597
37	0xbdcbe880	-0.09956455
38	0xbd4686d0	-0.04846841
39	0x3eaf660f	0.34257552
40	0xbc263462	-0.010144325
41	0x3e9e20c1	0.30884364
42	0x3d416502	0.04721547
43	0xbe06afb0	-0.13152957
44	0x3e84b74c	0.25921094
45	0xbe4e3a48	-0.2013942
46	0x3c3fa8e7	0.011697984
47	0x3da2c0f6	0.07946961
48	0x3e227ece	0.15868685
49	0xbea704eb	-0.3262094
50	0x3c8e149a	0.017343808
51	0xbdbb7a57	-0.09154194
52	0x3e6abbd3	0.22923212
53	0x3df39c85	0.11895088
54	0x3e111aa1	0.14170314
55	0x3e59ade7	0.21257745
56	0xbda21b6f	-0.07915389
57	0xbcb990ac	-0.022651993
58	0x3e913932	0.2836395
59	0xbe91e64d	-0.28496018
60	0xbe7a3f8e	-0.24438307
61	0x3cd3e130	0.025864214
62	0xbe0f69db	-0.14005224
63	0x3ca5dfe2	0.020248357
64	0x3e9fe7be	0.31231493
65	0xbd27e018	-0.040985197
66	0xbe9a57e5	-0.30145183
67	0xbe24931d	-0.16071744
68	0x3ea63dfd	0.32469168
69	0xbd9f1275	-0.07767192
70	0xbe1ebef6	-0.15502533
71	0x3e22f695	0.15914376
72	0x3d3346ad	0.043768574
73	0xbe9f99de	-0.3117208
74	0x3e96c020	0.29443455
75	0x3e4bdf79	0.19909467
76	0x3e9d56dd	0.30730334
77	0x3e1e6d89	0.15471472
78	0xbdf42021	-0.119201906
79	0xbdec5f80	-0.11541653

EDMoE.gate.fc0.bias f4 [10]
0	0x3e2f73b3	0.1713398
1	0xbd8c5d7d	-0.06853769
2	0x3d8df539	0.06931538
3	0xbeaf67d5	-0.34258905
4	0xbe32f6bb	-0.17476933
5	0x3e067a77	0.13132654
6	0xbc8ec8ea	-0.017429788
7	0xbe2e0ce3	-0.16997103
8	0xbe9de5b4	-0.30839312
9	0x3e6618e6	0.22470436

EDMoE.gate.fc1.weight f4 [10, 8]
0	0xbc401607	-0.011724002
1	0x3b162086	0.002290757
2	0xbcca29ea	-0.02467819
3	0xbb208d2e	-0.0024498212
4	0xbaf6ed6a	-0.0018839065
5	0xbaeed17b	-0.0018220389
6	0xbcb5e0ae	-0.022201862
7	0x3ca07935	0.019589046
8	0xbc1432dd	-0.00904533
9	0xbba73f51	-0.0051039835
10	0xbbe632fe	-0.0070251217
11	0x3c07f015	0.008296986
12	0xbc2ae4a7	-0.0104304915
13	0x39e0e645	0.00042896174
14	0x3abc079a	0.0014345527
15	0x3c7bff94	0.015380759
16	0xb91e0e38	-0.00015073351
17	0xbbab8a7a	-0.0052350136
18	0xbbe3cda2	-0.0069520036
19	0xbca8703e	-0.020561334
20	0xbcecdd4b	-0.028914114
21	0xbc9b2046	-0.018936288
22	0xbce5563f	-0.027995227
23	0x3c023cd3	0.007949072
24	0xbc0fe88a	-0.008783469
25	0xbc921735	-0.017833332
26	0x3c4cc687	0.0124985045
27	0x3d07fbd2	0.03319914
28	0x3ac06e3f	0.0014681293
29	0x3ab64c30	0.0013908204
30	0x3d1f856e	0.038945608
31	0xbc5cb39e	-0.013470558
32	0x3b973aa7	0.004615146
33	0x3ac5a034	0.0015077651
34	0xbae142e0	-0.0017186068
35	0xbc856bb8	-0.016286716
36	0x3b405d1a	0.0029352368
37	0xbb03c93a	-0.0020108954
38	0xbc81e484	-0.015856035
39	0x3c8559b3	0.016278123
40	0xbc2cd8c4	-0.010549728
41	0xbc167034	-0.009182025
42	0xbc7a2343	-0.015267196
43	0x3bc831b3	0.0061094402
44	0xbc9fc342	-0.019502286
45	0xbc99654b	-0.018725058
46	0xbc92a7f8	-0.01790236
47	0x3c55908e	0.013034953
48	0x3c7e79b4	0.015531946
49	0x3c497f26	0.012298381
50	0x3c1626f2	0.009164559
51	0xbbcc11b8	-0.006227698
52	0x3cd49bf5	0.025953272
53	0x3cadf9f5	0.021237353
54	0x3c99cf30	0.018775553
55	0xbd0018eb	-0.031273764
56	0x3cb5fa35	0.022214035
57	0x3cd67203	0.026177412
58	0x3c8e89a0	0.01739961
59	0xbbb5d068	-0.0055485256
60	0x3cda6d45	0.026663432
61	0x3cdb9947	0.026806487
62	0x3d4ac1d7	0.049501266
63	0x3b733e5e	0.003711603
64	0x3c4fbc6a	0.012679199
65	0x3a983afc	0.0011614258
66	0x3ca0bf54	0.019622482
67	0x3c847251	0.016167792
68	0x3d0b3c90	0.033993304
69	0x3c9537a5	0.01821501
70	0x3d251e4a	0.04031209
71	0xbc5001c2	-0.012695732
72	0x3b1fc4b2	0.0024378714
73	0xbb5cefdb	-0.00337123
74	0x3cfe969f	0.031077681
75	0xbb76c936	-0.0037656552
76	0x3c4aa695	0.012368818
77	0x3bb51d53	0.0055271774
78	0x3c8533a2	0.016259972
79	0xbd162cd3	-0.03666384

EDMoE.gate.fc1.bias f4 [10]
0	0x3e6a67c3	0.22891144
1	0xbe39d445	-0.1814738
2	0x3ea6fe3e	0.32615846
3	0xbe3d366d	-0.18477793
4	0xbea28569	-0.3174241
5	0x3e134fdc	0.14385933
6	0xbe4981f1	-0.19678475
7	0xbd25011d	-0.040284265
8	0xbddb7c09	-0.10717017
9	0xbc9aed2f	-0.018911926

EDMoE.expertnet.0.conv1_1.conv.weight f4 [8, 8, 3, 3]
0	0xbdd3698c	-0.10322866
1	0xbde4092c	-0.11134562
2	0x3d33706a	0.04380838
3	0xbc9df0d3	-0.019279873
4	0xbd90936d	-0.07059369
5	0xba2aae51	-0.00065109605
6	0xbdc84451	-0.09778655
7	0x3d050023	0.032470834
8	0x3d44234d	0.047885228
9	0x3dc9a0e5	0.09845141
10	0xbdc2ea64	-0.09517363
11	0xbc919824	-0.017772742
12	0x3d73c416	0.059513174
13	0x3ddba61f	0.107250445
14	0xbdaffc94	-0.08593097
15	0x3d57df30	0.052703083
16	0x3d2bbfa0	0.041930795
17	0x3d82d3ad	0.0638803
18	0xbd9089d2	-0.07057537
19	0x3dd07f41	0.10180522
20	0xbd389278	-0.04506156
21	0xbd8782cf	-0.06616747
22	0x3cbe5ac6	0.023236644
23	0x3dc631ed	0.09677491
24	0xbd8e6023	-0.069519304
25	0x3da8f4cf	0.082498185
26	0x3b00507b	0.001957922
27	0x3d460bc2	0.048351057
28	0x3dd72933	0.10505905
29	0x3d268635	0.040655334
30	0xbda0c2fc	-0.0784969
31	0xbd1050c8	-0.03523329
32	0x3d0d3e3a	0.034483172
33	0xbdb3fdc7	-0.087886386
34	0x3cff2b79	0.031148659
35	0xbd5e0636	-0.054205142
36	0xbcf78db1	-0.03021893
37	0x3d1c861e	0.03821384
38	0xbdc1e7b4	-0.09468022
39	0xbd8bcf74	-0.06826678
40	0x3d5aa0f3	0.05337615
41	0xbe062276	-0.13099083
42	0x3da5308f	0.080659024
43	0xbdb5a326	-0.08869009
44	0x39b315d6	0.0003415781
45	0x3c97135f	0.018441854
46	0x3d35fd6e	0.044431143
47	0xbd9fcd6e	-0.078028545
48	0x3c64741a	0.013943696
49	0x3d4e6653	0.050390553
50	0x3dc6e1a0	0.09711003
51	0xbdb581cc	-0.088626474
52	0xbd6a18a0	-0.05715239
53	0x3d13812e	0.036011867
54	0x3c23e8e8	0.01000426
55	0xbd898ab8	-0.067159116
56	0xbdad511b	-0.08462735
57	0xbdc453e8	-0.09586316
58	0xbda7b5a6	-0.081889436
59	0xbd16a8c0	-0.036782026
60	0xbd8c79d7	-0.068591766
61	0xbdb6c2f0	-0.089239
62	0x3cec3b6a	0.028836925
63	0x3d97862d	0.07398639
64	0xbd57a5a7	-0.052648213
65	0x3c4fd1f7	0.012684337
66	0x3c7e4194	0.015518565
67	0x3d600efa	0.054701783
68	0xbdae573f	-0.085127346
69	0x3c1b8da5	0.00949422
70	0x3ddcbbef	0.10778033
71	0x3da79760	0.08183169
72	0xbde9fd17	-0.11425226
73	0xbc919df4	-0.017775513
74	0x3b86043a	0.0040898593
75	0xbd22bd19	-0.03973112
76	0xbd9d76fb	-0.07688709
77	0xbda88c9c	-0.08229944
78	0x3da42218	0.08014315
79	0xbd2c1733	-0.042014312
80	0xbc0a5ff8	-0.008445732
81	0x3ca404c1	0.020021798
82	0xbdb2c953	-0.08729806
83	0xbc847479	-0.01616882
84	0x3d78d9d9	0.06075463
85	0xbd8c218d	-0.06842337
86	0x3cb01446	0.021494042
87	0xbc91eeac	-0.017814003
88	0x3d5b1474	0.053486302
89	0x3d77e9a7	0.060525563
90	0x3c93a348	0.018022195
91	0xbb1c3981	-0.0023837986
92	0xbde7ad01	-0.11312295
93	0x3d09bcfa	0.033627488
94	0x3d921e6e	0.0713471
95	0xbd475a91	-0.048670355
96	0xbe06da9e	-0.13169333
97	0x3daa651c	0.08320066
98	0xbcf88d97	-0.030340953
99	0x3b354373	0.002765861
100	0xbd3e2745	-0.04642417
101	0x3d97b228	0.074070275
102	0x3dce988c	0.1008769
103	0x3d963cc1	0.07335807
104	0xbcfa63c5	-0.030565152
105	0x3d7de31a	0.06198416
106	0x3d310f76	0.043227635
107	0xbb0256ae	-0.001988809
108	0xbdbaf532	-0.091287985
109	0xbd426926	-0.04746356
110	0xbdf7cd4e	-0.12099706
111	0x3d9f429e	0.07776378
112	0x3deceb06	0.11568265
113	0x3d8ab013	0.06771865
114	0x3d1d1c94	0.038357332
115	0x3cdc4acf	0.02689114
116	0x3e055127	0.13019238
117	0xbd7f5be9	-0.06234351
118	0xbd50d517	-0.05098447
119	0xbddfd199	-0.109286495
120	0xbc8556b4	-0.016276695
121	0x3c0384ba	0.00802725
122	0x3d1a3824	0.037651196
123	0xbdb0337a	-0.086035684
124	0xbcb68711	-0.022281202
125	0xbdcd4110	-0.10022175
126	0xbdc41511	-0.095743306
127	0x3c8edabb	0.017438283
128	0xbde154e8	-0.11002523
129	0x3cf254e6	0.029581498
130	0xbddcca15	-0.107807316
131	0xbd7d4404	-0.061832443
132	0xbccff87b	-0.02538704
133	0xbdd9d839	-0.10636944
134	0x3db1ee64	0.086880475
135	0x3de26952	0.110552445
136	0xbd527e48	-0.051389962
137	0x3d35eaa8	0.04441324
138	0x3d96968c	0.07352933
139	0x3d1853df	0.03718936
140	0xbae2015e	-0.0017242839
141	0xbdbe5144	-0.09292844
142	0x3dc17c05	0.09447483
143	0xbdbed3b1	-0.09317721
144	0xbca110c4	-0.019661315
145	0x3b98f612	0.0046680057
146	0xbd105c69	-0.03524438
147	0xbd196ea7	-0.037459042
148	0xbdcf240c	-0.10114297
149	0x3c6ea01b	0.014564539
150	0xbbc0c2e7	-0.005882609
151	0x3ddc2486	0.10749154
152	0xbd09325f	-0.033495303
153	0x3ddd12ed	0.107946254
154	0x3cb82357	0.022477789
155	0xbd0a439a	-0.033755876
156	0xbce862ad	-0.028367365
157	0xbc5995f2	-0.013280379
158	0x3c293497	0.01032748
159	0x3b992fcd	0.0046748878
160	0x3d327ceb	0.043576162
161	0x3dd9ef1b	0.10641309
162	0x3c45c476	0.012070766
163	0x3d20d196	0.039262377
164	0x3d99a731	0.07502592
165	0x3cbfef61	0.023429574
166	0x3d5cf7fd	0.053947438
167	0x3d6a7f1a	0.05725012
168	0x3dd338fb	0.103136025
169	0xbdee3ffc	-0.11633298
170	0x3d3d15ae	0.046163253
171	0xbb448151	-0.0029984305
172	0xbcd32dfa	-0.02577876
173	0xbd4d1ebd	-0.050078142
174	0x3d887fdf	0.066650145
175	0x3ddb403a	0.107056096
176	0xbdb99b4b	-0.09062823
177	0x3d96636e	0.073431835
178	0x3db38022	0.08764674
179	0x3ca4fd5c	0.020140342
180	0x3bea20f8	0.0071450435
181	0x3dcbaf4b	0.09945544
182	0x3c81b2fc	0.015832417
183	0xbd049a8d	-0.032373954
184	0xbc0d96ee	-0.0086419415
185	0x3d262976	0.040566884
186	0x3d1a6d82	0.03770209
187	0x3a705217	0.0009167506
188	0x3d50482c	0.05085008
189	0x3d0a8146	0.03381469
190	0xbdbf3fa1	-0.09338308
191	0x3d11402f	0.0354616
192	0x3d6ee0dc	0.05831991
193	0x3c5be38a	0.013420949
194	0xbbfa51fc	-0.007639168
195	0x3dcc49cc	0.09975013
196	0xbdbf0801	-0.093276985
197	0xbd3aa318	-0.045565695
198	0xbd476bb4	-0.048686698
199	0x3dd678f2	0.10472287
200	0xbdd8052f	-0.10547864
201	0x3c3da697	0.011575363
202	0xbde82b54	-0.11336389
203	0x3aa42f5b	0.001252632
204	0x3d6c9f62	0.057769187
205	0xbc5a033f	-0.013306438
206	0x3dfe63db	0.1242139
207	0xbc4f72d5	-0.012661655
208	0xbd87c333	-0.06629028
209	0x3c9d903c	0.019233815
210	0x3d5bfad1	0.053705994
211	0xb973cd24	-0.00023250707
212	0x3dcaf0e1	0.09909225
213	0xbd985867	-0.074387364
214	0x3d5e54d0	0.054280102
215	0x3d806229	0.062687226
216	0x3d6aeb22	0.057353146
217	0xb832eedb	-4.266096e-05
218	0x3d0654aa	0.032795586
219	0xbdb622fc	-0.088933915
220	0xbdbc1627	-0.09183913
221	0xbc3fe46d	-0.011712176
222	0xbca60927	-0.020268036
223	0x3dadb639	0.08482022
224	0x3da61ca5	0.08110932
225	0x3daf2131	0.08551253
226	0xbd4bcebe	-0.04975771
227	0xbda335e6	-0.07969265
228	0xbdcba60e	-0.09943782
229	0x3d2d7af2	0.042353578
230	0xbdaefaa7	-0.08543902
231	0xbdd5ed70	-0.10445678
232	0xbd14aae9	-0.036295805
233	0xbdb7247b	-0.08942505
234	0xbd8df687	-0.06931787
235	0xbdafff78	-0.08593649
236	0xbd8f7e80	-0.0700655
237	0x3dc5246b	0.09626087
238	0xbcb4a9f2	-0.022053692
239	0x3daa60ec	0.08319268
240	0xbb70076d	-0.003662552
241	0xbd0b2d6a	-0.033978857
242	0xbd59a32a	-0.05313412
243	0xbdbff6ca	-0.09373243
244	0xbdca7915	-0.09886376
245	0x3da24d2a	0.07924874
246	0xbd1f81a5	-0.038941998
247	0xbde9ac1a	-0.11409779
248	0x3de01a33	0.10942497
249	0xbc2fa934	-0.0107214935
250	0xbdaa6c59	-0.08321447
251	0xbdcf4076	-0.10119717
252	0xbdd08268	-0.10181123
253	0xbdd8b406	-0.10581212
254	0x3dd163d7	0.10224121
255	0x3dafe66e	0.08588873

EDMoE.expertnet.0.conv1_1.conv.bias f4 [8]
0	0x3dc1d702	0.094648376
1	0xbd672349	-0.056430135
2	0x3c0fb843	0.008771959
3	0xbd391e2f	-0.0451948
4	0xbdb86760	-0.09004092
5	0x3d7e0c5c	0.062023506
6	0x3dbeb489	0.09311778
7	0xbd8136f5	-0.0630931

EDMoE.expertnet.0.conv1_2.conv.weight f4 [8, 8, 3]
0	0x3da637a3	0.081160806
1	0x3d5185f6	0.051153146
2	0x3ddad7a6	0.10685663
3	0x3dbf52b4	0.09341946
4	0x3e403eaf	0.18773912
5	0x3e259576	0.16170296
6	0xbe2ee0c3	-0.17077927
7	0xbd947f79	-0.07250876
8	0x3dcc3f46	0.09973006
9	0xbddfb2b9	-0.109227605
10	0x3d2d98de	0.042382114
11	0xbdb00217	-0.085941486
12	0x3ca6929a	0.020333577
13	0x3dfaa272	0.12238015
14	0x3d776dc1	0.060407404
15	0x3e122a85	0.14274032
16	0xbca34f57	-0.019935293
17	0x3dd301e7	0.10303097
18	0x3d868ea4	0.06570175
19	0xbd88d94b	-0.0668207
20	0xbe1d58bf	-0.15365885
21	0x3e4ecbe0	0.2019496
22	0xbd2d3fdc	-0.04229723
23	0x3e22933d	0.1587648
24	0x3e019e55	0.12658055
25	0xbc1aa8a8	-0.009439625
26	0xbe1ff76d	-0.15621729
27	0x3d152376	0.03641077
28	0xbdb24465	-0.087044515
29	0x3d8c5e40	0.06853914
30	0xbda32c46	-0.07967429
31	0x3e18368c	0.14864558
32	0xbe4f1775	-0.20223792
33	0xbd91e147	-0.07123046
34	0x3c827655	0.015925566
35	0x3ca1cd9a	0.019751359
36	0x3e3d1a08	0.18466961
37	0xbd84dbe8	-0.06487256
38	0xbe414be0	-0.188766
39	0x3e0a80ed	0.13525744
40	0x3d40df33	0.04708786
41	0x3e073e7f	0.13207434
42	0xbe04bc20	-0.12962389
43	0xbe126564	-0.1429649
44	0xbd91226a	-0.07086642
45	0xba890257	-0.0010452968
46	0x3d8e74ff	0.06955909
47	0xbdd9a4b7	-0.1062712
48	0xbc99f062	-0.018791381
49	0xbd04770a	-0.032340087
50	0x3e425fef	0.18981908
51	0xbda1f266	-0.07907562
52	0x3e42b913	0.19015913
53	0xbde57ae8	-0.11205083
54	0xbdca3542	-0.09873439
55	0xbe1c6237	-0.15271841
56	0x3e0278b4	0.12741357
57	0xbe09fcc0	-0.13475323
58	0x3d9e3081	0.07724095
59	0xbd88bfc9	-0.06677205
60	0x3e45cbda	0.19316044
61	0x3cb600e9	0.02221723
62	0xbe3f1421	-0.18660022
63	0x3d01af3e	0.031661265
64	0x3c1c409d	0.009536889
65	0xbe443d3c	-0.19163984
66	0x3d2560df	0.040375587
67	0x3e3ab171	0.18231751
68	0x3d821327	0.06351309
69	0xbc1746a4	-0.009233151
70	0xbd43b7c0	-0.04778266
71	0x3d683d59	0.05669913
72	0xbdb9a2ae	-0.09064232
73	0x3e55cc54	0.20878726
74	0x3e2e809f	0.17041253
75	0x3dbfc703	0.0936413
76	0xbdbf7d1d	-0.09350035
77	0xbe4812ae	-0.19538376
78	0xbe05b27e	-0.1305637
79	0x3e45ed18	0.19328725
80	0xbe2c134a	-0.16804233
81	0xbe4dfbad	-0.20115538
82	0xbc88751d	-0.016657406
83	0x3d825e90	0.063656926
84	0xbe4edb7a	-0.20200911
85	0xbe43f67a	-0.19136992
86	0xbc4daf27	-0.012553967
87	0xbd93c654	-0.072155625
88	0x3e0ebce9	0.13939251
89	0x3d776ca0	0.060406327
90	0xbe3b92cf	-0.18317722
91	0xbe3270cf	-0.17425846
92	0x3e09e32a	0.13465562
93	0xbd078b57	-0.03309187
94	0xbdaaccc3	-0.083398364
95	0x3d879cfa	0.06621738
96	0xbd53ba14	-0.05169113
97	0x3dbff240	0.093723774
98	0x3d9707a3	0.073745035
99	0xbdab594c	-0.083666414
100	0xbe2b3cf5	-0.16722472
101	0x3dd209d0	0.10255778
102	0xbdf9bb4a	-0.12193926
103	0xbcafa4d9	-0.02144091
104	0x3d19442c	0.03741853
105	0xbdeea482	-0.11652471
106	0x3de35991	0.11101068
107	0xbe055369	-0.130201
108	0x3d41758f	0.047231253
109	0x3cb68da2	0.022284333
110	0x3da01662	0.07816769
111	0xbe4fbd0e	-0.20286962
112	0x3c19fd8f	0.009398832
113	0x3dcf5ccd	0.10125122
114	0xbde55f1d	-0.11199782
115	0x3d426114	0.047455862
116	0xbbacc738	-0.005272772
117	0x3e2ba9c4	0.16763979
118	0xbd35136b	-0.04420797
119	0x3bf8ae91	0.0075891693
120	0xbdb1fe5a	-0.08691092
121	0xbd644d42	-0.05573774
122	0x3d71e831	0.059059326
123	0xbe4c8770	-0.1997354
124	0x3e0a744c	0.13520926
125	0x3e0c9dd2	0.13732079
126	0x3da0131c	0.07816145
127	0x3e16a4dc	0.14711326
128	0xbd64c290	-0.05584961
129	0x3d4b8ab5	0.04969283
130	0x3c0c8ff7	0.008579246
131	0xbdf21e4c	-0.11822185
132	0xbda93706	-0.08262448
133	0xbdb8927e	-0.09012316
134	0xbcefbbea	-0.02926441
135	0xbe3d4d70	-0.18486571
136	0xbe197055	-0.14984258
137	0x3ab09c2d	0.0013474278
138	0xbd13dbc6	-0.036098264
139	0xbe2c75cc	-0.16841811
140	0x3d2f2ed5	0.042769272
141	0x3dcddd1c	0.10051939
142	0x3e2c0d8a	0.1680204
143	0x3e45382e	0.19259712
144	0xbe1cd5c5	-0.15315922
145	0xbd974e40	-0.07387972
146	0xbdce8eaa	-0.10085805
147	0x3d07b451	0.033130948
148	0x3d5a1530	0.053242862
149	0x3cf7f4fc	0.030268185
150	0x3dead850	0.114670396
151	0x3dd14890	0.10218918
152	0xbdb458e1	-0.08806015
153	0x3e0cd1c8	0.137519
154	0x3e138585	0.14406402
155	0x3d5143f1	0.051090185
156	0xbe3cab6c	-0.18424767
157	0xbdf4bd59	-0.11950178
158	0x3daebd0f	0.08532154
159	0x3d80904e	0.06277524
160	0x3e30a167	0.1724907
161	0x3e04930c	0.12946719
162	0x3d7380d7	0.059449043
163	0xbba62171	-0.0050699045
164	0x3e1907e0	0.1494441
165	0xbd678c9d	-0.056530584
166	0x3dbbccf4	0.09169951
167	0xbdb5e913	-0.08882346
168	0xbb9835f2	-0.0046451027
169	0x3e092d3a	0.13396159
170	0x3dbb0538	0.09131855
171	0xbd146eb8	-0.036238402
172	0x3ba10c0b	0.0049147657
173	0xbdad7544	-0.08469632
174	0x3dcb0873	0.09913721
175	0x3defe1df	0.11713003
176	0x3d3f7a44	0.04674746
177	0xbe4ddb94	-0.20103294
178	0xbe12d5ef	-0.14339422
179	0x3e0eeca4	0.13957459
180	0xbc9a8e59	-0.018866705
181	0x3debb902	0.11509897
182	0x3e1d46b5	0.15359004
183	0xbd783a9d	-0.060602773
184	0xbdcd8e23	-0.10036876
185	0xbe3d89da	-0.18509617
186	0x3d84b152	0.06479134
187	0x3dd268d1	0.102738984
188	0xbd298bb7	-0.041393008
189	0xbe47ccca	-0.19511715
190	0xbdee13b4	-0.11624852
191	0xbb7a9ea5	-0.0038241532

EDMoE.expertnet.0.conv1_2.conv.bias f4 [8]
0	0x3dbd861a	0.092540935
1	0xbd8be5f6	-0.06830971
2	0xbe0656e8	-0.1311909
3	0xbe0fec2d	-0.14054938
4	0x3e39a7b4	0.1813038
5	0x3d9668bb	0.073441945
6	0xbe28eed1	-0.16497351
7	0xbe000acf	-0.12504123
