cls_param/MUUFL/_best_model.pth (torch, 717814 bytes, 316 tensors)

encoder_pos_embed1 f4 [1, 16, 6, 6]
0	0x3f793b8a	0.97356474
1	0xbea70c3e	-0.32626528
2	0x3e4e0195	0.20117791
3	0x3f75fdfe	0.96090686
4	0x3e672069	0.22570957
5	0x3f8ec98c	1.1155257
6	0xbe1889d9	-0.14896335
7	0x3fac3519	1.3453704
8	0xbf8f3c4a	-1.1190274
9	0x3f60162d	0.8753384
10	0xbf09f58d	-0.53890306
11	0x3f5697f2	0.838256
12	0x3f2c3cbd	0.6728018
13	0xbab1ac3e	-0.001355536
14	0x3f8740d8	1.0566664
15	0xbee5e721	-0.449029
16	0xbf992c29	-1.1966602
17	0x3e5ecdba	0.21758166
18	0xbf0a0519	-0.5391403
19	0xbf1bd993	-0.60878867
20	0x3ed04c10	0.4068303
21	0x3d674e4f	0.056471165
22	0xbf28aaed	-0.6588581
23	0x3f3a0bd3	0.7267429
24	0xbeafb1f0	-0.34315443
25	0xbff7a513	-1.9347252
26	0x3f67cbce	0.90545356
27	0x3f475716	0.7786726
28	0xbfa28939	-1.2698127
29	0x3f460c36	0.7736238
30	0x3f5f3119	0.8718429
31	0xbf976472	-1.1827528
32	0xbe4bec22	-0.19914296
33	0x3f9be182	1.2178195
34	0x3ec5f906	0.38666552
35	0x3fa7f520	1.3121681
36	0xbe4bfff3	-0.19921856
37	0x400b2176	2.1739173
38	0x3f83560c	1.0260634
39	0x3f9c01b4	1.218802
40	0x3f512980	0.8170395
41	0xbe0e33d8	-0.13886964
42	0xbff952f5	-1.9478441
43	0x3f0848e4	0.5323622
44	0x3f805ea4	1.0028882
45	0x3f651a39	0.8949314
46	0x3f48ac02	0.78387463
47	0x3f19ece7	0.6012711
48	0xbfc7ae4a	-1.5600064
49	0xbebd32fa	-0.36952955
50	0xbe00e9e8	-0.12589228
51	0xbfe2ab59	-1.7708541
52	0xbbb02e6e	-0.0053766286
53	0x3edac060	0.42724895
54	0xbfd723f6	-1.680785
55	0x3fdd7ed2	1.7304327
56	0xbf84b932	-1.0369017
57	0xbfd8028c	-1.6875777
58	0xbf25c79d	-0.6475771
59	0x3f870e12	1.0551169
60	0x3ebe5836	0.37176675
61	0x3efb71dd	0.49110308
62	0xbf900582	-1.1251681
63	0xbeab303e	-0.33435243
64	0xbca60718	-0.020267054
65	0x3bec5c23	0.007213132
66	0x3ffbbb20	1.9666481
67	0x3f2e13d6	0.6799902
68	0xbe966414	-0.2937323
69	0xbe17c8d0	-0.14822698
70	0xbf2dbafd	-0.67863446
71	0x3e587a77	0.21140467
72	0xbf67e6e2	-0.90586674
73	0xbf105e4d	-0.5639389
74	0x3e393b71	0.18089081
75	0xbe1a93c1	-0.15095426
76	0x3f1c2b1d	0.61003286
77	0xbee8071b	-0.4531792
78	0x3f691abf	0.91056436
79	0x3f997d58	1.1991377
80	0x3e27b180	0.16376305
81	0xbf826fa4	-1.019032
82	0xbe123c8b	-0.14280908
83	0xbf482cbd	-0.78193265
84	0x3ef37ffd	0.47558585
85	0x3ff27791	1.8942739
86	0x3f2cbc4d	0.67474824
87	0xbfc84f8e	-1.5649278
88	0x3eb52396	0.35378712
89	0xbf73dfb0	-0.95263195
90	0x3f9633b8	1.1734533
91	0x3e1963cf	0.1497948
92	0x3ee08e82	0.43858725
93	0xbf7c0bd3	-0.9845554
94	0x3eb2b046	0.3490011
95	0x3e4fc11f	0.20288514
96	0xbf937d3e	-1.1522596
97	0x3ef19ebb	0.47191414
98	0xbf82b5e2	-1.0211756
99	0x3faa70a9	1.3315631
100	0xbc1e8ffb	-0.009677882
101	0xbf22a2a8	-0.63529444
102	0x3f1f0b2b	0.62126416
103	0xbf93b8db	-1.1540788
104	0x3f459fed	0.7719715
105	0x3e60a229	0.21936859
106	0xbec5b7c3	-0.38616762
107	0x3c884306	0.016633522
108	0xbf08d0ed	-0.53443795
109	0x3f825b85	1.018418
110	0x3f8406be	1.0314558
111	0x3dd022f5	0.101629175
112	0xbfdfa3a3	-1.7471813
113	0x3fa741e0	1.3066978
114	0x3ef53c25	0.4789745
115	0x3ebca818	0.36846995
116	0x3ffa3fc2	1.9550707
117	0x3ef2b54f	0.47403952
118	0xbefe2405	-0.49636856
119	0xbedf757a	-0.43644315
120	0x4019b559	2.4016936
121	0x3f2a8db2	0.6662246
122	0xbfc063b4	-1.5030427
123	0xbf6b39a0	-0.91884804
124	0x3efb6927	0.49103662
125	0x3fb284c1	1.3946763
126	0xbe39615e	-0.18103549
127	0x3f283f10	0.65721226
128	0xbe308771	-0.17239167
129	0xc0035004	-2.0517588
130	0x3d3af057	0.045639362
131	0xbef4b961	-0.47797683
132	0x3f2baa98	0.6705718
133	0x3f9034d8	1.1266127
134	0x3f96a110	1.1767902
135	0xbef57ed6	-0.4794833
136	0xbff49808	-1.9108896
137	0xbf0b9446	-0.5452312
138	0x3ebd2059	0.36938742
139	0x3fa627d6	1.2980907
140	0x3f5e64da	0.8687264
141	0x3d96fc42	0.07372333
142	0xbf4e4fd7	-0.80590576
143	0x3e06a919	0.13150443
144	0x3ec694d6	0.38785428
145	0x3f948319	1.1602508
146	0x3ed3a1a7	0.41334268
147	0x3fc51860	1.5398064
148	0xbfd0d873	-1.6316055
149	0xbeadba5f	-0.33931252
150	0xbf415619	-0.75522
151	0xbde6fdd8	-0.112788856
152	0xbf77fe87	-0.9687275
153	0x3e04626f	0.12928174
154	0xbfe619e8	-1.7976656
155	0x3f6a14f4	0.9143822
156	0xbfb8331c	-1.4390597
157	0xbeccf139	-0.40027788
158	0xbee0842f	-0.43850848
159	0xbeeff114	-0.46863616
160	0xbe3a89c9	-0.18216623
161	0xbee8dfd2	-0.4548326
162	0xbdb4c786	-0.088271186
163	0x3f17aa1a	0.5924393
164	0x3e3912a5	0.18073519
165	0x3dd6d8f1	0.10490597
166	0x3fcb3e04	1.5878301
167	0x3fddf475	1.7340227
168	0xbe03e3a4	-0.12879807
169	0x3f3ba052	0.73291504
170	0x3f083f7d	0.53221875
171	0xbf681faa	-0.90673316
172	0x3e88d922	0.2672816
173	0x4023b00c	2.55762
174	0x3f13faac	0.5780437
175	0x3f9a3cad	1.2049767
176	0xbd818830	-0.06324804
177	0x3ee34010	0.44384813
178	0xc000527b	-2.0050342
179	0x3e362c93	0.17790441
180	0xbf405aa8	-0.7513833
181	0x3f45e178	0.77297163
182	0xc016ffa9	-2.3593543
183	0x3fee4ce1	1.8617212
184	0x3fb4250e	1.4073808
185	0xbb5eb11d	-0.003398008
186	0xbf4f5336	-0.80986345
187	0xbcad14d6	-0.0211281
188	0x3f6a5ee1	0.91551024
189	0x3fe5e355	1.7960001
190	0xbc2a62c4	-0.010399524
191	0xbf522925	-0.8209403
192	0x3f65f0d4	0.898206
193	0x3eb7740f	0.35830733
194	0xbf37b3d5	-0.71758777
195	0x3e9bde31	0.30442956
196	0x3f702613	0.93808097
197	0xbf965354	-1.174418
198	0x3f90f835	1.1325747
199	0xbdd08bd8	-0.10182923
200	0x3f68e809	0.9097906
201	0x3f5a5424	0.8528464
202	0x3e1d096a	0.15335622
203	0x3df07e36	0.11742823
204	0x3f94706d	1.159681
205	0xbd8c74f4	-0.068582445
206	0xbf194c40	-0.59881973
207	0x3ea0ed80	0.31431198
208	0x3fa59e08	1.2938852
209	0xbf765bca	-0.9623381
210	0x3f9e20a5	1.2353712
211	0xbf810403	-1.0079349
212	0xbf9e5fa3	-1.2372936
213	0xbfdbd143	-1.7173237
214	0x3f811d29	1.0087024
215	0xbd9687e9	-0.073501416
216	0xbf29931c	-0.66240096
217	0xbfb167e1	-1.3859826
218	0xbd9f0c1d	-0.07765982
219	0x3dcd9b06	0.10039334
220	0x3ffd5631	1.9791929
221	0xbf1cbfb9	-0.61230046
222	0x3f21182a	0.62927496
223	0x3f3ce22d	0.73782617
224	0x3eef4c22	0.46737772
225	0xbf6616aa	-0.8987833
226	0x3f643615	0.8914502
227	0x3f7ca037	0.9868197
228	0xbf86b0bb	-1.0522684
229	0xbf15c216	-0.58499277
230	0x3fdb1238	1.7114935
231	0x3fc53d2c	1.5409293
232	0x3f38c1d7	0.72170776
233	0x3fb7372b	1.4313711
234	0xbf948ba3	-1.1605114
235	0x3f4ec2f7	0.8076624
236	0x3e8ce3c8	0.27517533
237	0xbf143e5a	-0.5790764
238	0x3f14d2d5	0.58134204
239	0x3e92cb1a	0.2867058
240	0x3f4ffb98	0.81243277
241	0x3dde4988	0.10853869
242	0xbf2bcf3d	-0.67113096
243	0x3ee782eb	0.4521707
244	0x3ebb9839	0.36639574
245	0xbeb3f173	-0.3514515
246	0xbfde2591	-1.7355214
247	0x3f796948	0.9742627
248	0x403ac619	2.918341
249	0x3fb73d89	1.4315654
250	0x3fa59a0c	1.2937636
251	0x3d0a6e7a	0.033796765
252	0x3f8a1495	1.0787531
253	0x3f768535	0.9629701
254	0xbe4715c2	-0.19441894
255	0xc00a4d00	-2.1609497

encoder_pos_embed2 f4 [1, 32, 3, 3]
0	0xbe9568c0	-0.2918148
1	0x3eef0a86	0.46687716
2	0xbec3d0b5	-0.38245168
3	0xbf9d5208	-1.2290659
4	0x3f00153f	0.5003242
5	0xbed12b9e	-0.4085359
6	0xbf402401	-0.7505494
7	0xbf469385	-0.77568847
8	0xbf27275b	-0.65294427
9	0xbf4f3868	-0.80945444
10	0x3c1ad337	0.009449772
11	0x4000fd70	2.0154686
12	0xbf61734f	-0.8806657
13	0xbf3497fc	-0.7054441
14	0x3e63d0e8	0.2224766
15	0xbf500b54	-0.81267285
16	0xbef10776	-0.47076005
17	0xbf4da950	-0.80336475
18	0xbef8c2cf	-0.48586127
19	0xbe782297	-0.24231945
20	0xbf2c0652	-0.67197144
21	0x3ea7e663	0.3279296
22	0xbf353e69	-0.70798355
23	0xc0159b53	-2.3376052
24	0xbf89615d	-1.0732838
25	0x3f55d7bc	0.8353231
26	0xbeb6b111	-0.35681966
27	0xbd9dcff5	-0.0770568
28	0xbfead777	-1.8347005
29	0xbfd583b8	-1.6680822
30	0x3e040968	0.12894213
31	0xbfeb8bcc	-1.8402038
32	0x3ebf9aa4	0.3742267
33	0xbf65c52e	-0.89754
34	0x3fbfdbea	1.4988987
35	0xbeea73e3	-0.4579154
36	0xbff921fb	-1.9463495
37	0xbe861813	-0.26190242
38	0x3f43927b	0.76395386
39	0x3e2e7338	0.1703614
40	0xbf368342	-0.71294034
41	0x3e68c0e7	0.22729836
42	0xbf34a46a	-0.70563376
43	0x3f29047d	0.66022474
44	0xbf9e1357	-1.2349652
45	0x3f8df5f2	1.1090682
46	0x3f96d019	1.1782256
47	0x3e40d04f	0.18829463
48	0x40060f28	2.094675
49	0x3e999c28	0.3000195
50	0x3f982372	1.1885817
51	0x3eb6c6d0	0.35698557
52	0x3eba4a52	0.36384827
53	0x401228d8	2.283743
54	0xbf1c7a91	-0.6112452
55	0xbe8298ad	-0.25507107
56	0xbe2ac6ec	-0.16677445
57	0xbe3841df	-0.17993878
58	0xbfc4281b	-1.5324739
59	0xbfbd3a76	-1.4783466
60	0x3f2a119d	0.66433126
61	0xbf24dbd3	-0.64397925
62	0x3ec06282	0.37575155
63	0x3fbd47c4	1.4787526
64	0xbf32f106	-0.6989902
65	0xc0416920	-3.0220413
66	0xbf7c35ea	-0.98519766
67	0xbea693a8	-0.32534528
68	0x3f3e4ee8	0.7433915
69	0xbea2324e	-0.31679004
70	0xbf9ecebf	-1.2406844
71	0xbf2da0ef	-0.6782369
72	0xc00373c1	-2.05394
73	0x3f00c975	0.503074
74	0xbd8a7d0e	-0.067621335
75	0xbf7092ac	-0.93973804
76	0xbe612eb4	-0.21990472
77	0x3fdc5590	1.7213612
78	0x3fc9a867	1.5754517
79	0xbf06cac8	-0.5265317
80	0xbe5d5030	-0.2161262
81	0x3f8ea595	1.1144282
82	0x3e9f6b19	0.31136397
83	0x3f61d820	0.88220406
84	0xbf21f571	-0.6326514
85	0xbfb49793	-1.4108757
86	0x3f835005	1.0258795
87	0x3eb1cc6f	0.34726283
88	0xbfc023bd	-1.5010906
89	0x4011da36	2.2789435
90	0x3fa24569	1.2677432
91	0xbf1c61d6	-0.61086786
92	0x3edc1c5b	0.42990384
93	0x3f37892a	0.7169367
94	0xbfe39997	-1.7781247
95	0x3f875f8e	1.0576036
96	0x3e146d9c	0.14494938
97	0x3f9837af	1.1891993
98	0x3f5af849	0.85535103
99	0x3f9225a2	1.1417735
100	0x3d176fbd	0.036971796
101	0x3ec0a41d	0.37625208
102	0xbd5b4600	-0.053533554
103	0xbf3c17d9	-0.7347389
104	0x4011aea0	2.2762833
105	0x3fa8e11e	1.31937
106	0x3ff7a718	1.9347868
107	0x3f4c1c5a	0.7973076
108	0xbfcc28ed	-1.594999
109	0x3ed047fc	0.4067992
110	0x3f4e8e9c	0.80686355
111	0x3e1fe180	0.15613365
112	0xbedf3e85	-0.43602386
113	0x3df7d3e4	0.12100962
114	0xbfbf30cc	-1.4936767
115	0xbf1fbf9d	-0.62401754
116	0x3ebc9782	0.3683434
117	0xbf7c53a5	-0.9856513
118	0x3f1eb121	0.6198903
119	0x3f4df9a2	0.80459034
120	0x3f90deea	1.1318028
121	0xbd88732d	-0.06662593
122	0xbeb797a2	-0.35857874
123	0x3f709150	0.9397173
124	0xbf4ff14e	-0.81227577
125	0xbe7c1060	-0.24615622
126	0xbf590d90	-0.8478632
127	0x3f126cf1	0.5719748
128	0x3e96566d	0.29362813
129	0x3ecf853a	0.4053133
130	0xc018442e	-2.3791614
131	0xbf18aa52	-0.5963489
132	0xbe90472f	-0.2817931
133	0x3f32addd	0.69796544
134	0xbf91422f	-1.1348323
135	0x3f08c4a8	0.53425074
136	0xbe1daf78	-0.15398967
137	0x40001b04	2.001649
138	0xbf0950a8	-0.53638697
139	0xbf322c43	-0.6959879
140	0x3adbd34d	0.0016771347
141	0xbe95ced7	-0.2925937
142	0x3fa9981a	1.3249543
143	0x3f5e5b85	0.868584
144	0xbf041911	-0.5160075
145	0xbe9801ee	-0.29688972
146	0x3c44d935	0.012014677
147	0xbfdbbf81	-1.7167817
148	0xbf3d4dec	-0.73947024
149	0xbe10ccdf	-0.14140652
150	0x3f95ad69	1.1693546
151	0xbd84e8b4	-0.06489697
152	0x3f457f01	0.7714692
153	0xbe8b133f	-0.2716312
154	0xbfc2e3dd	-1.5225788
155	0xbfb39b8d	-1.4031845
156	0xbf3a5e0f	-0.7279977
157	0x3f6f2781	0.93419653
158	0x3e4970a6	0.19671878
159	0xbf1577d7	-0.58385986
160	0x3e968466	0.29397887
161	0xbe27a9e6	-0.16373405
162	0x3fb201bf	1.3906783
163	0xbfb689c5	-1.4260794
164	0xbe73fa79	-0.23826016
165	0xbe872fbd	-0.2640361
166	0x3d93ca91	0.07216371
167	0xbfedb5a6	-1.857106
168	0xbffab63e	-1.9586866
169	0x3f1f1d98	0.6215453
170	0x3e9dd0a4	0.30823243
171	0x3f029b34	0.5101807
172	0xbf9bf9ae	-1.2185571
173	0x3ccf870b	0.025332948
174	0x3f272b8c	0.6530082
175	0xbf6ecaca	-0.9327818
176	0x3eb13a56	0.3461482
177	0xbf806bd6	-1.0032909
178	0x3d93fe18	0.07226199
179	0x3f175025	0.59106666
180	0xc032a7c1	-2.791489
181	0xbed78a1c	-0.42097557
182	0xbdce1e33	-0.10064354
183	0x3f7507f2	0.9571525
184	0xbef45754	-0.47722876
185	0x3fef17e9	1.8679172
186	0x3edbb8c5	0.42914405
187	0xbf08d20b	-0.534455
188	0xbf4dae5b	-0.8034417
189	0x3f885751	1.0651647
190	0x3f1a1177	0.601829
191	0x3f157c97	0.58393234
192	0x3fb9f531	1.4527951
193	0xbc54afd4	-0.012981374
194	0xbe253a00	-0.16135406
195	0x3eaaf0e9	0.33386925
196	0xbfa2b917	-1.2712735
197	0x3e14b4f6	0.14522156
198	0xbf46e185	-0.77687865
199	0x3f86b307	1.0523385
200	0xbef871f7	-0.48524448
201	0x3c5d73db	0.013516392
202	0xbf6dfe7a	-0.92966425
203	0xbfc553f9	-1.5416251
204	0xbf8b5745	-1.0886008
205	0xbf53a14f	-0.8266801
206	0x3f4af973	0.7928688
207	0xbf852b3c	-1.0403819
208	0x3e9066cb	0.28203425
209	0xbf9b059e	-1.2111089
210	0xbf64bc1c	-0.8934953
211	0xbf09bf39	-0.5380741
212	0x401247d0	2.285633
213	0x3f935677	1.1510762
214	0x3ec721e1	0.38893035
215	0xbdcd3a5b	-0.10020896
216	0x3f075ce5	0.5287612
217	0x3ef761df	0.48316857
218	0x3ee0bee0	0.43895626
219	0xbf9b6abe	-1.214195
220	0x3f6ffe38	0.9374728
221	0x3fe33fd6	1.7753856
222	0xbe9a0bb7	-0.30087063
223	0xbf93bf97	-1.1542844
224	0x3f3b66eb	0.73203915
225	0x3feaf2d6	1.8355358
226	0x3ec611ce	0.3868546
227	0xbf593118	-0.84840536
228	0xbf4b697e	-0.79457843
229	0x3f850a18	1.0393705
230	0x3fd70a41	1.6800004
231	0xbfa8d515	-1.3190027
232	0x3e654cec	0.22392625
233	0x3efaef82	0.49010855
234	0x3fd4a893	1.6613945
235	0xbfb1aac4	-1.3880239
236	0xbf278be6	-0.65447843
237	0x3dd47f33	0.10375824
238	0xbe55c620	-0.2087636
239	0xbfb8cb69	-1.4437076
240	0xbebc5366	-0.36782378
241	0xbf78362a	-0.9695765
242	0xbec434b6	-0.38321465
243	0x3ee79e60	0.45238018
244	0x3f3fc1ae	0.74904907
245	0xbf67852e	-0.9043759
246	0xbfa987dc	-1.3244586
247	0x3f80401e	1.0019567
248	0xbe707e21	-0.23485614
249	0xbfa51a0a	-1.2898571
250	0x3f51ced0	0.81956196
251	0xbfcd7d4e	-1.6053865
252	0x3e24caf4	0.16093045
253	0x3e86921a	0.26283342
254	0x3fda7175	1.7065874
255	0x3f9017a2	1.1257212

encoder_pos_embed f4 [1, 10, 36, 16]
0	0x3c5f7b37	0.013640217
1	0xbf95301e	-1.1655309
2	0x3f186d2e	0.59541595
3	0x3eb1c7fb	0.34722885
4	0xbf3986a0	-0.72471046
5	0xbf2d6ccb	-0.6774413
6	0x3ec6a3cb	0.3879684
7	0x3f3af3a6	0.7302803
8	0xbeb8a33e	-0.36062044
9	0xbf0ccfeb	-0.5500476
10	0xbf941192	-1.1567862
11	0xbd26ab32	-0.04069061
12	0xbdb8782a	-0.090072945
13	0x3e4f7e7f	0.20263098
14	0x3fc0ad82	1.505295
15	0xbf6ae9f8	-0.9176326
16	0xbe56b0c3	-0.20965867
17	0x3f45cba3	0.7726385
18	0x3f8ab4a0	1.0836372
19	0xbfc8a374	-1.5674882
20	0xbfe0c049	-1.7558681
21	0x400b70f2	2.1787686
22	0x3e8fdad1	0.2809663
23	0x3e36c01c	0.17846721
24	0x3f2606c8	0.648541
25	0x3f8974d2	1.0738776
26	0xbef19796	-0.47185963
27	0x3f031650	0.5120592
28	0xbfb6eed1	-1.4291631
29	0x3f4d35a7	0.8015999
30	0xbf78c3b9	-0.9717365
31	0x3f847e82	1.0351107
32	0x3f44b3ed	0.76837045
33	0x3f5ecf7a	0.87035334
34	0x3d68f320	0.056872487
35	0x3ff92f94	1.9467645
36	0xbf33da2e	-0.7025479
37	0xbe6039b7	-0.21897016
38	0xbfdc410b	-1.720735
39	0xbe5e11a4	-0.21686417
40	0xbea0ea8b	-0.31428942
41	0xbf2f54c2	-0.68488705
42	0x3f2a325c	0.6648309
43	0x3fe0479d	1.7521855
44	0xbf0d8ca6	-0.5529274
45	0xbf8342fb	-1.0254816
46	0xbf2c3d9a	-0.67281497
47	0xbea6bf18	-0.32567668
48	0x3fdceccd	1.7259766
49	0x3f9e9243	1.2388386
50	0xbf3198e8	-0.6937394
51	0xbf2f5bf6	-0.68499696
52	0xbf4fe631	-0.8121062
53	0x3f6c05d1	0.92196375
54	0x3d420c73	0.047375154
55	0x3f494418	0.7861953
56	0xbd8ecba6	-0.069724366
57	0xc05a51ef	-3.4112508
58	0x3ef9e4ac	0.48807275
59	0xbf90b388	-1.1304789
60	0xbd2008cf	-0.0390709
61	0x3fa2fb80	1.2733002
62	0x4013e6f1	2.3109705
63	0xbf81d265	-1.0142332
64	0x3f21e8a3	0.632456
65	0x3d8bf808	0.068344176
66	0xbf974347	-1.1817406
67	0xbf3d0942	-0.7384225
68	0x3fd22925	1.6418806
69	0x3e937797	0.28802177
70	0xbf2012c5	-0.6252864
71	0x3e222759	0.15835322
72	0x3e643dcf	0.22289203
73	0x3e5f4b93	0.21806173
74	0x3e92d9ee	0.28681892
75	0x3f211e40	0.6293678
76	0x3e826fb6	0.25475854
77	0x3d62fd5e	0.05541741
78	0xbf989983	-1.1921848
79	0x3f9bf114	1.2182946
80	0xbf1604c2	-0.5860101
81	0x3e3b73a6	0.18305835
82	0x3e1a8232	0.15088728
83	0x3f7a69c6	0.9781765
84	0x3f84497f	1.0334929
85	0xbefc5b2f	-0.49288318
86	0xbf12eb18	-0.57389975
87	0x3f492a97	0.7858061
88	0xbe57414a	-0.21021
89	0x3f3441cc	0.704129
90	0x3f5a9139	0.8537784
91	0xbf8eeb9a	-1.116565
92	0x3f1ac718	0.6046004
93	0xbfa8fcbd	-1.320213
94	0xbf0befc9	-0.5466276
95	0xbcbaa326	-0.022782873
96	0x3ebf9e88	0.37425637
97	0xbf804d59	-1.0023605
98	0x3fafaac1	1.3723985
99	0xbf2d68d6	-0.6773809
100	0x3fa67e14	1.3007226
101	0xbf1bbf02	-0.6083833
102	0xbf1da96d	-0.6158665
103	0x3fe84f54	1.8149209
104	0x3f8f0713	1.1174034
105	0x402139ad	2.5191453
106	0x3fb1aa2f	1.3880061
107	0xbf34a3e4	-0.7056258
108	0xbe415a7e	-0.18882176
109	0x3f8f7c59	1.1209823
110	0xbe1eaddb	-0.15496008
111	0xbf7d5cde	-0.9896983
112	0x3fed8c97	1.855853
113	0x4004635b	2.0685642
114	0xbec7e921	-0.3904505
115	0x3e70488d	0.23465176
116	0xbfc02017	-1.5009793
117	0x3e659486	0.22419938
118	0x3e73eb0d	0.23820134
119	0x3ef2187f	0.47284314
120	0xbfdbf9b4	-1.7185578
121	0xc0588727	-3.383249
122	0x3e9fc983	0.3120843
123	0xbff314fb	-1.8990778
124	0xbf48384e	-0.78210914
125	0x4016424e	2.347797
126	0x3f776693	0.9664089
127	0x3ddc15ef	0.10746371
128	0x3f73c4f8	0.95222425
129	0xbfa8cd4d	-1.3187653
130	0x3f04baba	0.5184742
131	0x3f7f9e86	0.9985126
132	0xbf8b86fe	-1.0900571
133	0x3f9254f8	1.143218
134	0x3e4b8f45	0.19878872
135	0x3f812c37	1.0091618
136	0xbfd09e1b	-1.629825
137	0xbf625875	-0.88416225
138	0xbf489f15	-0.7836774
139	0x3e533bb9	0.20628251
140	0x400168af	2.0220144
141	0x3f7fe511	0.999589
142	0x3d85188f	0.06498825
143	0x3e63f702	0.22262195
144	0x3f85794c	1.0427642
145	0xbfa105d1	-1.25799
146	0x3b58c09e	0.0033073793
147	0xbf326438	-0.6968417
148	0x3f7c5bcb	0.98577565
149	0x3f00d302	0.5032197
150	0xbf108daf	-0.5646619
151	0xbf0f491c	-0.5597093
152	0x3f497e64	0.7870848
153	0xbf299b84	-0.66252923
154	0xbee824e8	-0.45340657
155	0x3f5979a8	0.8495126
156	0x3eadcfba	0.33947545
157	0xbfe5f6f2	-1.7965987
158	0xbfcc7466	-1.5973022
159	0xbeb86dc6	-0.3602125
160	0xbf33845c	-0.7012384
161	0x3f42444d	0.7588547
162	0xc00058c1	-2.005417
163	0x3f800c38	1.0003729
164	0xbdfa4cef	-0.12221705
165	0x3f914d03	1.1351627
166	0x3f8d0462	1.1016963
167	0x3fb9f76c	1.4528632
168	0x3c0e673d	0.008691606
169	0xbed40d29	-0.4141629
170	0xbf90ff02	-1.1327822
171	0xbfa1490c	-1.2600417
172	0xbf93e3b1	-1.1553861
173	0x3ff2b245	1.8960654
174	0xbf0178f8	-0.5057521
175	0x3f56e03b	0.839359
176	0x3f1b890e	0.60756004
177	0x3ea036a5	0.3129169
178	0x3cdab09f	0.026695548
179	0xbf134fe3	-0.5754377
180	0x3efc8acf	0.49324653
181	0x3f5e6613	0.868745
182	0xbf1510e0	-0.58228874
183	0xbeca1cbc	-0.39475048
184	0xbebd06f3	-0.36919364
185	0x3fa5cbac	1.2952781
186	0xbe71d839	-0.23617639
187	0x3fa35180	1.2759247
188	0x3f0323f6	0.5122675
189	0x3e5be37c	0.21473497
190	0xbf488646	-0.78329885
191	0x3edfba07	0.43696615
192	0x3e9dc8f4	0.30817378
193	0xbedc877b	-0.43072113
194	0x3f0c9f0f	0.54930204
195	0x3f0e004e	0.55469215
196	0xbe1cd6f4	-0.15316373
197	0x3e82a470	0.2551608
198	0xbec49be6	-0.3840019
199	0x3f4c1df3	0.797332
200	0xbe4f656c	-0.20253533
201	0x3fda7813	1.7067894
202	0xc0165f3c	-2.3495626
203	0xbf816b29	-1.0110828
204	0xbe31499b	-0.17313235
205	0x3f8521fc	1.0400996
206	0x3f8ff5a7	1.1246842
207	0xbe8605a1	-0.2617617
208	0x3e9e2bf0	0.30892897
209	0x3fdbfe0d	1.7186905
210	0x3f563917	0.8368086
211	0xbf47cc53	-0.7804615
212	0x3f8d74d1	1.1051275
213	0xbf4bdf8d	-0.79637986
214	0x3f75bf21	0.95994765
215	0xc009cca2	-2.1531148
216	0xbf4ba34b	-0.7954604
217	0x3ef1b2da	0.47206765
218	0x3f99ad1e	1.2005956
219	0xbe84c9de	-0.25935262
220	0x40000dfb	2.0008533
221	0xbf95e903	-1.1711735
222	0xbebda0af	-0.37036654
223	0xbf701638	-0.93783903
224	0xbfabd67a	-1.3424828
225	0xbeff6105	-0.49878708
226	0xbd109b63	-0.03530444
227	0xbf33c915	-0.702287
228	0xbfca37b7	-1.5798253
229	0xbf83c2d1	-1.0293828
230	0xbf7f7425	-0.997866
231	0xbfabe13d	-1.3428112
232	0xbf275b4f	-0.653737
233	0x3e074468	0.13209689
234	0xbfc0229d	-1.5010563
235	0xbf0041ab	-0.501002
236	0xc006a69c	-2.103919
237	0x3dc4ba9f	0.09605908
238	0xbf631a0c	-0.8871162
239	0xbfb30a08	-1.3987436
240	0x3e950c3e	0.29110903
241	0xbf60f13b	-0.8786809
242	0xbe8d7557	-0.27628586
243	0x3eddc12f	0.4331145
244	0x3faecb2a	1.3655751
245	0xbf8c12a6	-1.0943191
246	0xbd526f4d	-0.051375676
247	0x3ed638b8	0.41840148
248	0xbfb0ecf1	-1.3822309
249	0x3ff59b1a	1.9187958
250	0xbf4566f3	-0.77110213
251	0xbeea4266	-0.45753783
252	0x3f8af121	1.0854837
253	0x3f888c8c	1.0667892
254	0xbf17fd1f	-0.5937061
255	0x3f07d385	0.5305713

down1.body.0.weight f4 [8, 16, 3, 3]
0	0x3cd6db66	0.026227664
1	0x3d7d33f0	0.06181711
2	0xbd2c1d00	-0.042019844
3	0xbd24b3f4	-0.04021068
4	0xbcb9105e	-0.022590812
5	0x3cce40a2	0.025177304
6	0x3d112c75	0.03544279
7	0x3db9303f	0.09042405
8	0x3bdd1550	0.0067469254
9	0x3c336f20	0.010951787
10	0xbcde8a88	-0.027165666
11	0xbd0bf31c	-0.034167394
12	0xbddc4b77	-0.10756581
13	0xbd847e1b	-0.06469365
14	0xbd2ac0c0	-0.041687727
15	0x3cc34b79	0.0238397
16	0x3d1be320	0.0380584
17	0x3d5e2377	0.05423304
18	0xbd8ecf00	-0.06973076
19	0xbd2bebb4	-0.04197283
20	0x3d86ccc8	0.06582028
21	0x3d759702	0.059958465
22	0xbc97e896	-0.018543523
23	0x3db86f88	0.09005648
24	0xbc94ee7b	-0.018180123
25	0x3cefef56	0.029288929
26	0x3de3a517	0.11115473
27	0xbde3b506	-0.11118512
28	0xbd7b57d6	-0.061363064
29	0xbc89b066	-0.016807746
30	0xbd44dfa3	-0.04806484
31	0x3d897006	0.0671082
32	0xbd8e322a	-0.06943162
33	0xbd84e110	-0.0648824
34	0xbda2a9c0	-0.079425335
35	0xbdc06b15	-0.09395424
36	0xbd90d43e	-0.07071732
37	0x3d7b7cf7	0.061398473
38	0x3c890fc2	0.016731147
39	0x3d296da1	0.041364316
40	0x3b962f63	0.0045832857
41	0xbcfa965c	-0.030589275
42	0x3c60c42a	0.013718644
43	0xbdaf72a6	-0.08566789
44	0xbd828288	-0.06372553
45	0xbd2063a7	-0.039157536
46	0x3d760554	0.060063675
47	0x3d9c471b	0.0763075
48	0xbc3c9c59	-0.011511886
49	0x3cc79c64	0.024366565
50	0x3db91ba4	0.09038475
51	0x3df85e11	0.12127317
52	0x3d7a6aab	0.061136883
53	0x3d20b031	0.03923053
54	0x3d470551	0.048589054
55	0xbd312049	-0.04324368
56	0x3c299797	0.010351083
57	0xbdbc611c	-0.0919821
58	0xbda51e82	-0.080624595
59	0xbd9a33a5	-0.07529382
60	0x3d69a024	0.057037488
61	0x3d4b7d0a	0.049679793
62	0xbd1a44e6	-0.037663363
63	0x3db88895	0.09010426
64	0x3d537628	0.051626354
65	0x3b418c5c	0.0029533124
66	0x3d4dbe34	0.05023022
67	0x3cf128ed	0.02943846
68	0x3d69352d	0.056935478
69	0x3dca6880	0.09883213
70	0xbd9e83cc	-0.07739982
71	0xbd6d2d49	-0.057904515
72	0x3d83420c	0.06409082
73	0x3dbcb0fe	0.09213446
74	0x3de7a482	0.11310674
75	0x3dc5c8a6	0.09657411
76	0x3d3c7ea2	0.046019204
77	0xbd1319d4	-0.035913303
78	0x3d3f6f06	0.04673674
79	0xbcdb1bd1	-0.026746662
80	0xbd742061	-0.05960119
81	0x3da191b3	0.07889118
82	0x3d94a120	0.07257295
83	0xbd8fb3e5	-0.07016734
84	0x3bc53dad	0.006019315
85	0xbd054da9	-0.032544766
86	0xbcc0132f	-0.023446647
87	0xbd44a52d	-0.048009086
88	0x3cead210	0.028664619
89	0xbd669369	-0.056292925
90	0x3d77e808	0.060524017
91	0x3d80ecaa	0.0629514
92	0x3d8858d2	0.06657566
93	0x3d845696	0.064618275
94	0xbd8a797e	-0.06761454
95	0xbd149a95	-0.036280233
96	0x3db24750	0.08705008
97	0x3ca407a8	0.020023182
98	0xbd6b49ff	-0.057443615
99	0xbd409c2d	-0.04702394
100	0x3d902703	0.07038691
101	0x3d807c57	0.06273716
102	0xbd68035d	-0.056643832
103	0xbd363a3b	-0.044489127
104	0xbdc6f2e5	-0.09714297
105	0x3b599519	0.0033200441
106	0xbd3bc1cd	-0.04583912
107	0xbd836493	-0.064156674
108	0xbcb12d97	-0.021628184
109	0xbbcfbab2	-0.0063393945
110	0xbd905a68	-0.070484936
111	0x3d870406	0.06592564
112	0xbd724dff	-0.059156414
113	0x3d4c27d4	0.04984267
114	0x3d5f6bff	0.054546352
115	0xbdab6003	-0.08367922
116	0xbd02259d	-0.031774152
117	0x3c21ee25	0.009883438
118	0x3d3c611b	0.045991044
119	0x3d79271a	0.060828306
120	0x3d074b71	0.03303093
121	0x3c741c71	0.014899359
122	0xbd127f17	-0.035765734
123	0x3d076fe3	0.033065688
124	0xbd914c6c	-0.070946544
125	0xbd899167	-0.067171864
126	0x3ba3b3c9	0.0049957973
127	0xbd0dcdbf	-0.034620043
128	0xbbf5aae9	-0.0074971807
129	0xbd4ff0d6	-0.05076679
130	0xbd018e5b	-0.0316299
131	0x3accfaac	0.0015638671
132	0xbdd92d73	-0.10604372
133	0xbbf6b87f	-0.007529318
134	0x3c29d23a	0.010365063
135	0xbc995016	-0.018714946
136	0x3b2d69eb	0.0026460837
137	0x3c02c074	0.007980455
138	0x3cd5a959	0.026081728
139	0x3dcac72d	0.09901271
140	0x3dc3268f	0.09528839
141	0x3d74276d	0.05960791
142	0x3db8d49c	0.09024927
143	0x3c90b045	0.017662177
144	0xbdcdd004	-0.100494415
145	0xbd8c5cc5	-0.06853632
146	0x3d206bf9	0.03916547
147	0xbd563b98	-0.052302927
148	0xbdabdcb1	-0.08391703
149	0xbdd1e4f7	-0.1024875
150	0xbdfbd358	-0.1229617
151	0xbddb48c9	-0.10707242
152	0xbd70291b	-0.05863295
153	0x3d7fca27	0.062448647
154	0x3d7aab0a	0.06119827
155	0xbd751906	-0.059838317
156	0x3d142e88	0.03617719
157	0xbda7503a	-0.08169599
158	0xbc15cb4a	-0.009142706
159	0xbccc2971	-0.024922105
160	0xbd74dc66	-0.0597805
161	0xbd099be7	-0.033595946
162	0xbd9bfb04	-0.07616237
163	0xbd97b00a	-0.07406624
164	0xbd243a59	-0.040094707
165	0xbc0d4b6a	-0.008623937
166	0xbd2c5ff7	-0.042083707
167	0x3d2702a1	0.04077399
168	0xbdac418e	-0.08410941
169	0x3c10b20d	0.008831513
170	0x3dc8a0be	0.09796284
171	0xbd371d98	-0.044705957
172	0x3d91749e	0.07102321
173	0x3d1e7be0	0.038692355
174	0xbd934017	-0.071899585
175	0x3d41b4fa	0.047291733
176	0x3a652d2d	0.00087423885
177	0xbcce9123	-0.025215691
178	0x3d9f899b	0.07789918
179	0xbd9411ae	-0.07229935
180	0xbce4a665	-0.027911374
181	0xbcfae292	-0.030625615
182	0x3d38659e	0.045018785
183	0xbba0a096	-0.004901956
184	0x3d1894ef	0.03725141
185	0x3d27441d	0.040836442
186	0xbc987014	-0.01860813
187	0xbd0f2ad6	-0.03495296
188	0xbd98c13d	-0.07458732
189	0x3d39cd77	0.045361962
190	0x3d831355	0.06400172
191	0x3d8d2068	0.068909466
192	0xbd9b2114	-0.075746685
193	0x3b9751d9	0.0046179113
194	0xbd3cc4d5	-0.04608615
195	0xbd70e4cb	-0.058811944
196	0xbd2f547f	-0.04280519
197	0x3d3ff81d	0.04686748
198	0xbd19d99f	-0.037561055
199	0x3d53b5f7	0.051687207
200	0x3d1f33b6	0.038867675
201	0x3d86b97d	0.06578348
202	0xbd4716b9	-0.048605654
203	0xbd8c0f29	-0.06838829
204	0xbc37403e	-0.01118475
205	0x3db17a5d	0.08665917
206	0xbd391f74	-0.04519601
207	0x3da3d753	0.08000054
208	0x3c26e79b	0.010187055
209	0xbc4757a7	-0.012166894
210	0x3c97eb93	0.018544948
211	0xbcd6f306	-0.02623893
212	0xbb8dcb90	-0.004327245
213	0x3a12bbd7	0.00055974483
214	0x3c5c518e	0.0134471785
215	0x3c65bf76	0.014022699
216	0xbd8e0dfa	-0.069362596
217	0xbd49433d	-0.04913639
218	0x3d85ce1a	0.065334514
219	0xbd3013d9	-0.04298768
220	0xbbb374eb	-0.005476584
221	0x3d9d2aed	0.07674203
222	0x3d729bd2	0.059230633
223	0x3d0227fc	0.031776413
224	0xbd9531f6	-0.0728492
225	0x3cd1ce37	0.025611026
226	0xbd91e657	-0.07124012
227	0xbce08629	-0.027407723
228	0xbce71d64	-0.028212257
229	0xbcebacc6	-0.028768908
230	0x3b4dcdf3	0.0031403273
231	0x3dc21a21	0.0947764
232	0x3c889f1c	0.016677432
233	0x3da2662e	0.079296455
234	0x3d4c7f4a	0.04992608
235	0xbd3fcb5b	-0.046824794
236	0x3d2a24ca	0.04153899
237	0xbd481d94	-0.048856333
238	0xbbda04df	-0.0066534127
239	0x3d570c3f	0.052501913
240	0x3d27f627	0.041006234
241	0x3dbe1146	0.092806384
242	0x3b72acbd	0.003702923
243	0x3c14f860	0.00909242
244	0x3d4326cb	0.047644418
245	0xbd966727	-0.073438935
246	0x3d718ac9	0.058970246
247	0xbd9d2652	-0.07673325
248	0xbb9bf7bb	-0.0047597564
249	0xbd104a58	-0.03522715
250	0xbd5243b2	-0.05133409
251	0x3c85ef8f	0.016349582
252	0x3d5ce96b	0.053933542
253	0xbd6d48cb	-0.05793075
254	0xbdb72135	-0.089418806
255	0xbd759945	-0.059960622

down2.body.0.weight f4 [8, 16, 3, 3]
0	0xbd8153d7	-0.06314819
1	0x3c958bfe	0.01825523
2	0x3dbc8ec7	0.0920692
3	0xbda3a00e	-0.079895124
4	0xbcb70bc5	-0.02234448
5	0x3da0ddb0	0.078547835
6	0xbcca9999	-0.024731444
7	0x3c379db5	0.011207034
8	0xbd9d4d53	-0.07680764
9	0xbd187d77	-0.037229028
10	0xbd250a2e	-0.04029291
11	0x3d4f24d6	0.05057224
12	0x3c5ad79f	0.013357072
13	0xbd8f6ac2	-0.07002784
14	0x3cf99d92	0.030470643
15	0xbb8e2d1c	-0.0043388736
16	0xbd3ae9ac	-0.045633003
17	0xbc904043	-0.017608767
18	0xbcaffdd7	-0.021483345
19	0x3d12e89d	0.03586637
20	0xbda73145	-0.08163694
21	0xbd8a989d	-0.0676739
22	0xbd0f291d	-0.034951318
23	0xbcac17cd	-0.021007443
24	0x3c0be490	0.00853838
25	0xbbe5748e	-0.00700242
26	0xbc9182fa	-0.01776265
27	0xbd24ce12	-0.040235586
28	0x3b17ae32	0.00231446
29	0xbcbe9a61	-0.023266973
30	0x3d20feb5	0.039305408
31	0xbd8359b8	-0.06413597
32	0xbd211649	-0.039327893
33	0xbd7949f4	-0.060861543
34	0xba348337	-0.00068860076
35	0x3dac524e	0.08414136
36	0x3d82dedf	0.063901655
37	0xbd8ee448	-0.06977135
38	0x3c7397cb	0.014867733
39	0x3d030174	0.031983808
40	0x3b3e7fea	0.0029067942
41	0x3d820130	0.06347883
42	0x3ba5347a	0.005041656
43	0xbd25fa7f	-0.040522095
44	0x3d813640	0.063091755
45	0xbcbe84f6	-0.02325676
46	0x3cfc6c09	0.030813234
47	0xbd1dcddd	-0.038526405
48	0x3d07569a	0.033041574
49	0x3daea99f	0.085284464
50	0x3d44d12d	0.048051048
51	0xbd3ce4b3	-0.046116542
52	0xbbea2bfe	-0.0071463576
53	0xbcd85fa3	-0.02641279
54	0xbd8b9ef5	-0.06817428
55	0x3d9477a7	0.072493844
56	0x3c62f406	0.013852125
57	0xbd3fd4f4	-0.046833947
58	0xbcbe438e	-0.023225572
59	0xbc950ef4	-0.018195607
60	0x3d2a3971	0.041558687
61	0xbd178caa	-0.036999382
62	0xbd6a283b	-0.057167273
63	0xbd9774fa	-0.073953584
64	0x3ce40dad	0.027838552
65	0x3d4c7616	0.049917303
66	0xbd3d8e47	-0.046278264
67	0x3c6082d2	0.013703065
68	0x3db6d859	0.08927984
69	0x3cbd1135	0.023079494
70	0xbcd74487	-0.026277794
71	0x3bc41b9d	0.005984737
72	0xbc119961	-0.008886666
73	0x3d29beba	0.041441657
74	0xbce1bc15	-0.027555505
75	0x3d3b8230	0.045778453
76	0x3d2efc7f	0.042721268
77	0xbc38c889	-0.01127828
78	0x3da212f1	0.07913769
79	0x3dfc9402	0.12332918
80	0xbc19b457	-0.009381375
81	0x3b396380	0.0028288066
82	0x3d6bda2b	0.057581108
83	0xbd050f65	-0.032485384
84	0x3d08e9c9	0.03342608
85	0x3c36a445	0.011147563
86	0x3d1f86a5	0.038946766
87	0xbd8d9df1	-0.069148906
88	0xbd3606cf	-0.044440087
89	0x3d4d3d03	0.050107013
90	0x3b7b79b5	0.0038372104
91	0xbdbaf862	-0.091294065
92	0xbd6b073c	-0.057379946
93	0xbdac18b3	-0.084031485
94	0xbd53db43	-0.051722776
95	0xbd04241e	-0.032261007
96	0x3d09fda6	0.033689164
97	0xbc83cc12	-0.01608852
98	0x3cf0adfe	0.029379841
99	0x3da40b2d	0.08009944
100	0x3d399096	0.045303904
101	0xbd5c8ea3	-0.053846966
102	0x3ceae596	0.028673928
103	0x3d1eae35	0.038740356
104	0x3d877ede	0.06615995
105	0xbd29ff00	-0.041502953
106	0x3d7753f4	0.0603828
107	0x3d9395d9	0.072063155
108	0xbd9acc7e	-0.07558535
109	0x3cc0226b	0.023453912
110	0x3d9b3fee	0.07580553
111	0xbd33e406	-0.043918632
112	0x3cece2cf	0.028916745
113	0x3cd7c869	0.02634068
114	0x3c72cd0d	0.014819396
115	0x3d93d831	0.072189696
116	0x3d99205e	0.07476877
117	0x3d825d1d	0.06365416
118	0xb9c6b4df	-0.00037900262
119	0x3d941a7c	0.07231614
120	0xbd255897	-0.04036769
121	0xbcdaf747	-0.02672924
122	0x3c7080c4	0.014679138
123	0x3ab7d374	0.001402481
124	0x3d9ffa5b	0.078114234
125	0x3d0299dd	0.031885017
126	0x3d6ead33	0.058270644
127	0x3d2edccc	0.042691037
128	0xbd687521	-0.056752328
129	0x3c56e65b	0.013116444
130	0x3c4b8ec5	0.012424176
131	0x3c38d91b	0.011282231
132	0x3d687a51	0.056757275
133	0xbd1c4deb	-0.038160246
134	0xbcdd01e7	-0.026978446
135	0x3cfac557	0.030611677
136	0xbcc68ecd	-0.024238015
137	0xbd8ab01a	-0.0677187
138	0x3d0e668f	0.034765776
139	0x3d5c4449	0.05377606
140	0xbd057233	-0.032579612
141	0xbc99ed52	-0.018789921
142	0xbd2e6918	-0.042580694
143	0xbd1cadc8	-0.03825167
144	0x3c535a1c	0.012899902
145	0xbcb86b7a	-0.022512186
146	0x3d7c290b	0.06156258
147	0xbd0b24b8	-0.033970565
148	0x3d23b968	0.03997174
149	0x3c8774fd	0.016535277
150	0x3d80c151	0.06286872
151	0x3db04fe6	0.086089894
152	0x3d9157b0	0.07096803
153	0x3cfd2d7d	0.03090548
154	0xbd52dd36	-0.051480494
155	0xbd51552e	-0.051106624
156	0xbd84efd0	-0.06491053
157	0x3be62020	0.0070228726
158	0x3d9c4ba3	0.07631614
159	0x3c0b1299	0.008488321
160	0x3a2bfffe	0.0006561278
161	0xbd42a1ac	-0.047517464
162	0x3d12fe69	0.035887156
163	0x3d93ca40	0.072163105
164	0xbd4c3689	-0.049856696
165	0xbd1562cb	-0.03647117
166	0x3d523bcb	0.051326554
167	0x3d197beb	0.037471693
168	0xbce68b67	-0.028142644
169	0x3ba58ed2	0.005052426
170	0x3c7eaaaf	0.015543624
171	0xbd8a9c01	-0.06768037
172	0xbd885597	-0.0665695
173	0x3d47bb13	0.048762392
174	0xbd1d755a	-0.038441993
175	0xbd739533	-0.05946846
176	0xbd09631d	-0.033541787
177	0xbd4a08f3	-0.04932494
178	0xbd32f442	-0.043689974
179	0xbdba1647	-0.0908628
180	0x3d543ba2	0.051814683
181	0x3d111f3c	0.035430178
182	0xbcb6477a	-0.02225088
183	0xbcce2c79	-0.02516769
184	0x3d0988fc	0.033577904
185	0xbcc6f655	-0.024287382
186	0x3cb65d97	0.022261424
187	0x3c86b3b0	0.016443104
188	0xbd620939	-0.055184577
189	0x3d1af04b	0.037826817
190	0x3c6c00a3	0.014404449
191	0x3dac170d	0.08402834
192	0xbcddf7f3	-0.02709577
193	0xbd138844	-0.036018625
194	0x3d53ae39	0.051679824
195	0xbdde3709	-0.10850341
196	0xbc0207a7	-0.007936395
197	0x3d74d852	0.05977661
198	0xbd3f33a5	-0.04668011
199	0x3d54e44c	0.051975533
200	0x3d86c133	0.065798186
201	0x3da3b96a	0.07994349
202	0x3cdc5b47	0.026898993
203	0x3d8b6f55	0.06808344
204	0xbcdf3428	-0.02724655
205	0xbc696269	-0.014244654
206	0x3d30eb74	0.043193296
207	0x3cc1c5c9	0.023653882
208	0x3d69d33e	0.057086222
209	0x3d87eac0	0.06636572
210	0xbd1d1ce1	-0.03835762
211	0x3d779ef4	0.060454324
212	0x3d2d415a	0.042298652
213	0x3d904303	0.070440315
214	0x3d830bfb	0.063987695
215	0x3ba61125	0.0050679618
216	0xbd89aabd	-0.06722019
217	0x3d7a6aec	0.061137125
218	0xbd4b0375	-0.049563844
219	0x3c4d6487	0.012536175
220	0xbdafaef7	-0.08578294
221	0xbc1bbd33	-0.009505558
222	0xbc82d00a	-0.015968341
223	0xbc92b58d	-0.017908836
224	0xbd349bba	-0.044093825
225	0x3cb689ed	0.022282565
226	0x3cc2c7d0	0.023776919
227	0x3d41e7c9	0.04734019
228	0x3dc287cd	0.09498558
229	0xbd13ef2c	-0.036116764
230	0xbbfe11db	-0.0077535934
231	0xbd01568e	-0.031576686
232	0x3d6a65e2	0.05722607
233	0x3da47b05	0.080312766
234	0xbbbfa89f	-0.0058489586
235	0xbcdd73a1	-0.027032675
236	0xbd2d1533	-0.042256545
237	0x3d592df1	0.05302233
238	0x3c0c7240	0.008572161
239	0x3d5ab38a	0.053393878
240	0x3d59d30d	0.05317979
241	0x3d43ad71	0.04777283
242	0x3cb80930	0.022465318
243	0xbd616038	-0.055023402
244	0x3c76a316	0.015053531
245	0xbd060b9e	-0.032725923
246	0x3c2d7141	0.010586084
247	0xbc8c62b6	-0.017136913
248	0xbc6e546c	-0.014546495
249	0xbd984a29	-0.0743602
250	0xbd8f45d3	-0.0699574
251	0x3c03b4ee	0.0080387425
252	0x3bf41756	0.007449071
253	0xbc2ca39c	-0.010537054
254	0x3d684783	0.056708824
255	0xbd0da128	-0.03457752

EDMoE.gate.fc0.weight f4 [10, 8]
0	0xbeab8423	-0.3349925
1	0xbea23255	-0.31679025
2	0x3e51a0f4	0.20471555
3	0xbe55cc19	-0.20878638
4	0x3e844d07	0.25840017
5	0x3de19d58	0.11016339
6	0x3db5c15f	0.08874773
7	0x3e8fcdd4	0.28086722
8	0xbea7ad66	-0.3274948
9	0x3e848f41	0.25890544
10	0x3dead10c	0.11465654
11	0xbe729b08	-0.23691952
12	0x3db02d3d	0.086023785
13	0xbdc9cccd	-0.09853516
14	0xbe11519e	-0.1419129
15	0xbd1cd712	-0.038291045
16	0xbe2ab045	-0.16668804
17	0x3e9e4a3a	0.30916005
18	0x3e9bcdc1	0.30430415
19	0xbd1a7c59	-0.037716243
20	0xbea08613	-0.3135229
21	0xbcb12ede	-0.021628793
22	0x3cbf5c45	0.023359427
23	0x3e71fe88	0.23632252
24	0x3c3a5f52	0.011375265
25	0x3dd2bd65	0.102900304
26	0x3dc01f8a	0.093810156
27	0xbe4d6bda	-0.20060673
28	0xbe609159	-0.21930446
29	0xbea1ca28	-0.31599545
30	0xbb35f3f4	-0.0027763816
31	0x3de044a1	0.1095059
32	0xbccdf0ff	-0.02513933
33	0x3eafb597	0.3431823
34	0xbd8a2077	-0.067444734
35	0xbe6c3d70	-0.23070312
36	0x3d715c5c	0.05892597
37	0xbdcbe880	-0.09956455
38	0xbd4686d0	-0.04846841
39	0x3eaf660f	0.34257552
40	0xbc263462	-0.010144325
41	0x3e9e20c1	0.30884364
42	0x3d416502	0.04721547
43	0xbe06afb0	-0.13152957
44	0x3e84b74c	0.25921094
45	0xbe4e3a48	-0.2013942
46	0x3c3fa8e7	0.011697984
47	0x3da2c0f6	0.07946961
48	0x3e227ece	0.15868685
49	0xbea704eb	-0.3262094
50	0x3c8e149a	0.017343808
51	0xbdbb7a57	-0.09154194
52	0x3e6abbd3	0.22923212
53	0x3df39c85	0.11895088
54	0x3e111aa1	0.14170314
55	0x3e59ade7	0.21257745
56	0xbda21b6f	-0.07915389
57	0xbcb990ac	-0.022651993
58	0x3e913932	0.2836395
59	0xbe91e64d	-0.28496018
60	0xbe7a3f8e	-0.24438307
61	0x3cd3e130	0.025864214
62	0xbe0f69db	-0.14005224
63	0x3ca5dfe2	0.020248357
64	0x3e9fe7be	0.31231493
65	0xbd27e018	-0.040985197
66	0xbe9a57e5	-0.30145183
67	0xbe24931d	-0.16071744
68	0x3ea63dfd	0.32469168
69	0xbd9f1275	-0.07767192
70	0xbe1ebef6	-0.15502533
71	0x3e22f695	0.15914376
72	0x3d3346ad	0.043768574
73	0xbe9f99de	-0.3117208
74	0x3e96c020	0.29443455
75	0x3e4bdf79	0.19909467
76	0x3e9d56dd	0.30730334
77	0x3e1e6d89	0.15471472
78	0xbdf42021	-0.119201906
79	0xbdec5f80	-0.11541653

EDMoE.gate.fc0.bias f4 [10]
0	0x3e2f73b3	0.1713398
1	0xbd8c5d7d	-0.06853769
2	0x3d8df539	0.06931538
3	0xbeaf67d5	-0.34258905
4	0xbe32f6bb	-0.17476933
5	0x3e067a77	0.13132654
6	0xbc8ec8ea	-0.017429788
7	0xbe2e0ce3	-0.16997103
8	0xbe9de5b4	-0.30839312
9	0x3e6618e6	0.22470436

EDMoE.gate.fc1.weight f4 [10, 8]
0	0x3c1b1743	0.009465995
1	0x3ce9ad38	0.02852498
2	0x3bf0c362	0.00734751
3	0x3bae9761	0.0053281044
4	0x3a9d86dd	0.0012018342
5	0xbc7d2a34	-0.015451957
6	0xbd81fbe6	-0.06346874
7	0xbd06c78d	-0.03290515
8	0xbc8a5b37	-0.016889198
9	0x3d1f1aaa	0.03884379
10	0x3d14aaaa	0.03629557
11	0x3d16adec	0.03678696
12	0x3c21eb10	0.009882703
13	0x3cc4ea4a	0.024037499
14	0xbc651f98	-0.013984583
15	0x3d1e9b35	0.038722236
16	0xbbd5d8bb	-0.0065260804
17	0x3c3fd017	0.011707327
18	0x3b931830	0.0044889674
19	0x3c8c652a	0.017138083
20	0xbc1ddf6b	-0.0096357865
21	0xbd5a123e	-0.053240053
22	0xbd3ba77e	-0.04581403
23	0x3b0bc124	0.0021324838
24	0xbbaaf66f	-0.0052173655
25	0xbc9ab3c9	-0.018884556
26	0x3ce70daf	0.028204767
27	0xbd861475	-0.065468706
28	0xbcc7fb43	-0.024411803
29	0xbd7e6f2e	-0.062117748
30	0x3d8fdbd4	0.07024351
31	0xbcc6c2a5	-0.024262736
32	0xbd161803	-0.036643993
33	0x3b9d1976	0.004794295
34	0xbb92a5d0	-0.004475333
35	0x3c021565	0.007939671
36	0xbcecb11d	-0.028893048
37	0x3b174215	0.002308016
38	0xbd51f460	-0.051258445
39	0xbca81aa3	-0.020520514
40	0x3c27a247	0.010231561
41	0xbc8138a4	-0.015774079
42	0x3be4bb3b	0.0069803274
43	0x3c6da4ab	0.014504592
44	0xbc7c254b	-0.015389751
45	0x3c4c517a	0.012470597
46	0x3b241457	0.0025036538
47	0xbc0c8409	-0.0085764015
48	0x3bd92b30	0.006627463
49	0xbcb2bf55	-0.02181975
50	0xbc8267ad	-0.015918577
51	0x3c7cd577	0.015431753
52	0xbb4f9cc3	-0.003167913
53	0x3d1785da	0.036992885
54	0x3c8a0873	0.016849732
55	0x3d0d34e7	0.03447428
56	0x3c67a330	0.014138028
57	0xbbf57440	-0.0074906647
58	0xbc9c616f	-0.019089429
59	0x3ccde398	0.02513294
60	0x3c953e04	0.018218048
61	0x3cdc16bb	0.026866307
62	0x3c41905e	0.011814205
63	0x3c871f36	0.016494375
64	0xbcd7e8f3	-0.026356196
65	0xbcf59208	-0.02997686
66	0xbcd7381a	-0.026271868
67	0x3a8b8719	0.0010645121
68	0x3cd3a542	0.025835637
69	0x3ce60a8e	0.028081205
70	0x3d80fb73	0.0629796
71	0x3be6e58f	0.0070464085
72	0x3c286c31	0.010279701
73	0xbbae745a	-0.005323929
74	0xbcbc8238	-0.023011312
75	0xbd20396c	-0.03911726
76	0x3ca2497e	0.019810434
77	0xbcaf228e	-0.021378782
78	0x3c9b8d78	0.018988356
79	0xbcb5fcc9	-0.022215264

EDMoE.gate.fc1.bias f4 [10]
0	0x3e6c93c1	0.23103239
1	0xbe23c6ca	-0.15993801
2	0x3e93d424	0.28872788
3	0xbe22bc35	-0.15892108
4	0xbea11eca	-0.31468803
5	0x3df973e3	0.12180307
6	0xbe570fa0	-0.21002054
7	0xbd5eca0e	-0.054391913
8	0xbdf01770	-0.1172322
9	0xbc8073f6	-0.015680294

EDMoE.expertnet.0.conv1_1.conv.weight f4 [8, 8, 3, 3]
0	0xbdcd83e1	-0.100349195
1	0xbdbf894f	-0.093523614
2	0x3d670ab1	0.05640668
3	0xbca25125	-0.019814083
4	0xbd8f03d9	-0.06983156
5	0x3c67ff65	0.014160012
6	0xbdf2e5cb	-0.11860236
7	0x3c87313c	0.016502969
8	0x3d492006	0.049102806
9	0x3e018135	0.12646945
10	0xbdc38035	-0.09545938
11	0xbd11e1d2	-0.03561575
12	0x3d429aaf	0.0475108
13	0x3dd93a2d	0.10606799
14	0xbdd1839e	-0.10230182
15	0x3d694863	0.0569538
16	0x3cf6c875	0.030124882
17	0x3d3f2c4e	0.04667311
18	0xbde46223	-0.111515306
19	0x3db6743c	0.08908889
20	0xbd87d76d	-0.06632886
21	0xbdaa949a	-0.08329125
22	0x3cbc4528	0.022982195
23	0x3d9120fa	0.07086368
24	0xbe00a738	-0.12563789
25	0x3d17cd4d	0.037061024
26	0xbcd2245c	-0.025652103
27	0x3d0adfba	0.03390477
28	0x3db258f3	0.08708372
29	0x3c9695a1	0.018381895
30	0xbda348c8	-0.07972866
31	0xbd0ec134	-0.03485222
32	0x3c6dd138	0.014515214
33	0xbdab4cf3	-0.08364286
34	0xb9b86b75	-0.00035175277
35	0xbd8a694a	-0.067583635
36	0xbd1d00d1	-0.038330857
37	0x3d857b06	0.065176055
38	0xbd77c64b	-0.06049184
39	0xbd2e266c	-0.04251711
40	0x3d583473	0.052784394
41	0xbdc168cd	-0.09443817
42	0x3de74c89	0.11293895
43	0xbd8a244f	-0.067452066
44	0x3cc09baf	0.023511736
45	0x3a31d461	0.0006783661
46	0xbbbc497b	-0.0057460642
47	0xbdb807f4	-0.08985892
48	0x3ca2b6a5	0.019862482
49	0x3d4c1faf	0.049834903
50	0x3d9b642e	0.07587467
51	0xbdd7a46b	-0.10529407
52	0xbdb69de9	-0.08916838
53	0x3b46f6f2	0.0030359593
54	0xbc4a683e	-0.012353955
55	0xbdc3a048	-0.095520556
56	0xbdc5e6b9	-0.096631475
57	0xbdad116e	-0.0845059
58	0xbda5dca2	-0.08098723
59	0xbd4b65f0	-0.049657762
60	0xbdc63893	-0.096787594
61	0xbdf6ec0a	-0.1205674
62	0x3c4fcdfa	0.012683386
63	0x3d8c4e3a	0.06850858
64	0xbd682f43	-0.056685697
65	0x3cec34ba	0.028833736
66	0x3b9892a2	0.004656152
67	0x3d5d9b09	0.05410293
68	0xbd777094	-0.060410097
69	0x3c75d1aa	0.015003601
70	0x3e008028	0.12548888
71	0x3dc456bc	0.09586856
72	0xbddb4dcb	-0.10708197
73	0x3b73ac2a	0.0037181475
74	0x3cb510e0	0.022102773
75	0xbd164bb6	-0.036693297
76	0xbd9bb377	-0.076025896
77	0xbd9cc060	-0.0765388
78	0x3daf0b4e	0.08547078
79	0xbcbb96e8	-0.022899106
80	0x3ae9bd0d	0.0017832831
81	0x3c72acd7	0.014811716
82	0xbddfaf96	-0.10922162
83	0xbc8d9d15	-0.017286817
84	0x3d47d311	0.048785273
85	0xbd8a9221	-0.06766153
86	0x3c69d9f4	0.0142731555
87	0xbc9fdf96	-0.019515794
88	0x3d2122c8	0.03933981
89	0x3d3eaf7d	0.046554077
90	0x3cb3e802	0.021961216
91	0x3a52d61e	0.000804277
92	0xbdf06533	-0.11738052
93	0x3d0e7990	0.0347839
94	0x3d90852e	0.07056652
95	0xbd356e2a	-0.044294514
96	0xbdf93604	-0.12168506
97	0x3d9eff3a	0.07763524
98	0xbd167cf6	-0.036740266
99	0xbc5927b3	-0.013254094
100	0xbd67926e	-0.05653613
101	0x3d81ba8f	0.06334411
102	0x3daf21f0	0.08551395
103	0x3d9495bd	0.07255123
104	0xbd2c764e	-0.04210501
105	0x3d3f4a1c	0.046701536
106	0x3cf5b674	0.029994227
107	0x3c699f1b	0.014259125
108	0xbd92b5f5	-0.07163612
109	0xbcf1428a	-0.029450674
110	0xbdef233d	-0.11676643
111	0x3dbcf13b	0.092256986
112	0x3dea5440	0.11441851
113	0x3d3a2e7b	0.045454483
114	0x3d631477	0.05543944
115	0x3d3ead32	0.04655189
116	0x3de1180b	0.10990914
117	0xbd8dbaae	-0.06920372
118	0xbd4e3cdf	-0.05035102
119	0xbdf7602e	-0.12078892
120	0xbcfc0a41	-0.030766608
121	0x3c020fb6	0.007938316
122	0x3d1665d6	0.036718212
123	0xbdae5802	-0.0851288
124	0xbcab5b21	-0.020917477
125	0xbdf20491	-0.11817277
126	0xbdc3b74c	-0.095564455
127	0x3c55a6c1	0.0130402455
128	0xbdff98b3	-0.12480297
129	0x3c8e63c5	0.017381558
130	0xbdda5d05	-0.10662273
131	0xbd9c5321	-0.07633043
132	0xbcb97844	-0.022640355
133	0xbe0600d3	-0.13086252
134	0x3dbf658b	0.0934554
135	0x3dbfc847	0.09364372
136	0xbd7387b1	-0.059455577
137	0x3d43c73e	0.047797434
138	0x3d3b05fb	0.04566
139	0x3d16a78e	0.036780886
140	0xbc4a7610	-0.01235725
141	0xbdfcaefe	-0.123380646
142	0x3d9289b2	0.071551695
143	0xbdbc185a	-0.09184332
144	0xbc824874	-0.015903689
145	0xbbf9337d	-0.007605015
146	0xbcfc5cf7	-0.030806048
147	0xbcca3c54	-0.02468697
148	0xbdccdade	-0.10002683
149	0x3be3aa2b	0.006947776
150	0xbc3c5ae6	-0.011496281
151	0x3dd58f97	0.10427778
152	0xbd3a08a5	-0.0454184
153	0x3d93d5e1	0.072185285
154	0x3c43786a	0.011930564
155	0xbd2eced4	-0.042677715
156	0xbd3544c3	-0.04425503
157	0xbc572a32	-0.013132619
158	0x3b849a76	0.0040467335
159	0xbd4334b4	-0.047657683
160	0x3cdd39dc	0.027005129
161	0x3da57489	0.08078868
162	0x3ce75a17	0.0282412
163	0x3d5f4bd8	0.05451569
164	0x3d833a11	0.0640756
165	0x3d32942c	0.04359834
166	0x3d5a8966	0.05335369
167	0x3d649ebd	0.055815447
168	0x3dde54ee	0.10856043
169	0xbdb0593d	-0.08610771
170	0x3d4ba9f7	0.049722638
171	0xbc6362da	-0.0138785485
172	0xbc97920f	-0.018502263
173	0xbd61b486	-0.0551038
174	0x3d292365	0.04129352
175	0x3dd8d2c9	0.10587079
176	0xbdd5badb	-0.104360305
177	0x3d267a4a	0.040643968
178	0x3d8f1d75	0.0698804
179	0x3c85dd71	0.016340943
180	0xbca1fe8f	-0.019774703
181	0x3da1dbd4	0.07903257
182	0xbca14b5d	-0.019689256
183	0xbd2f50f7	-0.042801823
184	0xbc0c0534	-0.008546162
185	0x3ca0458c	0.019564413
186	0x3cf9f80b	0.030513784
187	0xbb8af3b4	-0.0042404775
188	0x3d01aa3e	0.031656496
189	0x3c9d8e64	0.019232936
190	0xbd9e142f	-0.077186935
191	0xb9b8ed02	-0.000352718
192	0x3d8248c5	0.06361536
193	0x3c597798	0.013273142
194	0xbb48b064	-0.0030622715
195	0x3d8ec966	0.069720075
196	0xbdcf65af	-0.101268165
197	0xbd5cfc10	-0.053951323
198	0xbcd9f3aa	-0.026605446
199	0x3de53c5f	0.111931555
200	0xbdeeb767	-0.11656075
201	0x3d445f23	0.047942292
202	0xbde59ff0	-0.11212146
203	0xbc7571d5	-0.014980753
204	0x3d461af9	0.048365567
205	0xbca1d072	-0.019752715
206	0x3e08df11	0.13366343
207	0x3b4c5a5e	0.0031181793
208	0xbdacd953	-0.08439889
209	0x3c79e94e	0.015253378
210	0x3d497e29	0.04919258
211	0xb97117f4	-0.00022992474
212	0x3da74011	0.081665166
213	0xbd82b3bb	-0.06381937
214	0x3d46cbdd	0.048534263
215	0x3d898bdf	0.067161314
216	0x3d80e12b	0.062929474
217	0x3c91a7c7	0.017780198
218	0x3d255423	0.040363442
219	0xbdbc2bf0	-0.09188068
220	0xbdb9fff3	-0.090820216
221	0xbc6bd3fa	-0.014393801
222	0xbcfff013	-0.031242406
223	0x3da85ae9	0.08220465
224	0x3d9cef57	0.07662838
225	0x3d91a65e	0.0711181
226	0xbcffbf2d	-0.03121909
227	0xbda87aa6	-0.08226518
228	0xbddc9a8a	-0.107716635
229	0x3d2b9794	0.041892603
230	0xbdd54db1	-0.10415209
231	0xbde3f629	-0.11130936
232	0xbd7417bd	-0.05959295
233	0xbdf6ae1c	-0.120449275
234	0xbd191c2e	-0.03738039
235	0xbd972326	-0.07379751
236	0xbd97bb4a	-0.074087694
237	0x3dd77197	0.105197124
238	0xbcb2ae2a	-0.021811564
239	0x3dc5222a	0.09625657
240	0xbc33fefc	-0.010986086
241	0xbb903eda	-0.0044020237
242	0xbd0e26ba	-0.0347049
243	0xbdc4f111	-0.09616292
244	0xbdbc20e3	-0.0918596
245	0x3d20f541	0.039296392
246	0xbd37c4fc	-0.044865593
247	0xbde71c4a	-0.112846926
248	0x3d413f97	0.047179785
249	0xbce654f6	-0.028116684
250	0xbde63189	-0.11239917
251	0xbe118792	-0.14211872
252	0xbd9a7256	-0.07541339
253	0xbd9e9cd9	-0.0774476
254	0x3e0f4912	0.13992718
255	0x3df5258b	0.119700514

EDMoE.expertnet.0.conv1_1.conv.bias f4 [8]
0	0x3dbf97e8	0.09355146
1	0xbd610e92	-0.054945536
2	0x3c162969	0.009165146
3	0xbd3ac42e	-0.045597248
4	0xbdb6b0c9	-0.08920438
5	0x3d7b4fbc	0.061355338
6	0x3dbd0ee6	0.09231357
7	0xbd811b3f	-0.06304025

EDMoE.expertnet.0.conv1_2.conv.weight f4 [8, 8, 3]
0	0x3d8d65d0	0.06904185
1	0x3d1ce712	0.038306303
2	0x3d8890c5	0.066682376
3	0x3e147598	0.14497983
4	0x3e3ff268	0.18744814
5	0x3e4122a6	0.18860874
6	0xbe38ab68	-0.18034136
7	0xbd772b91	-0.060344283
8	0x3d8c38b9	0.068467565
9	0xbdd46b83	-0.10372069
10	0x3d7b5fdb	0.06137071
11	0xbd6b72ca	-0.05748252
12	0xbbc66d19	-0.006055486
13	0x3de90a74	0.11378947
14	0x3d9928d2	0.07478489
15	0x3e1a6190	0.1507628
16	0x38fe61e5	0.00012129898
17	0x3e08ef7f	0.1337261
18	0x3d702391	0.05862767
19	0xbd349676	-0.044088803
20	0xbe2346ad	-0.1594493
21	0x3e2856ba	0.16439334
22	0xbd99034a	-0.074713305
23	0x3e15e77f	0.1463909
24	0x3de7f586	0.11326127
25	0xbc322ad9	-0.0108744735
26	0xbe2a908b	-0.16656701
27	0x3cc16313	0.023606813
28	0xbdc07c9d	-0.09398768
29	0x3d8ae1bf	0.06781339
30	0xbd7de931	-0.061989967
31	0x3e14ecc0	0.14543438
32	0xbe33b889	-0.17550863
33	0xbdbc5124	-0.09195164
34	0x3c2dcb86	0.010607606
35	0xbd069c54	-0.03286393
36	0x3e48469c	0.19558185
37	0xbcb8a46d	-0.022539342
38	0xbe10f597	-0.14156185
39	0x3e1279fb	0.14304344
40	0x3d1b4784	0.03791
41	0x3e182f95	0.14861901
42	0xbdd7c274	-0.10535136
43	0xbe0fc93c	-0.14041609
44	0xbda35657	-0.079754524
45	0xbc8dea47	-0.017323626
46	0x3d5dfb59	0.054194782
47	0xbe0afa13	-0.13571958
48	0xbc85747c	-0.016290896
49	0xbcabbdd9	-0.02096455
50	0x3e460345	0.19337185
51	0xbdccf0e4	-0.10006884
52	0x3e2db23d	0.16962524
53	0xbe1158c6	-0.1419402
54	0xbd717448	-0.058948785
55	0xbdefafd6	-0.1170346
56	0x3e09183b	0.1338815
57	0xbe0a3505	-0.13496788
58	0x3d83344a	0.06406458
59	0xbdd1c251	-0.10242141
60	0x3e52ad92	0.20574024
61	0x3cea4e30	0.028601736
62	0xbe294f9f	-0.1653428
63	0x3d63914f	0.0555585
64	0x3c32f60f	0.010922923
65	0xbe5e6a8a	-0.21720329
66	0x3d87beca	0.06628187
67	0x3e773450	0.2414105
68	0x3d36c08c	0.04461722
69	0x3cb2d62a	0.021830637
70	0xbcde868b	-0.027163764
71	0x3d83e13a	0.06439443
72	0xbdb5860b	-0.08863457
73	0x3e4e884c	0.2016918
74	0x3e253608	0.16133893
75	0x3d955dbd	0.0729327
76	0xbd9ef01d	-0.07760642
77	0xbe1b3899	-0.15158309
78	0xbdb1f8b3	-0.08690014
79	0x3e404c62	0.18779138
80	0xbe4fa3f8	-0.20277393
81	0xbe2deb2b	-0.1698424
82	0x3d1b03e4	0.037845507
83	0x3db0e2ce	0.086370096
84	0xbe5d8cae	-0.21635696
85	0xbe38d413	-0.1804965
86	0xbccb211f	-0.024796067
87	0xbd5212f1	-0.051287595
88	0x3e1446a1	0.14480068
89	0x3d630781	0.05542708
90	0xbe33c461	-0.17555381
91	0xbe1aca39	-0.15116204
92	0x3e0ac109	0.135502
93	0xbc580ed6	-0.013187131
94	0xbdb51bb3	-0.08843174
95	0x3db6d989	0.0892821
96	0xbd586433	-0.052829932
97	0x3dec85cd	0.11548958
98	0x3d26e295	0.04074343
99	0xbd895e98	-0.067074955
100	0xbe4946cb	-0.19655912
101	0x3dce89cb	0.10084876
102	0xbe05ce71	-0.13067032
103	0xbcfce895	-0.030872623
104	0x3c015d8f	0.007895841
105	0xbdf7f30a	-0.12106903
106	0x3df0217e	0.11725138
107	0xbe37eedf	-0.17962216
108	0x3d3645da	0.04450021
109	0x3c58dd0d	0.013236296
110	0x3d2173fc	0.039417252
111	0xbe54d39d	-0.20783849
112	0x3beb8822	0.007187859
113	0x3d95cd8e	0.07314597
114	0xbe016927	-0.12637769
115	0x3cfecc06	0.031103145
116	0x3ad34cd1	0.0016120916
117	0x3e13736c	0.14399499
118	0xbcec3fd9	-0.028839039
119	0x3c3a6155	0.011375745
120	0xbddc55bc	-0.1075854
121	0xbcf30106	-0.029663574
122	0x3d27ca33	0.040964317
123	0xbe510f37	-0.2041596
124	0x3e2a42a2	0.16626981
125	0x3deb737a	0.11496635
126	0x3da6f96d	0.08153043
127	0x3e01b743	0.12667565
128	0xbd528e45	-0.05140521
129	0x3cff8786	0.031192552
130	0x39d6d32b	0.00040974593
131	0xbe21f61f	-0.15816544
132	0xbd8160cc	-0.06317291
133	0xbdad1914	-0.08452049
134	0xbd17265a	-0.03690181
135	0xbe5eed31	-0.21770169
136	0xbe22c1e4	-0.15894276
137	0xbc9d72e1	-0.019219818
138	0xbd46646b	-0.04843561
139	0xbe56574b	-0.20931737
140	0x3d7220aa	0.059113182
141	0x3df20dd8	0.11819047
142	0x3e2b4d9f	0.16728829
143	0x3e0b0c98	0.13579023
144	0xbe0f1eaa	-0.13976541
145	0xbd667d9b	-0.05627213
146	0xbd955ad5	-0.072927155
147	0xbc2b5b9f	-0.010458856
148	0x3d8955ce	0.06705819
149	0x3d3281cf	0.043580826
150	0x3dfdd7b7	0.1239466
151	0x3dbfdb2f	0.09367978
152	0xbdab715d	-0.08371232
153	0x3e25e8eb	0.16202132
154	0x3e06ea63	0.13175349
155	0x3cdc4289	0.026887195
156	0xbe45c598	-0.19313657
157	0xbdf7caa5	-0.12099198
158	0x3ca3bb01	0.019986631
159	0x3d8fd298	0.070225894
160	0x3e4239b0	0.18967319
161	0x3de8ed5e	0.11373399
162	0x3d98d0e2	0.07461716
163	0x3b4b9f35	0.0031070237
164	0x3e1de5d5	0.15419705
165	0xbd22db76	-0.039760076
166	0x3dbc1845	0.091843165
167	0xbdbeb489	-0.09311778
168	0x3bc20938	0.005921509
169	0x3dff2664	0.12458494
170	0x3d8ca42c	0.06867251
171	0xbd27ce74	-0.040968373
172	0xbb91b234	-0.0044462923
173	0xbde315e2	-0.11088158
174	0x3d7551e1	0.05989254
175	0x3e01a9db	0.12662451
176	0x3d8f4d42	0.06997158
177	0xbe54492e	-0.20731041
178	0xbe0a3a1e	-0.13498732
179	0x3e151321	0.14558078
180	0xbb8a5e72	-0.0042226845
181	0x3dec4230	0.11536062
182	0x3e23b2a9	0.15986122
183	0xbd936c22	-0.07198359
184	0xbde9f557	-0.11423748
185	0xbe575eda	-0.21032277
186	0x3d7c6a36	0.06162473
187	0x3dbd81fa	0.09253307
188	0xbcd14602	-0.025546078
189	0xbe3be644	-0.18349558
190	0xbe0ca3dd	-0.13734384
191	0xbbd07d9b	-0.0063626296
