cls_param/MUUFL/IDNet_MUUFL.pkl (torch, 717814 bytes, 316 tensors)

encoder_pos_embed1 f4 [1, 16, 6, 6]
00000000: 0974 773f cd6a a4be 2da5 483e 2ac0 763f
00000010: f73d 653e 372a 8f3f 8783 08be 07ef aa3f
00000020: 18e5 8dbf e623 5f3f 39f8 0bbf 7920 533f
00000030: d2e4 2d3f de12 b43b 8ec4 873f 761e e2be
00000040: 8278 99bf 982c 633e b36f 0bbf fc0c 1abf
00000050: 4ecc ce3e 3079 5f3d 71fb 24bf ba95 3b3f
00000060: 1177 acbe ad95 f7bf c823 683f 2222 473f
00000070: 1047 a2bf ec7a 453f 5f9e 5d3f 4c9e 97bf
00000080: 6eed 54be 4749 9c3f 13c3 c13e c714 a83f
00000090: 4edb 54be f09d 0b40 7eae 833f 9eec 9c3f
000000a0: bad0 4f3f f3b8 09be 742d f9bf dcd8 0a3f
000000b0: 2bb6 803f 5afb 613f d3d5 483f 80e3 193f
000000c0: 5298 c6bf e073 b9be f9a4 fbbd 58d3 e3bf
000000d0: d115 a5bb 46f0 dc3e 2ce3 d6bf c88f db3f
000000e0: 9ecd 84bf d688 d7bf 93da 25bf 52fb 873f
000000f0: f2ca bc3e 1ac4 f63e a872 8fbf b988 aabe
00000100: 5007 b2bc 4092 6a3b 36b2 fa3f 8353 2d3f
00000110: a4a1 94be 7136 1fbe 1b88 2bbf 7b90 5c3e
00000120: 2395 65bf b5e4 0fbf 84fa 3c3e def5 18be
00000130: 45c3 1a3f c6d4 e9be ce86 6a3f aac2 993f
00000140: 02d6 313e 8a20 83bf b41a 0ebe 9d1a 47bf
00000150: dbb6 f13e f3ad f13f 1d2a 2f3f 49ed c4bf
00000160: d559 bb3e 161e 72bf 00aa 963f f240 1f3e
00000170: 7705 da3e 90a2 7cbf a122 b83e 4f62 4c3e
00000180: 52ab 93bf e1d7 f33e d1b0 82bf 7188 a93f
00000190: 3232 86bc be51 25bf 64c4 1c3f 9421 93bf
000001a0: 78d1 453f 3f67 563e 6547 c4be e8be 533b
000001b0: f7ef 06bf 83f3 813f a682 843f 8fe2 be3d
000001c0: f24d dfbf 8762 a73f ad26 f63e cada c33e
000001d0: cfaf f93f 4faa ef3e 2366 01bf 133f e1be
000001e0: c86f 1940 9490 2e3f c62c c0bf 1f6b 6cbf
000001f0: 840d f93e 9e8c b13f 6c46 35be dc0d 283f
00000200: 18e5 31be 6525 03c0 e6d2 183d c048 f8be
00000210: dcd6 2b3f ed68 8f3f 49c3 963f ad86 fabe
00000220: 5aeb f2bf 3009 08bf f584 ba3e 5fff a53f
00000230: 9f76 5e3f c375 a63d 2e5c 4ebf 6020 123e
00000240: de29 c73e 629c 953f 5b94 d73e c901 c63f
00000250: b44c d0bf 3b01 b4be b05f 41bf 72d5 e6bd
00000260: a3fb 7abf 8c67 063e e48c e6bf e986 693f
00000270: 513f b8bf aee6 cdbe 1bf3 e1be 3a16 f0be
00000280: 0146 33be 5bab ecbe 1d66 b7bd 0012 173f
00000290: 5506 4a3e 7088 d73d aad5 cb3f c502 dd3f
000002a0: 9e88 13be d8d9 3c3f 778f 093f 1bdf 68bf
000002b0: 4e0e 853e 0426 2440 7ec3 143f 8174 993f
000002c0: 5c4b 80bd 7808 e33e 0c1a 00c0 5bea 333e
000002d0: 316c 40bf 6f27 493f 2673 16c0 0dee ee3f
000002e0: cc94 b33f 0e9f 1e3c a117 4ebf 16f1 47bc
000002f0: 3f80 6d3f e39d e43f c9ad 14bc f671 53bf
00000300: 5667 653f cff8 b43e 5714 39bf 606f 953e
00000310: 7d13 703f 0e54 96bf c715 913f 91c8 d6bd
00000320: 7ecd 663f a81b 5b3f ead0 203e f575 fb3d
00000330: 2bf2 963f 2667 86bd 8ceb 17bf 5854 a23e
00000340: f895 a63f c9f8 75bf 7c7b 9d3f 5b9e 7fbf
00000350: 0c1a 9dbf cb69 dbbf 2bbb 813f b604 8bbd
00000360: 1fe3 2abf fcf2 b1bf a355 a3bd 23b4 cf3d
00000370: 3e11 fd3f 381e 1fbf 9f0a 203f e32a 3f3f
00000380: 1a6c f23e 3b19 63bf a92d 653f bfe3 7a3f
00000390: 7c38 86bf c528 14bf 661c da3f d302 c43f
000003a0: 312b 3b3f 40f4 b73f 67b9 95bf 53c1 523f
000003b0: 6e3c 8a3e a7db 13bf 2da5 143f a3db 953e
000003c0: 7680 4e3f ac3e f53d b2e9 2bbf 8d0a e93e
000003d0: d601 b83e 36f3 b4be ee5c ddbf 1d7e 783f
000003e0: f1de 3a40 7be1 b63f 4609 a63f 9832 283d
000003f0: 9836 893f d695 763f b155 3ebe 8321 0ac0
0.9666143 -0.32112733 0.1959426 0.9638697 0.22386919 1.1184758 -0.13331424 1.3354195
-1.1085539 0.8716415 -0.5467563 0.82471424 0.6792728 0.005495413 1.0606859 -0.44163865
-1.1989901 0.2218498 -0.54467314 -0.6017606 0.40390247 0.054558933 -0.6444617 0.7327534
-0.3368459 -1.9342552 0.906796 0.7778646 -1.2677937 0.7714069 0.8656978 -1.1845183
-0.20793697 1.2209862 0.37844142 1.3131341 -0.20786783 2.1815147 1.0287626 1.225971
0.81177866 -0.13449459 -1.9466996 0.5423715 1.0055593 0.8827416 0.7845127 0.6011276
-1.5515234 -0.36221218 -0.122873254 -1.7798872 -0.005038001 0.43152064 -1.6788077 1.7153254
-1.0375249 -1.6838634 -0.6478664 1.0623572 0.36873585 0.4819649 -1.1206865 -0.33307436
-0.021732002 0.0035792738 1.9585636 0.67705554 -0.29029572 -0.15548111 -0.67004555 0.2153949
-0.8968069 -0.56208354 0.18454939 -0.14937541 0.6045421 -0.45670146 0.91611946 1.2012532
0.17366794 -1.0244305 -0.13877374 -0.77774984 0.4720982 1.888121 0.68423635 -1.5384914
0.36591974 -0.9457716 1.177063 0.15552118 0.42582294 -0.9868555 0.3596392 0.19959377
-1.1536658 0.4762564 -1.021021 1.3244764 -0.016381357 -0.64577854 0.6123717 -1.1494622
0.7727275 0.20937823 -0.3833572 0.0032309834 -0.5270991 1.0152439 1.0352371 0.09320556
-1.7445662 1.3076943 0.48076382 0.3825286 1.9506778 0.46809623 -0.50546473 -0.43993434
2.3974476 0.6818936 -1.5013664 -0.92350954 0.48643124 1.3871038 -0.17702645 0.6564615
-0.17372549 -2.0491574 0.037310503 -0.48493004 0.67124724 1.1203896 1.1778346 -0.48930874
-1.8978074 -0.5313902 0.36429563 1.2968558 0.8689975 0.0812793 -0.80609405 0.14270163
0.3889913 1.1688349 0.42105374 1.5469295 -1.6273408 -0.3515719 -0.7553663 -0.1127118
-0.9804022 0.13125437 -1.8011746 0.9122148 -1.4394323 -0.40215057 -0.44130787 -0.46891958
-0.17507173 -0.46224484 -0.089550234 0.5901184 0.19728978 0.1052407 1.592458 1.726647
-0.14407584 0.73769903 0.53734535 -0.9096543 0.25987476 2.5648203 0.581108 1.1988679
-0.06264374 0.443424 -2.0015898 0.17569868 -0.75165087 0.78575796 -2.350778 1.8666397
1.4029784 0.009681476 -0.80504805 -0.012203475 0.92773813 1.7860683 -0.009074637 -0.82595766
0.89610803 0.35346076 -0.7229666 0.29186535 0.93779737 -1.1744401 1.1334771 -0.10487474
0.90157306 0.85589075 0.15704694 0.12278358 1.1792654 -0.06562643 -0.5934379 0.31704974
1.3014517 -0.9608274 1.230331 -0.99851006 -1.2273574 -1.714166 1.0135244 -0.06788008
-0.6675281 -1.3902278 -0.07975318 0.1014178 1.9770887 -0.62155485 0.62516207 0.74674815
0.473481 -0.88710374 0.89522797 0.9800376 -1.0485988 -0.5787471 1.7039917 1.5313362
0.7311278 1.4371414 -1.1697205 0.8232624 0.2699923 -0.5775704 0.5806454 0.29269132
0.80664766 0.11974844 -0.67153466 0.45515862 0.359389 -0.35341805 -1.7293985 0.97067434
2.9198573 1.4287561 1.297158 0.041063875 1.0719786 0.9632238 -0.18587376 -2.1582954

encoder_pos_embed2 f4 [1, 32, 3, 3]
00000000: c916 93be 1473 f03e d1f0 c0be d259 9dbf
00000010: a7fd ff3e fcbf d0be 65aa 3fbf 444e 47bf
00000020: 9a24 28bf 90e8 4dbf 4e64 5c3c 5a95 0040
00000030: 6b16 63bf 40d2 33bf c3d9 653e 0ccd 4ebf
00000040: 9557 f1be 2594 4bbf ee7d f7be a1f3 77be
00000050: 23f8 2bbf e1ce a73e 4541 34bf 4480 15c0
00000060: 91f7 87bf 2905 553f c4cf b6be b4ec 9fbd
00000070: 506a ebbf 6db9 d4bf 6d0b 063e ef9a eabf
00000080: 5af9 bd3e c6dc 65bf 8043 c03f 35ac ecbe
00000090: 646e f9bf c0ee 87be 67dc 433f c089 2e3e
000000a0: e841 35bf 9ddd 663e f075 35bf e965 293f
000000b0: 7e5c 9dbf e36d 8d3f 8c99 963f 78e0 3b3e
000000c0: 4b01 0640 8203 9a3e 2e74 973f 95ee b73e
000000d0: 06c7 b93e 57d7 1140 0a73 1cbf 79f2 7ebe
000000e0: faf1 26be 249f 38be ee02 c4bf a16f bdbf
000000f0: 5df7 293f a714 26bf 59ec bf3e 6116 bd3f
00000100: 1417 32bf a064 41c0 d59a 7cbf 577c acbe
00000110: e022 3d3f 3d90 a1be 231d 9fbf 0dcf 2dbf
00000120: c799 03c0 1f60 023f 5359 85bd 3e90 70bf
00000130: bff7 66be 2953 dc3f 58d4 c83f 9ddd 06bf
00000140: ec8e 64be 9698 8e3f cf81 a13e bcb6 613f
00000150: 83d0 21bf 7929 b3bf 4c62 833f 2e0b b33e
00000160: b615 c0bf 7bce 1140 765c a33f 032e 1cbf
00000170: dad7 db3e 90b2 363f 8f5d e3bf 7e4e 873f
00000180: c2b2 123e 4b12 993f 88bd 5c3f 13ac 923f
00000190: 054f 253d c31c c03e e21f 3ebd 5f06 3bbf
000001a0: 9529 1140 adba a93f 8635 f73f a357 4b3f
000001b0: 10b1 ccbf efbe cc3e ecf2 4e3f 1a3f 223e
000001c0: 9106 dcbe a52b ee3d 74b4 bebf d0d8 1ebf
000001d0: f470 ba3e 74c5 7cbf 4f66 1f3f 3319 4f3f
000001e0: 6c9d 903f 0e00 82bd cd84 b4be f27f 6f3f
000001f0: c439 50bf 5704 7fbe ed09 5abf acee 123f
00000200: 0dad 983e e47d cd3e 6c5a 17c0 bbaf 17bf
00000210: 224e 8ebe 2da2 313f 3985 91bf da45 083f
00000220: e212 1cbe 952d 0040 aa6e 0abf d695 31bf
00000230: c1d4 95b9 1b8a 95be a74c a93f b7c3 5c3f
00000240: c05d 04bf 9e2d 98be b5e1 8f3c 16a5 dbbf
00000250: eb96 3ebf 4558 0cbe 4306 953f 3a77 8ebd
00000260: 8f0f 453f 0ef0 8bbe c3ff c1bf 4743 b4bf
00000270: 0a73 3abf 71dc 6f3f 4f70 4a3e 1514 16bf
00000280: 69f3 943e d1d5 26be fd8d b23f cf9d b6bf
00000290: baa0 7abe bbb7 89be d0df 923d 5ca2 edbf
000002a0: aa31 fbbf 49bd 1c3f e42e 9f3e 8428 033f
000002b0: 2004 9bbf 90f2 cd3c 2251 263f 942c 6fbf
000002c0: 91c2 b23e c390 80bf 2497 8d3d 588e 163f
000002d0: baae 32c0 dbb4 d8be 4a34 d0bd b44a 753f
000002e0: 5e47 f6be 7f6f ef3f c6c2 d93e e3c1 07bf
000002f0: 11d2 4dbf cdcc 883f 2f84 193f a36d 163f
00000300: 23cc b83f 681c 2abc aeef 21be f940 aa3e
00000310: bebf a2bf f4f8 0f3e b4f2 45bf a687 863f
00000320: 9194 f6be 5260 703c 6001 6ebf c27a c4bf
00000330: ad5c 8bbf 4b81 53bf 7785 493f 10b7 84bf
00000340: 8e85 8f3e ea6a 9bbf 9cc4 63bf e469 09bf
00000350: dd26 1240 a0d3 923f 32fc c33e e82b d0bd
00000360: d578 083f e11c f93e d6d7 e03e 4cf4 9abf
00000370: ca33 703f 4f01 e33f c57f 98be e856 93bf
00000380: a86e 3b3f abfc ea3f 48e3 c63e 2607 5abf
00000390: cf8b 4bbf 24d1 833f 088c d63f ce47 a8bf
000003a0: 56e9 673e 2fe0 f53e e18f d43f 8208 b2bf
000003b0: e812 27bf 3fed db3d ad31 52be a31b b9bf
000003c0: f47c bdbe d6f0 75bf 143b c3be 119c e83e
000003d0: 9fef 3e3f 00b0 67bf c880 a9bf 1918 7e3f
000003e0: 952c 70be 65c8 a4bf 015e 513f dd8e ccbf
000003f0: 2c7b 263e 4fe2 863e 6e79 da3f e0ce 8f3f
-0.2872832 0.46962798 -0.37683728 -1.2293036 0.4999821 -0.40771472 -0.74869376 -0.778538
-0.6568085 -0.8043299 0.013451649 2.0091157 -0.8870608 -0.7024269 0.22446351 -0.80781627
-0.47137132 -0.79522926 -0.48338264 -0.24214031 -0.671755 0.32775024 -0.70412093 -2.3359537
-1.0622426 0.83211 -0.35705388 -0.078088194 -1.8391819 -1.6619087 0.13090296 -1.8328532
0.37104303 -0.8979 1.5020599 -0.46225134 -1.9486814 -0.2654934 0.7650818 0.17044735
-0.7080369 0.22545476 -0.70883083 0.6617113 -1.2293851 1.104916 1.1765609 0.18347347
2.093829 0.300808 1.183233 0.3592421 0.36284655 2.2787683 -0.61113036 -0.24897183
-0.16303244 -0.18029457 -1.5313394 -1.4799691 0.6639307 -0.6487526 0.37485006 1.4772455
-0.69566464 -3.0217667 -0.98673755 -0.33688614 0.7388134 -0.31555358 -1.2430767 -0.6789406
-2.0562608 0.5092792 -0.06511178 -0.93970096 -0.22555445 1.7212878 1.5689802 -0.52681905
-0.22320145 1.1140316 0.3154435 0.88169456 -0.6320879 -1.3997031 1.0264373 0.34969467
-1.5006626 2.2782276 1.2762592 -0.6100771 0.4293812 0.71366215 -1.7762927 1.0570829
0.14326003 1.1958708 0.862267 1.1458763 0.040358562 0.37521943 -0.046417125 -0.73056597
2.268163 1.3260094 1.9313209 0.794306 -1.5991535 0.3998942 0.8083942 0.15844384
-0.4297376 0.11629418 -1.489882 -0.6204958 0.364143 -0.9873879 0.62265486 0.80897826
1.1298041 -0.06347667 -0.3525757 0.93554604 -0.81338143 -0.24904 -0.85171396 0.57395434
0.29819527 0.4013511 -2.364894 -0.5925252 -0.27793986 0.69388086 -1.1368781 0.53231585
-0.15241578 2.002782 -0.5407511 -0.69369256 -0.0002857801 -0.2920693 1.3226517 0.8623614
-0.5170555 -0.29722303 0.01756368 -1.7159755 -0.7444903 -0.13705547 1.1642536 -0.069563344
0.76976866 -0.27331585 -1.5156177 -1.4083031 -0.72831786 0.9369574 0.19769405 -0.5862439
0.29091957 -0.16292502 1.3949581 -1.4266909 -0.24475375 -0.26897988 0.07171595 -1.8565173
-1.9624531 0.61226326 0.31090462 0.51233697 -1.2110634 0.025140077 0.6496755 -0.93427396
0.34914067 -1.0044178 0.069135934 0.5881095 -2.7919145 -0.42325482 -0.10166223 0.9581711
-0.48101324 1.8705901 0.42531413 -0.5303022 -0.8039866 1.06875 0.5996732 0.5876104
1.4437298 -0.010382749 -0.15814087 0.33252695 -1.2714765 0.14059812 -0.7732346 1.0510147
-0.48160222 0.014671402 -0.9297085 -1.5349963 -1.0887657 -0.8261916 0.78719276 -1.0368366
0.28031582 -1.2142003 -0.8897188 -0.536772 2.283622 1.1470833 0.38278347 -0.101646245
0.53309375 0.48654845 0.4391467 -1.2105803 0.93829024 1.7734774 -0.2978498 -1.1510897
0.73215723 1.8358358 0.38845277 -0.8516716 -0.79510206 1.02982 1.6761484 -1.3146913
0.22647604 0.480226 1.6606408 -1.3908846 -0.65263224 0.107386105 -0.20526762 -1.4461559
-0.37009394 -0.9607061 -0.3813101 0.4543157 0.7458438 -0.9050293 -1.3242426 0.9925552
-0.23454507 -1.2873656 0.81784064 -1.5981098 0.16257924 0.26344535 1.7068307 1.1235008

encoder_pos_embed f4 [1, 10, 36, 16]
00000000: 19c0 893c a297 93bf a2d5 133f e432 ae3e
00000010: 847e 3abf aa28 30bf 3034 ce3e 395f 3d3f
00000020: df19 b8be a18c 0bbf 37c2 92bf 9083 47bd
00000030: 1478 bebd c2f0 413e bd6a be3f 2f31 6cbf
00000040: 9e5a 52be fa9e 443f b372 8b3f 88e3 c9bf
00000050: 608f e0bf cdc0 0b40 012a 953e 135b 393e
00000060: 3597 243f 1033 8a3f 2596 f3be 719a 053f
00000070: e738 b5bf 82ed 4d3f 7869 7bbf 4112 833f
00000080: 1de6 463f 8bbf 5e3f 71c6 9c3d 61c2 f93f
00000090: f2c5 36bf b7d5 6cbe d582 dcbf 2ef6 50be
000000a0: 04ca 99be d925 2fbf 9dae 2e3f 3f69 df3f
000000b0: 1a67 0cbf 2f55 83bf 769a 2ebf 4f67 a6be
000000c0: fbe6 dd3f 6d00 9f3f 4c44 31bf b2f6 2cbf
000000d0: 9143 4dbf 1ba5 6c3f 167c 7b3d e83b 4c3f
000000e0: e9b0 84bd 5b50 5ac0 254c fe3e 29c0 91bf
000000f0: 6f37 4dbd a16b a13f 5479 1340 f71c 82bf
00000100: c486 203f 0048 9a3d e05a 97bf e4f1 3cbf
00000110: 656a d33f dd24 9d3e 9dc4 1cbf 2e4a 203e
00000120: aa58 5e3e 40f2 563e ca1a 973e 07d1 1f3f
00000130: 6f1f 7a3e 6862 e83c 9ee8 96bf c31a 9c3f
00000140: 0139 12bf 2f6b 343e 5f1e 1a3e be48 7d3f
00000150: 11e5 853f 7ff1 fcbe 533e 10bf 7a3e 483f
00000160: 6c39 52be 191e 2f3f b62c 603f e4b3 8ebf
00000170: ca63 183f 0ccf a9bf a88f 0ebf cef7 17bd
00000180: a411 c73e 29dd 7fbf 3d55 b03f 4e07 2bbf
00000190: e9e6 a63f 99ff 1dbf 64e5 1dbf 48a6 e93f
000001a0: 175e 8f3f a5ba 2040 a79a b13f 6348 36bf
000001b0: 98b0 3abe 43a4 8f3f e1de 36be 18ef 7dbf
000001c0: 6ec2 ed3f 70c7 0240 e535 c6be c0b2 6b3e
000001d0: c644 c0bf 6fed 6b3e f387 703e 39e1 f73e
000001e0: e695 d9bf f7c6 57c0 2f53 a33e 6180 f3bf
000001f0: 5616 48bf 4e87 1640 3025 783f c4d2 df3d
00000200: e51c 763f 074e a7bf 700b 033f 68ab 803f
00000210: 0d82 8bbf 6cb2 903f 7c74 4f3e 47ad 803f
00000220: 9b20 d1bf a7a3 65bf e90c 47bf a11f 4a3e
00000230: 8b7c 0040 e093 7d3f c42c 383d 9fa3 593e
00000240: 516e 863f ce0d a0bf 0253 a13c 3614 30bf
00000250: e2e4 7c3f 9c86 ff3e a739 0dbf c5a9 0dbf
00000260: 5237 483f 96d5 28bf 7653 e9be ae99 573f
00000270: 236f ab3e fe58 e6bf 5fea cabf 9dcd b8be
00000280: 210c 34bf e59e 423f 68ca 00c0 c4c5 7c3f
00000290: 9daa febd e999 913f b2fc 8c3f cecb ba3f
000002a0: 028c e13b c347 d8be 45c8 91bf fb2b a1bf
000002b0: 4c55 93bf 8c3b f53f f9dc 02bf 3367 563f
000002c0: e8f7 183f dacd 9e3e 2638 0e3c 32f0 0abf
000002d0: 8f23 033f 9a60 5f3f a531 11bf adf9 d2be
000002e0: 5f84 c2be 8e98 a53f ac2a 68be 069a a33f
000002f0: 9f3c fe3e 6f66 553e cf1e 48bf 0c31 dc3e
00000300: 3820 9f3e 18e9 dcbe 8263 093f f179 0c3f
00000310: 3ca2 1dbe 82d1 7e3e 938c c2be 5ed3 4c3f
00000320: b2bd 50be b294 da3f 20e4 16c0 738a 81bf
00000330: faf5 26be 5fc8 873f 2c73 903f 2b1b 7fbe
00000340: 4be7 9e3e fb71 db3f ba96 5a3f d834 44bf
00000350: 2dc6 8d3f 5d29 48bf 503f 733f cddd 09c0
00000360: c579 4fbf 7bc7 e93e 506e 993f 71e7 70be
00000370: 31cd fe3f dc24 97bf 549f bebe 9459 70bf
00000380: b557 abbf 13e2 fcbe e809 1cbd 7f2f 33bf
00000390: 7a42 ccbf bbe5 83bf ace1 79bf 313b abbf
000003a0: c91c 27bf 0423 f83d fea9 bebf cc05 00bf
000003b0: 96b3 06c0 db5b b03d 6d27 6bbf 6437 b1bf
000003c0: 431c 9a3e 9c9a 60bf 1770 8cbe 74a7 dd3e
000003d0: 7845 ae3f c03b 8cbf e43d 7cbd 8597 d73e
000003e0: 8a65 b2bf 5c84 f33f 2d06 41bf c583 eabe
000003f0: 09b9 8a3f 44ef 883f 34e2 19bf 65c7 083f
0.016815232 -1.153065 0.5774785 0.340232 -0.728493 -0.6881205 0.4027419 0.73973423
-0.35957238 -0.5451146 -1.146552 -0.048709452 -0.09300247 0.18939498 1.4876324 -0.9226255
-0.2054238 0.7680508 1.0894378 -1.5772562 -1.7543755 2.1836426 0.2913361 0.18101148
0.64293224 1.0796833 -0.4757549 0.52188784 -1.415799 0.80440533 -0.9820781 1.0239946
0.77694875 0.8701102 0.07655037 1.9512445 -0.7139579 -0.231284 -1.7227427 -0.2040641
-0.30036938 -0.68417126 0.6823519 1.7453994 -0.5484482 -1.0260371 -0.6820444 -0.32500693
1.7336115 1.2422005 -0.6924484 -0.6756393 -0.80181223 0.9243943 0.061397634 0.7977891
-0.064790554 -3.4111545 0.4966747 -1.1386768 -0.050101694 1.2610971 2.3042803 -1.0165089
0.62705636 0.07533264 -1.1824608 -0.73806596 1.6516844 0.30692187 -0.6123751 0.15653297
0.2171351 0.20990849 0.29512626 0.62428325 0.24426053 0.028367236 -1.1789739 1.2195667
-0.5711823 0.17619012 0.15050648 0.9893912 1.046053 -0.49402997 -0.563451 0.7822033
-0.20529717 0.684053 0.87568223 -1.1148648 0.59527266 -1.3266311 -0.5568795 -0.03710156
0.38880646 -0.9994684 1.3776013 -0.6680802 1.3039218 -0.61718136 -0.6167815 1.825387
1.1200589 2.5113919 1.3875321 -0.71204203 -0.18231428 1.1222004 -0.17858459 -0.99192953
1.857496 2.0434227 -0.38712993 0.23017406 -1.5020988 0.23039792 0.2348936 0.4841402
-1.699887 -3.3715189 0.31899402 -1.9023553 -0.7815908 2.3520083 0.96931744 0.10928872
0.9613784 -1.3070687 0.5118933 1.0052309 -1.0899063 1.130445 0.20259279 1.005288
-1.6338075 -0.8970284 -0.77754074 0.19738628 2.0076015 0.99053764 0.044964567 0.21253823
1.0502416 -1.2504213 0.019692902 -0.6878084 0.9878675 0.49907386 -0.55166095 -0.5533717
0.7820941 -0.65950906 -0.45571488 0.8421887 0.33483228 -1.7995908 -1.5852774 -0.3609437
-0.7033101 0.76023704 -2.012354 0.98739266 -0.12434886 1.1375095 1.1014616 1.4593446
0.0068831453 -0.4224225 -1.1389242 -1.2591547 -1.1510406 1.9158797 -0.5111843 0.8375122
0.59753275 0.31016427 0.008680379 -0.5427276 0.51226133 0.8725678 -0.56716377 -0.41206113
-0.37991616 1.2937181 -0.22672528 1.2781379 0.49655625 0.20839857 -0.7817201 0.4300617
0.31079268 -0.43146586 0.5366746 0.5487357 -0.15393919 0.24884608 -0.37997875 0.8001002
-0.20384863 1.7076628 -2.3576736 -1.0120376 -0.1630477 1.0608023 1.1285148 -0.24912708
0.31035838 1.7144159 0.8538624 -0.76643133 1.1076103 -0.78188115 0.9501848 -2.1541626
-0.8104518 0.45660004 1.198679 -0.23525788 1.990637 -1.1808124 -0.37230933 -0.93886685
-1.3386141 -0.4939123 -0.038095385 -0.6999435 -1.5957787 -1.0304483 -0.9760997 -1.3377439
-0.652783 0.12116054 -1.4895627 -0.50008845 -2.104711 0.0861127 -0.91857034 -1.3845029
0.30099687 -0.87735915 -0.27429268 0.4329182 1.361495 -1.0955734 -0.06158246 0.42107788
-1.3937237 1.9024768 -0.7540005 -0.45803657 1.0837718 1.0698018 -0.60110784 0.5342925

down1.body.0.weight f4 [8, 16, 3, 3]
00000000: 3f6d 013d c134 903d 176d 0abd 8247 1bbd
00000010: d3bc ecbc cc68 023d 2cca f93c 9c42 a83d
00000020: f20d 823c f63a d73b 7c97 0ebd adf0 f4bc
00000030: a631 d1bd a615 8ebd af07 13bd 6e25 483c
00000040: 0a3d 143d 7bb3 6c3d 5306 9ebd 84d0 54bd
00000050: 4d6b 4b3d e658 663d 1aee e1bc 2108 b03d
00000060: 535a c1bc d7b5 0d3d d537 af3d 9aba d1bd
00000070: fbb1 86bd 5a12 5dbc 613b 40bd f098 883d
00000080: cd6f 8ebd c5e4 51bd 17b6 96bd 4953 cebd
00000090: d843 aebd 33b3 883d b0b7 023d 8e9a f33c
000000a0: f883 433b 45f6 ccbc fa15 f03c 6d40 aabd
000000b0: 7721 6abd bbec 41bd 142c 8d3d bcea 973d
000000c0: fce7 8bbc bf4f 043d 7e24 c53d f110 ea3d
000000d0: b79c 8e3d 20bf 423d 7bac dc3c 8e72 76bd
000000e0: be56 2d3c 003c 9cbd a7c0 75bd f244 8abd
000000f0: 9c24 4e3d 94fa 7a3d eff0 28bd a0a0 ac3d
00000100: 2d09 7c3d 5025 da3b 972c 453d 903d 0a3d
00000110: 7b31 893d 988b cb3d da4a 5cbd 5d57 80bd
00000120: 11e0 823d 88da 963d 55a1 c13d 9cd9 c23d
00000130: eae5 093d dd2a 57bd d5b3 443d ce0a dfbc
00000140: 2949 75bd dbaa a63d d616 613d 9d4e b7bd
00000150: ffe1 2e3b 6435 28bd 8472 efbc caac 4abd
00000160: b292 a33c 14c4 7dbd 0e81 583d b126 7a3d
00000170: 86cf 8f3d 9eb6 773d 3195 a2bd cdc0 72bd
00000180: 18ec 9a3d 795b 063c 2990 9fbd 26dc 63bd
00000190: 079c 723d 4237 853d 7aa9 50bd e11f 53bd
000001a0: 5f2a c7bd 8c15 41bc 3adc 87bd 0389 9cbd
000001b0: 8a06 40bc 2910 653c ca3a 75bd df36 8f3d
000001c0: 1464 7abd 974c 1d3d 427a 4c3d 8b39 b7bd
000001d0: 76cc 35bd b62e d43a b88b 283d e019 513d
000001e0: 1082 0c3d 5868 c5bb d083 23bd a72f fd3c
000001f0: 1859 a2bd 4f45 85bd ae1a 3c3c fda6 d2bc
00000200: 599d b4bc 87e3 26bd 2df3 00bd bdfa 763c
00000210: 64b9 d3bd 2a70 93bc 3c14 c13c 16a4 223c
00000220: 5ead d03c 70e9 4a3b b828 433d f6c5 cc3d
00000230: 58ce be3d f3f2 893d 7b5e da3d 8c2a b03c
00000240: 479f c4bd ee7d 95bd a53a 363d a01f 56bd
00000250: fd34 adbd 1e37 d4bd 8086 00be 2e82 f7bd
00000260: af7d 59bd aaba 6a3d 1b34 753d fec4 76bd
00000270: 3ce8 f13c 6660 a8bd 4b85 96bc 6ae2 73bc
00000280: 5b91 4ebd 039d 1fbd 2bc7 8fbd be2a 9fbd
00000290: 502c e0bc bff6 53bc 36c2 74bd a692 1d3d
000002a0: b9d4 bcbd 2ae7 33bc 71b1 ba3d 74a9 0ebd
000002b0: ffb9 c03d f0eb 723d 8697 70bd 0788 7d3d
000002c0: 754c d73c 1148 99bc 7c87 9f3d c1e8 5abd
000002d0: 67ea 87bc b101 b9bc 73df 6b3d 7aeb 433c
000002e0: 240e 0e3d 2fe2 1d3d 01c3 03bd 64ef 36bd
000002f0: ce67 a4bd 076a 6a3d 32ad 6b3d 1506 8b3d
00000300: b612 85bd cc19 a637 01f1 4ebd 3db9 25bd
00000310: 292d f1bc 5970 323d 1cc8 82bd a661 1e3d
00000320: 902f 513d 458e 363d 2572 7dbd 93a4 71bd
00000330: faa3 05bd 37a3 bc3d f96c fabc 2835 893d
00000340: de32 bf3b 28a3 77bb 777c 693c 4e32 7bbc
00000350: 95df ee3b 2a78 8b3b e08a c9bb 8248 e43b
00000360: 03f4 90bd cd57 81bd c36a 423d 6b55 47bd
00000370: 38a9 ec3a 086e 9e3d 0954 743d 3f11 063d
00000380: 3e48 8dbd 61fc cb3c d4d3 83bd 8462 cebc
00000390: 0d6d 28bd f73d 0dbd a81e 4a3b e175 a43d
000003a0: bc27 133c 4641 b03d 3d2d 543d 284f 82bd
000003b0: 923c 383d 4061 4abd 33a5 b3bc 2ba0 1d3d
000003c0: d142 463d e65e c73d 5d46 a93b 8f69 633c
000003d0: b484 3f3d 8555 97bd 6d3b 493d 995f a6bd
000003e0: 7818 acbb 6f1e 2cbd 0149 65bd 8f33 7f3c
000003f0: 03d1 2f3d c38c 80bd 2d6e b1bd d790 86bd
0.031598326 0.07041312 -0.033795442 -0.037909992 -0.028898632 0.031838223 0.03049191 0.0821583
0.01587579 0.006568308 -0.034812436 -0.02989992 -0.10214548 -0.06937723 -0.035896 0.012215955
0.036191024 0.057788353 -0.0771605 -0.05195667 0.049662877 0.056237124 -0.027579356 0.085953005
-0.02360264 0.034597244 0.08555571 -0.102406695 -0.06576916 -0.013493145 -0.04693163 0.066697955
-0.06954918 -0.051243562 -0.0735895 -0.10074479 -0.08509034 0.066748045 0.03191346 0.029736783
0.0029833298 -0.025019774 0.029307354 -0.083130695 -0.05716082 -0.047344904 0.06893173 0.07417819
-0.017078392 0.032302614 0.09626101 0.114290126 0.06963485 0.047545552 0.026937714 -0.06016784
0.010579763 -0.076286316 -0.05999818 -0.067514315 0.050327882 0.061274126 -0.041245397 0.08429074
0.06153219 0.00665728 0.048138227 0.033750117 0.06698891 0.09938735 -0.05378232 -0.06266663
0.063903935 0.073659 0.094546 0.09514162 0.03366653 -0.052531112 0.048023064 -0.027226832
-0.059884224 0.08138057 0.05495342 -0.08950541 0.0026684997 -0.041066542 -0.02922941 -0.04948119
0.01996741 -0.061954573 0.05285745 0.061072055 0.07022004 0.06047689 -0.07938612 -0.0592659
0.075645626 0.00820052 -0.07791168 -0.05562987 0.05923083 0.0650468 -0.050942875 -0.051544074
-0.097248785 -0.011784922 -0.06633802 -0.076433204 -0.011720309 0.013980904 -0.05987052 0.06992888
-0.0611306 0.03840312 0.04992128 -0.08946522 -0.044384442 0.0016188237 0.04114887 0.051050067
0.034303725 -0.0060244016 -0.039920628 0.030906511 -0.079271495 -0.0650736 0.01148097 -0.025714392
-0.022047685 -0.04074433 -0.03148191 0.015074429 -0.10338095 -0.01799782 0.023569219 0.009926816
0.025473293 0.0030961893 0.047646254 0.099986956 0.09316701 0.06735792 0.10662552 0.021504663
-0.09600692 -0.0729941 0.04448952 -0.052276254 -0.08457372 -0.10362075 -0.12551308 -0.12085377
-0.053098377 0.057306923 0.059864145 -0.06024646 0.029529683 -0.082215115 -0.018374106 -0.014885524
-0.05043159 -0.038968097 -0.0702041 -0.07771824 -0.02736488 -0.012937247 -0.059755526 0.038469933
-0.09220261 -0.010980407 0.091158755 -0.03482957 0.09410476 0.05930704 -0.058738254 0.061897304
0.026281575 -0.018711122 0.077895135 -0.053444628 -0.016591264 -0.022583814 0.057586145 0.011957997
0.034681454 0.038545784 -0.032168392 -0.044661894 -0.08027612 0.05723002 0.05753822 0.067882694
-0.064977095 1.9800755e-05 -0.050522808 -0.04045986 -0.02944048 0.043564174 -0.06385824 0.038667344
0.05107075 0.044569273 -0.061876435 -0.05899484 -0.032627083 0.09210818 -0.03056954 0.06699592
0.0058349213 -0.0037786458 0.014250866 -0.015331818 0.0072898366 0.004256268 -0.0061505884 0.0069666514
-0.070777915 -0.06315575 0.047465097 -0.048665445 0.0018055802 0.077358305 0.059650455 0.03273129
-0.06898545 0.024900617 -0.064368874 -0.02519346 -0.041119624 -0.034482922 0.0030841026 0.08030296
0.008981641 0.086062 0.051800955 -0.06362754 0.04497964 -0.04940915 -0.021929359 0.038482826
0.048403565 0.09734897 0.0051658587 0.013880148 0.046757415 -0.073893584 0.04912894 -0.081237026
-0.0052519403 -0.04202121 -0.055977825 0.015576257 0.04292394 -0.06276848 -0.086635925 -0.06570595

down2.body.0.weight f4 [8, 16, 3, 3]
00000000: 88db 36bd 83ad 1a3c 087f b33d 717e 75bd
00000010: 8ea0 98bc 8800 993d e198 73bc 1f0b 193b
00000020: f6eb 95bd f8e7 16bd 0cfe 0cbd 864d 5f3d
00000030: 2848 873c 45be 86bd 91eb b63c e083 15bc
00000040: 1419 63bd e66f febc 0b2e 6ebb 3097 213d
00000050: adee 8bbd aa08 aebd 5bb1 25bd c0eb 8bbc
00000060: b4e4 48bb 56ce 91bb d76e 6ebc b7c6 16bd
00000070: 5cc4 21bb ad99 35bc 7bd3 213d e87a 62bd
00000080: b842 03bd 325f 8abd cf33 923b 3190 af3d
00000090: c516 7d3d 7439 67bd d0e0 ce3b 86f8 6e3d
000000a0: 9a2c f23b 563e 603d 0ac3 53bb 7332 44bd
000000b0: 4196 833d fec5 71bc be0f 123d 83e4 bebc
000000c0: b940 123d b8ab b83d 1f13 1f3d cb55 54bd
000000d0: feab 80bb b8e5 a9bc 86da 7abd bee2 8b3d
000000e0: 2650 b53b 9f3d 36bd 3d7a 2abd 4e53 2abd
000000f0: 243e f03c 089d 0cbd 72d8 51bd 4215 8dbd
00000100: 79c2 d63c 0073 553d c1eb 68bd 8bac 813c
00000110: 7698 b43d 0bf5 713c 56be d1bc 09c3 5d3c
00000120: 2397 5cbc 8b1b 173d 810d e7bc 2b05 553d
00000130: 5da0 2e3d 66db d63b 683b ad3d 58a7 e93d
00000140: 8bfd fb3b 97b7 78bc 8725 883d 8c7c 98bc
00000150: 50fe 1a3d ab42 cf3c 658b 5e3d a4b2 60bd
00000160: 4403 31bd 9a67 743d 825c 8b3c 7ddc a7bd
00000170: 2b7e 82bd 9685 a1bd ce6c 5bbd 4619 c0bc
00000180: 4fbb 423d cff0 a7bc ad38 f43c 993d 943d
00000190: 5237 323d 0dee 81bd 975d 953c 6936 1f3d
000001a0: 2504 7f3d dda8 4dbd 60c5 873d 2c85 9d3d
000001b0: 0972 8ebd 80d4 bf3c f0d4 ad3d 40e0 edbc
000001c0: 4e92 073d 75f6 fa3c 4bca 563c 6ea3 9a3d
000001d0: 4eef 933d 1686 453d 55bb efbc 3924 243d
000001e0: 99ca 86bd ae59 06bd d3cc 793c 3e56 c7b9
000001f0: dbbf aa3d d599 843d c7eb 963d 9335 713d
00000200: 1a4b 3dbd e129 e239 e54f ba3c e8a2 d03c
00000210: fcc5 253d e09b 20bd 02bc 07bd 6729 373d
00000220: 37d6 b1bc 538a 92bd 50d3 083d 12be 6c3d
00000230: 652b a3bc 1824 a3bb f528 23bd 0517 e1bc
00000240: d35e 003c 849d cbbc ee7f 7e3d 18d6 05bd
00000250: ed0f 9d3c 43b2 883c d3ad 443d bb51 953d
00000260: 356b 933d 0a33 283d 5d17 31bd 5010 6abd
00000270: 2e58 7bbd aaa1 9dba daf2 913d a523 12ba
00000280: b439 b8bc e68e 55bd 0ad3 cc3c d027 853d
00000290: 8deb 33bd 144e 22bd b0e5 203d bd1a cd3c
000002a0: 2fca dfbc 3c94 a73c 9097 7d3c 485a 6fbd
000002b0: bb22 a3bd fef6 093d ab24 0ebd 5351 6cbd
000002c0: bec0 40bd 8ed6 5cbd 743b 25bd 3c73 a7bd
000002d0: 9a64 703d a69c 5d3d 197d 46bc 0fc7 9ebc
000002e0: 9848 403d f5b9 85bc d6ef cd3b 49a7 943c
000002f0: e4b6 52bd f729 e73c 107e 8a3b caa2 b73d
00000300: ba67 d8bc b5f9 06bd 94bd 5c3d 6fbe e9bd
00000310: 2630 f7ba 65b2 453d 4e17 01bd 3b2b 823d
00000320: c3fe 9c3d acc0 c93d 475c bf3c 789e 763d
00000330: 492e cabc a6d5 e7ba b8c4 cc3c d2b8 e53c
00000340: 59dd 673d a8e8 a13d 4333 0dbd 2ea1 7b3d
00000350: f986 273d 7395 863d 393d 863d 19c6 b8bc
00000360: fd28 5dbd b7a3 8e3d c61b 4fbd d91e 7a3c
00000370: 9535 98bd 7fe1 68bc a17e 7dbc 6d85 8ebc
00000380: 1a76 0fbd a6ef 5d3c 0007 c43c 5747 4c3d
00000390: 319c bf3d e7aa 02bd 15d3 3abb 8127 24bd
000003a0: aa22 473d cb0e a63d 340e d6ba e8cd 21bd
000003b0: 01bb 2fbd 574a 253d 4bb7 643a d8ba 3c3d
000003c0: 6fe0 383d 5566 363d 018e af3c 3111 1ebd
000003d0: 555d d13c b97d f2bc 546c 8a3c b68d bbbc
000003e0: cf8f 60bc c51d 95bd 492e 8fbd 0be5 e73b
000003f0: bc1f 0c3c e344 dbb9 a884 503d 4011 edbc
-0.044642955 0.0094407825 0.08764464 -0.059935037 -0.018631246 0.074708045 -0.014867992 0.0023352576
-0.073203966 -0.036842316 -0.034421965 0.05451729 0.016513899 -0.0657926 0.022329124 -0.00912568
-0.05544384 -0.031059217 -0.0036343362 0.039450824 -0.06832633 -0.08497746 -0.040452342 -0.017080188
-0.0030653896 -0.004449646 -0.014552793 -0.036810603 -0.002468369 -0.011084002 0.039508324 -0.055292994
-0.03204605 -0.06756438 0.0044617425 0.08572424 0.061789293 -0.056451276 0.006313421 0.05834248
0.007390571 0.05474695 -0.0032312297 -0.047899675 0.06425143 -0.014756678 0.035659544 -0.023302322
0.035706256 0.09017128 0.038836595 -0.05183963 -0.003926753 -0.020739421 -0.061243556 0.06830357
0.005533236 -0.04449236 -0.04162048 -0.04158335 0.029326506 -0.034329444 -0.05123181 -0.0688882
0.026215779 0.052111626 -0.056865457 0.015829345 0.08818142 0.014767895 -0.025603455 0.01353527
-0.013463768 0.0368915 -0.028204681 0.05200688 0.042633403 0.006556916 0.084585965 0.114088714
0.007690137 -0.01518049 0.06647783 -0.018614076 0.037840188 0.025300344 0.054332156 -0.054857865
-0.043216005 0.059669115 0.017011885 -0.08196352 -0.06371721 -0.078868076 -0.05357056 -0.023449551
0.047541913 -0.020500569 0.029812181 0.07238311 0.04350979 -0.06344233 0.018233104 0.03887025
0.062259812 -0.05020987 0.06629443 0.07691416 -0.06955344 0.023416758 0.0848788 -0.029037595
0.03309851 0.030635098 0.013109754 0.07550703 0.07223378 0.048223577 -0.029264132 0.040073607
-0.06581611 -0.03280037 0.015246588 -0.00038020493 0.08337375 0.06474654 0.0736919 0.058888983
-0.0462142 0.0004313728 0.022743175 0.025468305 0.040472016 -0.039211154 -0.033138283 0.04471722
-0.02170859 -0.071552895 0.03340465 0.057798453 -0.019918153 -0.004978668 -0.03983398 -0.027476797
0.007835108 -0.024855383 0.062133722 -0.03267488 0.019172633 0.016686564 0.048017334 0.072909795
0.071981825 0.0410643 -0.04323517 -0.057144463 -0.06136339 -0.0012026329 0.071263984 -0.00055747695
-0.022488452 -0.05213823 0.025002975 0.06501734 -0.04392581 -0.039625242 0.039281547 0.025037164
-0.027318088 0.020456426 0.01547803 -0.05843571 -0.07965609 0.033682816 -0.034702938 -0.057694744
-0.047058813 -0.053915553 -0.040339902 -0.08176276 0.05868969 0.05410447 -0.012114787 -0.019382028
0.04694423 -0.016324023 0.006284694 0.018146174 -0.05144395 0.028218253 0.0042264536 0.089665964
-0.026416648 -0.032952983 0.053891733 -0.114132755 -0.0018858954 0.048265833 -0.031516366 0.06355902
0.076657794 0.09851202 0.023359431 0.06020972 -0.024680274 -0.0017687574 0.024996147 0.02804223
0.056607578 0.07905704 -0.034472715 0.06143301 0.040900204 0.06571474 0.06554646 -0.022555398
-0.053994168 0.0696482 -0.050563596 0.015266144 -0.07432095 -0.014213919 -0.015472085 -0.017397607
-0.03502474 0.013545906 0.02392912 0.049872722 0.09355963 -0.031901266 -0.0028507162 -0.040076736
0.048617043 0.0810829 -0.0016331137 -0.039503008 -0.04290295 0.0403541 0.00087248225 0.046076626
0.04513591 0.044531185 0.021430017 -0.038590614 0.0255572 -0.029600965 0.016897358 -0.022894721
-0.013706162 -0.07281069 -0.0699125 0.0070768646 0.008552488 -0.0004182226 0.05090776 -0.02893889

EDMoE.gate.fc0.weight f4 [10, 8]
00000000: 2384 abbe 5532 a2be f4a0 513e 19cc 55be
00000010: 074d 843e 589d e13d 5fc1 b53d d4cd 8f3e
00000020: 66ad a7be 418f 843e 0cd1 ea3d 089b 72be
00000030: 3d2d b03d cdcc c9bd 9e51 11be 12d7 1cbd
00000040: 45b0 2abe 3a4a 9e3e c1cd 9b3e 597c 1abd
00000050: 1386 a0be de2e b1bc 455c bf3c 88fe 713e
00000060: 525f 3a3c 65bd d23d 8a1f c03d da6b 4dbe
00000070: 5991 60be 28ca a1be f4f3 35bb a144 e03d
00000080: fff0 cdbc 97b5 af3e 7720 8abd 703d 6cbe
00000090: 5c5c 713d 80e8 cbbd d086 46bd 0f66 af3e
000000a0: 6234 26bc c120 9e3e 0265 413d b0af 06be
000000b0: 4cb7 843e 483a 4ebe e7a8 3f3c f6c0 a23d
000000c0: ce7e 223e eb04 a7be 9a14 8e3c 577a bbbd
000000d0: d3bb 6a3e 859c f33d a11a 113e e7ad 593e
000000e0: 6f1b a2bd ac90 b9bc 3239 913e 4de6 91be
000000f0: 8e3f 7abe 30e1 d33c db69 0fbe e2df a53c
00000100: bee7 9f3e 18e0 27bd e557 9abe 1d93 24be
00000110: fd3d a63e 7512 9fbd f6be 1ebe 95f6 223e
00000120: ad46 333d de99 9fbe 20c0 963e 79df 4b3e
00000130: dd56 9d3e 896d 1e3e 2120 f4bd 805f ecbd
-0.3349925 -0.31679025 0.20471555 -0.20878638 0.25840017 0.11016339 0.08874773 0.28086722
-0.3274948 0.25890544 0.11465654 -0.23691952 0.086023785 -0.09853516 -0.1419129 -0.038291045
-0.16668804 0.30916005 0.30430415 -0.037716243 -0.3135229 -0.021628793 0.023359427 0.23632252
0.011375265 0.102900304 0.093810156 -0.20060673 -0.21930446 -0.31599545 -0.0027763816 0.1095059
-0.02513933 0.3431823 -0.067444734 -0.23070312 0.05892597 -0.09956455 -0.04846841 0.34257552
-0.010144325 0.30884364 0.04721547 -0.13152957 0.25921094 -0.2013942 0.011697984 0.07946961
0.15868685 -0.3262094 0.017343808 -0.09154194 0.22923212 0.11895088 0.14170314 0.21257745
-0.07915389 -0.022651993 0.2836395 -0.28496018 -0.24438307 0.025864214 -0.14005224 0.020248357
0.31231493 -0.040985197 -0.30145183 -0.16071744 0.32469168 -0.07767192 -0.15502533 0.15914376
0.043768574 -0.3117208 0.29443455 0.19909467 0.30730334 0.15471472 -0.119201906 -0.11541653

EDMoE.gate.fc0.bias f4 [10]
00000000: b373 2f3e 7d5d 8cbd 39f5 8d3d d567 afbe
00000010: bbf6 32be 777a 063e eac8 8ebc e30c 2ebe
00000020: b4e5 9dbe e618 663e
0.1713398 -0.06853769 0.06931538 -0.34258905 -0.17476933 0.13132654 -0.017429788 -0.16997103
-0.30839312 0.22470436

EDMoE.gate.fc1.weight f4 [10, 8]
00000000: 0db7 97bb c4fd 1f3b 2eff 0c3c f7c9 9ebc
00000010: ef95 8bbc a049 083c dc81 a0bb e5e6 03bd
00000020: 64b4 b33a 8215 973c c778 40bc f299 0b3d
00000030: f400 b13c 5b06 aa3c f84b 13bd 7334 713d
00000040: 8aed d3bc ff37 df3c b408 963c f56e dc3b
00000050: 66cb b3bb 4dbc fdbc 5e50 6e3c 3a15 cbbc
00000060: 7c23 fabb 68d1 c2bc 0074 c93c 5d0d 13bd
00000070: 5908 81bc fce7 3dbd 112a 0dbd a8e6 15bd
00000080: 3a69 03bd 40d7 2f3c 9415 4b3c 80fc a8bb
00000090: a7d6 07bd 067c d937 1740 973d 22d4 acbc
000000a0: a557 9b3b 7f75 f33b ad31 d23a 764b 6bbb
000000b0: 71bd 6cbc 1adb 493c 4a48 263d 35ae 2cbc
000000c0: 3ac3 323c 45ab f9bc 8b76 2ebc 4e40 f53c
000000d0: 3fb1 43bc a57f 3d3b e14f 53bc 3866 1e3d
000000e0: 1263 fd3c ab44 e6bb 69f6 66bc c51d 803b
000000f0: ef96 0f3c 1a19 903c ea76 e7bc 546b b63c
00000100: 3a25 ad3b eb13 c63c 685d 31bc e036 6e3a
00000110: 229b 553d 9aab 2a3c 4c54 64bc a195 743b
00000120: 97da ba3b 6e26 e7bc 728b b9bc 49d2 96bc
00000130: 0bbe 103c db2a c8bb cbc7 ec3c cc25 143c
-0.0046299757 0.002441273 0.008605761 -0.019383414 -0.017039267 0.008318335 -0.004898293 -0.03220262
0.0013710377 0.018442873 -0.011747546 0.03408236 0.0216069 0.020754984 -0.03596112 0.05888791
-0.025870103 0.02724838 0.018314697 0.0067270943 -0.0054868935 -0.030973578 0.014545528 -0.024790395
-0.0076336246 -0.023781493 0.024591446 -0.035901416 -0.01575105 -0.046363816 -0.034463946 -0.036596924
-0.032082774 0.010732472 0.012395281 -0.0051570535 -0.033163693 2.5926169e-05 0.07385271 -0.021097247
0.0047406727 0.007429778 0.0016036533 -0.0035903133 -0.014449463 0.012320304 0.040596284 -0.010539581
0.010910803 -0.030477175 -0.01064838 0.02993789 -0.011944114 0.0028915193 -0.012897463 0.038671702
0.03093103 -0.007027229 -0.014096835 0.003909799 0.008764013 0.017590094 -0.028254945 0.022267975
0.005283979 0.02417942 -0.010825492 0.00090871565 0.0521499 0.01041689 -0.013936114 0.003732063
0.0057023275 -0.028216567 -0.0226495 -0.018410819 0.008834372 -0.0061086244 0.028903862 0.009042215

EDMoE.gate.fc1.bias f4 [10]
00000000: bc19 6a3e 671a 30be 8942 9e3e 8fd3 15be
00000010: 4a81 a6be 2ef5 163e 57d6 57be 8e4c 81bd
00000020: 10b6 e7bd 6ef7 c1bc
0.2286138 -0.17197572 0.30910137 -0.14631484 -0.32520515 0.14741966 -0.21077858 -0.0631343
-0.113140225 -0.023677554

EDMoE.expertnet.0.conv1_1.conv.weight f4 [8, 8, 3, 3]
00000000: 20a2 d6bd 06a4 c4bd b8f0 7b3d 4fc3 ecbc
00000010: 9bf3 8ebd de03 f7ba b627 ebbd ebd0 873c
00000020: c8fe 6b3d bd6b 043e 107c a8bd 7237 5cbc
00000030: 6add 873d 8524 d93d 9514 a4bd 08b6 5f3d
00000040: 7cab 333d e8be 913d 8aeb f4bd 2e0b 9a3d
00000050: eda8 9cbd 9c92 ccbd 802f bc3c 57bf 9d3d
00000060: a634 f7bd dae6 123d d695 edbc 5251 2b3d
00000070: 3c2f c93d 96f4 fa3c 50b9 81bd f6b0 0ebd
00000080: a32f a53b bcda a4bd 8973 a63c 9da6 7bbd
00000090: 10b8 fabc 9fa4 8b3d 7daf 85bd 40bd 5cbd
000000a0: cb1e 583d 49c7 c6bd d8ac da3d 4341 9fbd
000000b0: 5ee5 033d e446 933c 7608 ed3c 430d 94bd
000000c0: 051f 323d 070a 4c3d c871 c03d 581b b2bd
000000d0: b79c 92bd 21d3 003d eacc ccbc d748 b4bd
000000e0: 1e9b d2bd bd4a a9bd 64cc a5bd 6edf 10bd
000000f0: 8639 b5bd 053d e3bd 3b16 b03b f7c7 883d
00000100: cdc1 12bd 65b0 1f3c 678b adbb 6185 5d3d
00000110: b12d a2bd 1850 0b3c 574b f43d 5aed b03d
00000120: af7d f4bd 2ba7 b7bc df90 3d3c 3e4d 21bd
00000130: 39a3 9bbd a285 a7bd d123 a83d 1647 f7bc
00000140: 01bd b1bb 9714 a53c e8b0 b2bd 7529 28bc
00000150: a195 2b3d e381 8abd ddac c53c f7d8 aabc
00000160: 2c61 0d3d ebb0 233d fcbd cb3c 4653 88ba
00000170: 4a74 d4bd aef2 2b3d f074 903d 8543 15bd
00000180: aacb e4bd 5402 b33d 6ac4 e3bc abf1 c2ba
00000190: 5856 60bd 77d0 7f3d fff2 cb3d 7f85 943d
000001a0: 6b85 0fbd 18e4 6b3d bd71 063d b407 d63c
000001b0: adb1 a7bd cd9e 46bd 6b1b c9bd 52bd c33d
000001c0: 2e39 ea3d d444 343d cd69 5b3d 5f6b 153d
000001d0: 3179 e13d 8d46 a3bd 337a 82bd 0eb0 07be
000001e0: 53d1 3fbd 78ff 013c 0420 fe3c bcf8 cbbd
000001f0: e9b1 0dbd 22c3 fcbd de6f cabd d280 0a3c
00000200: 5a0e f3bd 468c 723c 5d47 dabd dbdc a0bd
00000210: 48ce fabc 2e38 0abe f424 b93d 3b34 be3d
00000220: fea2 b3bd afe5 163d fcdf 563d 5097 163d
00000230: ec21 b6bc ac3f f2bd 1ba0 9a3d 3223 bdbd
00000240: 7c94 9abc 0165 f2bb 0635 2abd e94d 18bd
00000250: 36c5 ccbd cada 6ebb dec7 e5bc 4586 bf3d
00000260: ad68 33bd 0c76 ad3d 8137 883c 4139 37bd
00000270: 6b26 10bd 8a14 57bc 0a5b 513c 2439 21bd
00000280: c28b 193d 3502 b63d 848b 473c 703e 463d
00000290: cc44 573d b45a c33c be73 5a3d 19e3 283d
000002a0: 625f cc3d 2942 bcbd 5a11 053d a844 d6bc
000002b0: 71d0 07bd 312a 8fbd eb6f e93c 21bd d83d
000002c0: a893 f7bd f5fd 193d d495 893d 1020 62bb
000002d0: fba0 fdbb f2ea a53d 8d1f 9cbc 805a 2bbd
000002e0: f6f4 0bbc 93ea 6e3c c1b4 093d e8e5 9f3b
000002f0: 487b 1c3d 6d06 cb3c 0826 a1bd cda2 89ba
00000300: 8f01 853d f061 593c cf42 f9ba 6bca a13d
00000310: 6b1b bebd 0ffe 67bd 8d45 94bc f893 e43d
00000320: 5a33 e5bd 50b8 3a3d 488a e5bd 9bec 6fbc
00000330: bd8c 8f3d f80e 03bb 6040 0d3e e576 27bc
00000340: add2 bbbd 2ffb 04ba dd77 123d e2fc 70b9
00000350: e1e4 903d 3f36 90bd 7058 d93c af49 673d
00000360: a694 4f3d fba8 863a c4a6 ff3c d8f2 dbbd
00000370: 4bea b9bd 72e8 b4bc 291a 5bbd 4ba2 9d3d
00000380: 20ec 853d 33c5 833d f38b 51bd 5511 d9bd
00000390: 0b1d fabd 5687 2b3d 8da3 e1bd 49be e9bd
000003a0: 05eb 88bd 57a6 0dbe ab15 fdbc 1fc4 77bd
000003b0: 294f 95bd ab23 e43d ec9d b2bc ff01 ae3d
000003c0: a1b5 5abc 1c3d 27bb 438c 27bd 9c65 c6bd
000003d0: 47b5 a4bd 991f 603d f2bf 76bd 3801 e7bd
000003e0: b9d3 833d dda9 d8bc ed82 e0bd 3864 fdbd
000003f0: 75ba b7bd 3ee7 9bbd 6f53 fb3d abd7 df3d
-0.10480142 -0.096015975 0.061508864 -0.028901724 -0.06980058 -0.0018845757 -0.11482184 0.016579112
0.057616025 0.12931724 -0.08226788 -0.013440954 0.06634028 0.10602669 -0.08011738 0.054616958
0.043864712 0.071164906 -0.11958988 0.075216636 -0.076494075 -0.09988901 0.022971869 0.07702511
-0.12070589 0.03586469 -0.029002111 0.0418256 0.09823462 0.030634206 -0.06334174 -0.03483673
0.005041079 -0.08049533 0.020318763 -0.06143819 -0.030605346 0.06818508 -0.06527612 -0.05389142
0.05276374 -0.097059794 0.106774986 -0.077761196 0.032201163 0.01797814 0.028934699 -0.07229092
0.043486614 0.04981425 0.09396702 -0.08696622 -0.07158797 0.03145135 -0.025000054 -0.088029556
-0.102834925 -0.08266208 -0.08095625 -0.03536933 -0.08848862 -0.11095623 0.005373744 0.06678765
-0.035829354 0.009746646 -0.005296159 0.05408228 -0.07918871 0.008502983 0.119284324 0.08639021
-0.11938035 -0.02241858 0.0115701845 -0.039380305 -0.075994916 -0.08179785 0.082099564 -0.030185264
-0.0054241423 0.02015142 -0.087251484 -0.01026379 0.041890744 -0.06763055 0.02413028 -0.02085541
0.0345165 0.039963644 0.024870865 -0.0010400794 -0.10373743 0.041979484 0.07053554 -0.036441345
-0.11171658 0.087406784 -0.027803618 -0.0014873048 -0.054769844 0.062454667 0.09958457 0.07252025
-0.035039347 0.057590574 0.032823313 0.02612672 -0.08188186 -0.048491288 -0.09819683 0.09557594
0.114366874 0.044010952 0.053567696 0.03647935 0.110094436 -0.07972441 -0.06370964 -0.13250753
-0.046830487 0.007934444 0.031021126 -0.09959552 -0.034593496 -0.12341906 -0.09884618 0.008453565
-0.11867972 0.014803952 -0.10658143 -0.07854625 -0.03061594 -0.13497993 0.090402514 0.09287306
-0.08771323 0.036840137 0.052459702 0.036765397 -0.022232972 -0.11828551 0.07550069 -0.092352286
-0.018869631 -0.0073972945 -0.041554473 -0.037183676 -0.099985525 -0.0036446326 -0.028049406 0.09351782
-0.043801 0.08469781 0.016628029 -0.044732336 -0.03519289 -0.0131274555 0.012778053 -0.039361134
0.0374868 0.0888714 0.012179259 0.04839939 0.052555844 0.023846962 0.053333037 0.041232202
0.0997913 -0.091923065 0.03248725 -0.026155785 -0.03315777 -0.06990469 0.02849575 0.105829485
-0.1208871 0.037595708 0.067180306 -0.0034503974 -0.0077401376 0.08101453 -0.019058013 -0.041834354
-0.00854229 0.014582294 0.033619646 0.004879702 0.038203508 0.024783337 -0.07868582 -0.0010500789
0.06494438 0.013267979 -0.0019017103 0.07899936 -0.09282573 -0.056638774 -0.01809957 0.11161035
-0.11191435 0.04558593 -0.11208016 -0.0146438135 0.070092656 -0.0019997936 0.13794088 -0.010221218
-0.091710426 -0.00050728297 0.03575884 -0.0002298239 0.07074905 -0.070415966 0.026531428 0.056466755
0.05067887 0.0010273749 0.03120745 -0.10739678 -0.09077891 -0.022083495 -0.053491745 0.076969706
0.06539178 0.06434097 -0.051158857 -0.10599009 -0.12212571 0.041877113 -0.11017523 -0.11413247
-0.066854514 -0.13832985 -0.030894121 -0.06048977 -0.07290489 0.111396156 -0.021803819 0.084964745
-0.013348968 -0.0025518602 -0.04090525 -0.09687349 -0.080423884 0.054717634 -0.060241647 -0.11279529
0.06436867 -0.026448185 -0.10962472 -0.12372631 -0.08971111 -0.07612465 0.12271773 0.10929807

EDMoE.expertnet.0.conv1_1.conv.bias f4 [8]
00000000: 271f c03d 027e 66bd de5f 0e3c fd85 39bd
00000010: 6214 b7bd 882c 7b3d 4016 bd3d d3e4 80bd
0.09380942 -0.056272514 0.008689849 -0.045293797 -0.089394346 0.061321765 0.092327595 -0.06293645

EDMoE.expertnet.0.conv1_2.conv.weight f4 [8, 8, 3]
00000000: a520 6f3d 29ef 383d 6936 8a3d e283 0b3e
00000010: 7cb5 3f3e 4c25 203e 68f9 31be 03c5 abbd
00000020: 1814 ab3d 804a dcbd cd9a a23d a0d4 83bd
00000030: 9655 293b a080 cf3d 7424 543d 5b79 0f3e
00000040: b691 183b 78dd e43d 7e82 583d fa84 68bd
00000050: 5705 13be 9c0e 3c3e e91d 83bd 2a24 1b3e
00000060: 2de6 db3d ee64 e2bb 84c8 29be 454c a53c
00000070: a949 e7bd 5987 963d 2893 a6bd bc18 0f3e
00000080: 5649 33be 3d28 94bd 1908 903c b968 f7bc
00000090: 3ea7 1d3e 9eb4 83bc 5e06 11be b19e 123e
000000a0: 3a38 ec3c e95f 113e 8952 f4bd 4f1a 10be
000000b0: 000d a9bd 7d5f 6db9 33cd 8c3d 3e1b 06be
000000c0: 3958 14bc 8ca4 9bbc cb3e 2f3e a703 acbd
000000d0: d75c 2f3e 88bb 10be 6b11 83bd 04c9 00be
000000e0: 171c 133e 6fd6 01be e2e1 813d bf6c a7bd
000000f0: 2da3 5e3e 8b4d 0e3d 3a39 2dbe 30cc 813d
00000100: 8e27 1b3c b594 4ebe 8d03 913d 8094 793e
00000110: 87ff 823d 3417 c73c 2ef1 13bd 34d9 8f3d
00000120: 1e82 bdbd a8af 453e 409b 163e 1aeb bd3d
00000130: 1fd5 acbd 97ba 09be 2d49 9dbd 3d5f 553e
00000140: 6077 4bbe 557c 3ebe 2290 c63b ee8b 923d
00000150: cda3 5abe abee 31be 87a0 60bc 2558 54bd
00000160: 389a f13d 3970 5e3d 03b9 30be 79aa 28be
00000170: de21 1a3e 3353 dcbc 5c61 babd 6026 5d3d
00000180: 1b71 29bd ea69 db3d e285 423d 108e 91bd
00000190: 2e5c 40be b899 db3d f8e7 07be cb83 efbc
000001a0: 4be6 23bb 1346 f6bd 63b7 ec3d 05b7 1cbe
000001b0: 6036 5d3d 56ba ba3c 9908 823d 4b26 4cbe
000001c0: 815b 5d3c 63ee b03d 15f1 02be e2f8 2e3d
000001d0: c45e 82ba 8e73 133e ee04 2ebd 47af 653c
000001e0: d75a ccbd 9c15 73bd 7538 1f3d c1ad 47be
000001f0: cf2e 2f3e 2f14 f23d badd b83d e439 123e
00000200: f088 04bd 7a98 2c3d 0aac 8fbc 9304 32be
00000210: 9c45 a3bd ac6b aabd d0f2 35bd 8c2b 53be
00000220: d1f1 27be 58ac 32bd ef6c 6cbd 7286 64be
00000230: 2362 0a3d 4dc8 d83d d6bd 193e e132 033e
00000240: 8f3c 13be 80c0 85bd e2a1 a1bd a939 cdba
00000250: 0d41 a63d bece 4c3d f539 eb3d 0e47 cf3d
00000260: 7f2d bcbd 37c6 253e 9515 083e 6d53 a03c
00000270: bd67 46be bf03 00be cbdf 2e3d 9eda a03d
00000280: 0c95 473e c254 ce3d 9763 993d 83cb 0b3c
00000290: 748b 143e 5ac7 40bd 98bb a83d afef c2bd
000002a0: 55e0 333b 3886 013e ca12 903d 88f7 f1bc
000002b0: e5e0 97ba 02d4 dbbd e927 4f3d 78e4 da3d
000002c0: d83d 6e3d aef6 4bbe a6e6 19be a0fb 0f3e
000002d0: 1bbd e2bb 972c 013e c57c 233e 5b56 81bd
000002e0: 054d d2bd e83c 5dbe 8d80 8c3d 1e0d b53d
000002f0: 189a e7bc e299 33be 2f4b 05be 4dd8 34bc
0.05838074 0.045149956 0.06748659 0.13624528 0.18721575 0.15639228 -0.17380297 -0.083871864
0.08353442 -0.10756397 0.07939682 -0.064370394 0.0025838367 0.10131955 0.051792577 0.14011137
0.002328021 0.11175054 0.052858822 -0.05676744 -0.14357506 0.18364948 -0.06402189 0.15150514
0.10737262 -0.0069090044 -0.16580397 0.02017797 -0.112933464 0.07350034 -0.081335366 0.13974279
-0.17508444 -0.07234237 0.017581986 -0.030201303 0.15395829 -0.016077336 -0.14162585 0.14318348
0.028835405 0.14196743 -0.11929805 -0.14072536 -0.08254433 -0.00022637653 0.06875076 -0.1309633
-0.009054237 -0.01899936 0.17113797 -0.08399134 0.1712526 -0.14134037 -0.063998066 -0.12576681
0.14366184 -0.12679456 0.06341912 -0.081750385 0.21741934 0.03474192 -0.16916361 0.06337774
0.00946988 -0.20173915 0.070807554 0.24373055 0.06396394 0.024303056 -0.03611868 0.0702385
-0.092533335 0.19305289 0.1470766 0.09273358 -0.08439087 -0.13450085 -0.07679973 0.20837112
-0.19869757 -0.18602116 0.0060596624 0.07155596 -0.21351548 -0.17376201 -0.013710148 -0.051841874
0.11796993 0.054306243 -0.17258076 -0.1647128 0.15051982 -0.026895141 -0.09100601 0.053991675
-0.04136763 0.10713561 0.04749096 -0.071071744 -0.18785164 0.10722679 -0.13272083 -0.029237648
-0.0025009091 -0.12025084 0.11558416 -0.15304191 0.054006934 0.02279393 0.06349296 -0.19936483
0.013510586 0.08639219 -0.12787278 0.042717822 -0.0009946455 0.1439955 -0.04248517 0.01401884
-0.09978264 -0.05934678 0.0388722 -0.19499876 0.171077 0.11820256 0.09026666 0.14279896
-0.032357156 0.0421376 -0.01753809 -0.17384557 -0.07972261 -0.08321318 -0.044421017 -0.2062208
-0.1640084 -0.04362139 -0.057721075 -0.22316912 0.033784997 0.10585079 0.15013823 0.12812378
-0.1437857 -0.06530857 -0.07892205 -0.0015657443 0.08117876 0.050001852 0.11485664 0.101209745
-0.09188365 0.16188894 0.13289483 0.01957103 -0.1937551 -0.12501429 0.042693894 0.07854198
0.1949045 0.1007476 0.074896984 0.008532408 0.14506322 -0.047065116 0.08238906 -0.09518372
0.0027446945 0.12648857 0.07034834 -0.029536977 -0.001158741 -0.10733797 0.05057517 0.10688108
0.058164448 -0.1991832 -0.15029392 0.14060831 -0.006919516 0.12614666 0.15965565 -0.06315299
-0.102685966 -0.21605265 0.068604566 0.088403925 -0.02827172 -0.1753917 -0.13016962 -0.011037898

EDMoE.expertnet.0.conv1_2.conv.bias f4 [8]
00000000: 97e9 bb3d 6947 8bbd 70c4 04be 85f2 0ebe
00000010: 3221 373e 10bb 943d beb3 26be de5a febd
0.09175413 -0.0680073 -0.1296556 -0.13959701 0.17883757 0.07262242 -0.16279504 -0.12419675
