cls_param/Augsburg/best_model.pth (torch, 774262 bytes, 316 tensors)

encoder_pos_embed1 f4 [1, 16, 6, 6]
-0.8055925 0.25134438 -0.828912 1.0294166 1.134768 -1.0021129 1.4125468 2.260694
0.4196951 -1.2595407 0.71692806 -0.46934435 -0.9039354 0.5517742 -0.5841473 0.73905
-1.330333 -1.435282 -1.3758913 0.22520365 -0.24052623 -0.8657576 -2.1948483 -0.51123416
-0.40563577 -1.7061262 0.4266555 -0.15157506 -0.9668664 1.1029286 0.81207705 1.2338996
0.85169 0.17159079 0.16656043 0.034335826 0.73554516 -0.5728697 -0.14037661 1.6977094
1.0950168 -1.1624589 -0.23828721 0.029313028 0.88124245 -2.2517288 -0.16547284 -0.05467712
-1.5583553 -0.21420847 -0.37246576 0.4318548 -1.5568368 -2.4308956 0.51803577 -0.12351356
0.74221194 1.476919 -2.2779553 0.4924465 -0.100142755 -0.18642113 -0.103986494 0.4183842
1.7590294 1.0927871 1.0315521 0.7752962 -0.9163454 -0.10796135 1.4491695 -1.6253921
-1.3199868 2.9222326 -0.095443144 0.42658177 0.15810364 -0.06900073 0.6577185 -0.38192657
-0.6590649 -0.5342171 0.20594157 0.6404623 0.54802644 1.5438632 1.3772508 0.34670967
0.4001701 -2.2191663 0.22761849 0.017879926 1.4298421 0.2832927 0.79625785 -0.81438184
-1.679047 -1.3028218 -0.14269195 -2.3409746 2.4476647 0.11477629 -1.1051135 -0.15394504
-0.6582772 -1.0331812 2.4814398 1.8092806 -0.20312756 -0.9156728 -0.99849194 -1.4617738
-0.50759494 -0.6574471 0.25815216 -0.019930901 0.015813231 -1.004777 0.20053466 -1.190667
-0.47629774 0.5391574 -1.0297928 -0.8849731 1.8705791 1.0695035 -1.6487225 0.8775456
-0.13831095 -0.44347486 1.3678705 -0.030823372 0.6412875 -1.0415658 -0.07356033 -1.4337311
-1.4746983 0.738471 -0.71813965 0.45739236 1.1410459 1.879017 -1.8410566 -0.16633429
0.7676172 0.07260403 -1.4324774 0.011016195 -1.2093381 -1.1863436 -1.0106003 0.3135278
-0.999653 -0.11317961 -1.7549574 -0.4908115 -0.027217237 0.64613277 1.2468612 0.3522159
-1.1940601 -0.022525204 1.1635203 -0.7605059 -0.6752111 0.36938977 -0.5828592 0.1318675
0.78939056 -0.008204571 -0.878907 -1.0306926 0.081360705 -1.9026479 1.2430805 1.2109405
-0.29538518 0.5004893 -0.7181212 0.7021554 0.11877781 -0.8997629 0.8758057 0.6607
-0.76566666 -0.7340325 -0.3448912 0.13603765 -1.7069781 -0.71942675 -1.1601657 -1.1249954
0.31211767 -0.3781607 0.7227669 -0.9202066 -1.7098742 -2.2413757 -1.0641432 -1.5460315
0.9045278 -0.6959828 -0.5786264 -1.1599177 -1.4820474 0.22027743 -0.16143948 -0.8634306
-2.6186872 1.3562819 -0.70722455 0.10456526 0.23396793 0.07782362 1.4746231 1.0138272
0.22589591 -1.7298899 -0.6370158 0.15181802 0.36087093 -0.59875065 -1.5414027 1.7053401
-0.40137628 -0.116854064 1.395571 0.29264513 1.5994905 -1.4591922 0.21468057 1.5291871
1.2563062 -0.1336202 0.12314569 1.4640604 1.0839477 0.19829991 -0.10267472 -0.7917208
-0.16919008 0.20573258 -0.43560103 0.3082229 -0.22796838 -1.5973629 -0.16633084 -0.3844622
-0.6878645 -0.7360512 -1.5505074 0.30531874 1.1737309 -0.2233693 0.052816276 -0.35339576
00000000: 4f3b 4ebf 36b0 803e 9433 54bf ecc3 833f
00000010: 1440 913f 3c45 80bf 55ce b43f 36af 1040
00000020: 47e2 d63e a138 a1bf 9988 373f e74d f0be
00000030: 4f68 67bf 1341 0d3f ad8a 15bf 6132 3d3f
00000040: 5a48 aabf 52b7 b7bf 351d b0bf c99b 663e
00000050: 824c 76be 4aa2 5dbf 6578 0cc0 3ee0 02bf
00000060: 7eaf cfbe 5862 dabf 9772 da3e 7e36 1bbe
00000070: 8e84 77bf c42c 8d3f 48e4 4f3f 6cf0 9d3f
00000080: 5b08 5a3f 7fb5 2f3e d18e 2a3e b9a3 0c3d
00000090: b04c 3c3f 97a7 12bf e3be 0fbe 8b4e d93f
000000a0: 8329 8c3f 74cb 94bf 9001 74be e021 f03c
000000b0: 1b99 613f 531c 10c0 b671 29be 1ef5 5fbd
000000c0: 3078 c7bf 7759 5bbe d5b3 bebe 131c dd3e
000000d0: 6e46 c7bf cb93 1bc0 fe9d 043f adf4 fcbd
000000e0: 9a01 3e3f af0b bd3f 05ca 11c0 f321 fc3e
000000f0: a517 cdbd 2ee5 3ebe dff6 d4bd 7436 d63e
00000100: e027 e13f 73e0 8b3f e609 843f d079 463f
00000110: 9d95 6abf d71a ddbd 637e b93f d90c d0bf
00000120: 54f5 a8bf dc05 3b40 b277 c3bd ed68 da3e
00000130: ece5 213e 4150 8dbd 3d60 283f e18b c3be
00000140: 7ab8 28bf 74c2 08bf 59e2 523e 56f5 233f
00000150: 764b 0c3f 4f9d c53f c149 b03f ee83 b13e
00000160: 18e3 cc3e d206 0ec0 d214 693e ec78 923c
00000170: 1105 b73f be0b 913e 8ed7 4b3f 547b 50bf
00000180: 03eb d6bf ddc2 a6bf d71d 12be 87d2 15c0
00000190: 8aa6 1c40 d50f eb3d 5c74 8dbf c5a3 1dbe
000001a0: db84 28bf 483f 84bf e9cf 1e40 8296 e73f
000001b0: ac00 50be 8869 6abf 2b9d 7fbf 671b bbbf
000001c0: bef1 01bf 744e 28bf 852c 843e 2146 a3bc
000001d0: c08a 813c 889c 80bf f558 4d3e c767 98bf
000001e0: 4cdd f3be 3806 0a3f 40d0 83bf 998d 62bf
000001f0: 236f ef3f 7ee5 883f 5709 d3bf d4a6 603f
00000200: 63a1 0dbe 230f e3be 6116 af3f 4c81 fcbc
00000210: 6b2b 243f 0752 85bf cca6 96bd 8084 b7bf
00000220: eac2 bcbf 6f0c 3d3f 00d8 37bf 552f ea3e
00000230: cb0d 923f a183 f03f bea7 ebbf 8953 2abe
00000240: 9082 443f 6cb1 943d 6b5b b7bf 457d 343c
00000250: 97cb 9abf 1bda 97bf 5a5b 81bf b786 a03e
00000260: 42e9 7fbf b6ca e7bd 72a2 e0bf a54b fbbe
00000270: aff6 debc f568 253f 2699 9f3f a455 b43e
00000280: f6d6 98bf c786 b8bc 3cee 943f 84b0 42bf
00000290: a2da 2cbf a820 bd3e 4336 15bf 4608 073e
000002a0: 8015 4a3f 776c 06bc 0d00 61bf bced 83bf
000002b0: 71a0 a63d f789 f3bf 431d 9f3f 1900 9b3f
000002c0: ba3c 97be 1120 003f cad6 37bf 75c0 333f
000002d0: c841 f33d dd56 66bf cd34 603f a323 293f
000002e0: bb02 44bf 8ee9 3bbf 9495 b0be 744d 0b3e
000002f0: 427e dabf 5a2c 38bf 4f80 94bf d9ff 8fbf
00000300: e3cd 9f3e 479e c1be 4007 393f a992 6bbf
00000310: 28dd dabf b372 0fc0 d835 88bf 5ce4 c5bf
00000320: 228f 673f ee2b 32bf dc20 14bf 2f78 94bf
00000330: bbb3 bdbf 6890 613e 6450 25be ca09 5dbf
00000340: 9298 27c0 a59a ad3f ab0c 35bf 5026 d63d
00000350: 4a95 6f3e fd61 9f3d 73c0 bc3f 17c5 813f
00000360: 4251 673e 086d ddbf 7813 23bf 2f76 1b3e
00000370: 13c4 b83e b947 19bf af4c c5bf 9648 da3f
00000380: 3181 cdbe 2f51 efbd 12a2 b23f 95d5 953e
00000390: 1bbc cc3f cfc6 babf 39d5 5b3e 67bc c33f
000003a0: a4ce a03f bcd3 08be cf33 fc3d 5566 bb3f
000003b0: ccbe 8a3f 220f 4b3e 2047 d2bd 37ae 4abf
000003c0: 2a40 2dbe 90ab 523e 1907 dfbe 64cf 9d3e
000003d0: 8b70 69be 6376 ccbf a252 2abe 3bd8 c4be
000003e0: e317 30bf da6d 3cbf 0777 c6bf bd52 9c3e
000003f0: d03c 963f ecba 64be e155 583d 4af0 b4be

encoder_pos_embed2 f4 [1, 32, 3, 3]
-2.008005 0.36274594 -0.10799486 0.6050445 -0.5562197 -0.017943785 -0.23723617 0.14029141
-0.30999926 -1.3159083 -0.22414432 1.2387062 0.58506036 -1.7051697 0.06375927 0.7050022
-0.6401704 -0.29344335 0.22039445 -0.35503396 0.53701466 0.50465333 0.7230419 0.0015827051
1.0141946 0.1899358 -1.788383 -0.4457373 1.8610325 -0.010536756 0.30622748 -0.84632546
-1.7192504 -0.8609777 0.54631436 0.43413925 -0.4227593 -0.7448076 0.24812163 0.2807673
-0.53867877 -0.6668216 1.8418857 0.56895065 2.043757 -1.7638218 -1.1557666 -0.2730146
1.9578804 -1.0502574 0.6640213 -0.014811356 -1.0753692 -1.1286532 0.3244473 -0.14121713
-0.28426924 1.1043164 -0.38497606 -0.17417541 -0.2137003 0.32180735 -2.1160629 -0.24923912
-1.3027365 -1.5861987 -0.72892976 -0.50283015 0.36891446 -0.034327216 1.9676323 -0.8892241
1.5535538 0.03247583 -0.14412807 -0.630083 -1.3363225 1.6286409 0.15307668 -0.46650562
0.5253438 -0.84382695 -0.8725394 -0.038411617 0.16627327 -0.82551295 0.0076291636 -0.33793497
-1.3868384 0.51451683 -0.6677231 -0.5509161 -0.07255316 1.9257629 0.6296357 -1.5489929
-0.86524767 0.48812094 -1.584229 -0.6005925 -1.9277499 -0.0012582043 -0.368803 -1.9043698
-0.53400064 -0.4691901 -1.420059 2.049841 1.8447609 0.30190322 -0.70608085 -1.7879381
0.22591469 -0.6182298 1.7787226 -0.8188194 -0.7495427 -0.31679738 -0.7146615 -0.7936392
-0.21864001 -0.086231135 0.9113259 -0.08602259 -0.10397346 0.1508191 0.867619 0.8037335
0.7930363 0.36470154 -1.3141291 -0.0063539846 -0.53611404 1.0291986 -0.81400645 1.588296
0.2063907 1.2755965 -0.6084948 -1.8520609 -0.80320364 1.5384579 -0.0042471704 0.74376553
-0.758599 -0.20176359 0.041888166 0.35182533 -1.1776274 -0.42699575 -0.8207956 0.50280297
2.5288363 0.1809935 -1.1853421 -1.2538235 -0.09057722 0.8495115 1.4268247 -0.23978831
-0.3801175 -2.5748248 -0.19724867 1.3503517 -0.41129974 -1.4247396 -0.6985187 -0.0031334772
1.147782 -1.0780876 -0.07809253 0.0395149 -0.80849564 0.43324864 -0.33309078 -0.83019876
0.5165661 -0.32570282 -0.30461255 0.76245934 -0.81360525 0.63950485 -0.49280497 0.69489807
0.29872417 -0.7216353 -2.2391317 0.16696817 0.45014516 -0.15526268 0.6615844 0.5242527
-0.17877741 0.08530775 0.9785767 2.36483 0.5602936 -0.26597637 -0.6526025 -0.10281226
-1.1582065 1.7592537 -1.5456578 1.0414128 0.91812694 -1.4393581 -0.0610971 0.052299272
0.8525478 -0.08155241 1.9294789 1.0154585 -0.2828979 -0.3995812 0.5646427 0.33496088
0.6108355 1.4783221 -0.08931203 0.069347344 -0.14377935 0.6307815 0.67144895 0.9391685
0.48702282 0.58734727 0.037926286 -1.5074216 0.65230614 0.7196119 1.3790505 -1.0305269
0.6850947 -1.3032305 -0.012218306 0.20689406 -0.21515952 1.2221206 0.8998147 -0.49357137
-0.35386133 -1.4675552 -0.5913526 0.7410782 -0.9542763 -0.35692704 0.71798015 0.14145355
-0.25760463 0.4044114 -0.5189901 -1.073849 0.7038112 -1.6253532 -0.31128934 1.1027144
00000000: 2783 00c0 d6b9 b93e 692c ddbd 32e4 1a3f
00000010: 6a64 0ebf d8fe 92bc 0aee 72be 8da8 0f3e
00000020: 39b8 9ebe af6f a8bf 1786 65be ed8d 9e3f
00000030: 84c6 153f 0043 dabf 3894 823d 067b 343f
00000040: 35e2 23bf 353e 96be 15af 613e 03c7 b5be
00000050: cb79 093f f630 013f 4619 393f c572 cf3a
00000060: 21d1 813f 887e 423e bce9 e4bf ae37 e4be
00000070: 5036 ee3f 5ca2 2cbc d9c9 9c3e c9a8 58bf
00000080: 6610 dcbf 0969 5cbf 42db 0b3f 8047 de3e
00000090: e873 d8be b6ab 3ebf 9913 7e3e bbc0 8f3e
000000a0: dae6 09bf d2b4 2abf e9c2 eb3f c0a6 113f
000000b0: eacc 0240 eac4 e1bf 29f0 93bf 92c8 8bbe
000000c0: d39b fa3f d66e 86bf 4dfd 293f 54ab 72bc
000000d0: b3a5 89bf b577 90bf f51d a63e 399b 10be
000000e0: bd8b 91be 3d5a 8d3f 951b c5be 0a5b 32be
000000f0: 40d4 5abe efc3 a43e 936d 07c0 8a38 7fbe
00000100: 12c0 a6bf 8f08 cbbf 249b 3abf 7ab9 00bf
00000110: 5be2 bc3e b29a 0cbd 60db fb3f 31a4 63bf
00000120: dada c63f 6005 053d 4f96 13be 1f4d 21bf
00000130: 9e0c abbf 4e77 d03f 22c0 1c3e d3d9 eebe
00000140: ee7c 063f 0b05 58bf be5e 5fbf 8055 1dbd
00000150: 8a43 2a3e d154 53bf 10fe f93b d005 adbe
00000160: ec83 b1bf 60b7 033f e7ef 2abf d608 0dbf
00000170: c096 94bd 667f f63f ce2f 213f 6645 c6bf
00000180: df80 5dbf fdea f93e 04c8 cabf 6ec0 19bf
00000190: 82c0 f6bf 55ea a4ba bfd3 bcbe 64c2 f3bf
000001a0: 44b4 08bf af39 f0be 7ec4 b5bf 9830 0340
000001b0: 2021 ec3f 0f93 9a3e b7c1 34bf 28db e4bf
000001c0: 2e56 673e 4f44 1ebf 2fad e33f 269e 51bf
000001d0: 08e2 3fbf 4433 a2be 0ef4 36bf f02b 4bbf
000001e0: 2be3 5fbe f399 b0bd a74c 693f 9d2c b0bd
000001f0: 0af0 d4bd 5270 1a3e 471c 5e3f 7bc1 4d3f
00000200: 6d04 4b3f 29ba ba3e 6235 a8bf 1635 d0bb
00000210: c53e 09bf c8bc 833f ba62 50bf 494d cb3f
00000220: 1558 533e bf46 a33f 51c6 1bbf 5510 edbf
00000230: c19e 4dbf 30ec c43f d92b 8bbb 6b67 3e3f
00000240: 8b33 42bf 1d9b 4ebe ed92 2b3d 7322 b43e
00000250: 7fbc 96bf 309f dabe a91f 52bf b2b7 003f
00000260: 74d8 2140 5c56 393e 4ab9 97bf 4a7d a0bf
00000270: 8d80 b9bd 9679 593f 31a2 b63f 118b 75be
00000280: c39e c2be eec9 24c0 8efb 49be 53d8 ac3f
00000290: e195 d2be de5d b6bf 1fd2 32bf 065b 4dbb
000002a0: 85ea 923f c6fe 89bf faee 9fbd 60da 213d
000002b0: 92f9 4ebf c4d2 dd3e e08a aabe e887 54bf
000002c0: ad3d 043f 85c2 a6be 2df6 9bbe 8930 433f
000002d0: 6f48 50bf 97b6 233f ef50 fcbe d7e4 313f
000002e0: 60f2 983e 17bd 38bf ef4d 0fc0 b4f9 2a3e
000002f0: 6d79 e63e 2efd 1ebe 985d 293f 6d35 063f
00000300: 6d11 37be d4b5 ae3d 0184 7a3f 6059 1740
00000310: 676f 0f3f 0e2e 88be f510 27bf 3c8f d2bd
00000320: 1c40 94bf 3a2f e13f 1dd8 c5bf 044d 853f
00000330: 5e0a 6b3f e33c b8bf f440 7abd c337 563d
00000340: 9340 5a3f f304 a7bd 2af9 f63f 8bfa 813f
00000350: fed7 90be e895 ccbe 6d8c 103f fe7f ab3e
00000360: b75f 1c3f a939 bd3f 3ae9 b6bd fb05 8e3d
00000370: e53a 13be e57a 213f 14e4 2b3f 596d 703f
00000380: 0e5b f93e 645c 163f 9858 1b3d 31f3 c0bf
00000390: 89fd 263f 7c38 383f ba84 b03f 4ee8 83bf
000003a0: 5e62 2f3f 42d0 a6bf 4a2f 48bc 09dc 533e
000003b0: c752 5cbe 736e 9c3f 425a 663f 63b5 fcbe
000003c0: 502d b5be d9d8 bbbf e262 17bf 4db7 3d3f
000003d0: 744b 74bf 24bf b6be 8ccd 373f 33d9 103e
000003e0: c1e4 83be 030f cf3e 89dc 04bf e273 89bf
000003f0: f92c 343f 930b d0bf 5161 9fbe bf25 8d3f

encoder_pos_embed f4 [1, 15, 36, 16]
0.099859156 1.1668526 1.3752781 -0.09723809 0.34983897 -0.52954066 1.4934405 -0.52574676
0.06448162 -0.2130572 1.3523372 -1.2085778 0.055664826 1.9458944 -0.5076779 1.2469568
-0.13287167 -0.8657864 1.2781185 -0.56879056 -1.0860679 1.3575574 -0.75842416 -0.43049547
-0.29153404 -2.3330016 1.1264967 -0.0063161785 -0.50124246 -0.9698604 0.33025947 -0.40085387
-0.27056938 -2.1168523 0.84602845 0.45769945 -1.5768243 -0.23914643 0.52797073 -1.6472001
-1.5904021 0.2671285 -1.3579249 -0.5552377 1.8603994 -1.0613227 0.14785984 0.71892744
1.328864 0.74236286 0.5145644 0.17367327 -2.723314 0.10550143 2.0216763 1.0832473
0.2860532 0.3018213 0.3195518 0.8805371 1.4935138 -1.196702 0.66063035 -0.36838132
0.29358017 0.875276 1.2637814 1.22759 0.14171365 1.2913328 0.38419026 -1.1087328
-2.1100245 -0.36516243 -1.8810756 1.0388994 -0.98458105 -0.6897165 0.22575161 1.1550517
-0.3859557 2.313699 -0.04454993 -0.35644928 0.23284067 0.29754665 -0.7457724 -0.5782719
0.8843979 0.5496686 0.76095414 -0.41618294 -0.27994066 -1.4051292 2.0978909 -1.0397037
1.1560305 -0.45200804 -0.14185277 -0.45276392 1.6715996 -1.3387544 -0.65625626 -0.18827733
-1.5195513 -0.46948704 -0.023505779 1.5536206 -1.4104357 -1.4515756 -0.30711338 -0.7849816
-0.09296801 2.1287386 0.36486977 -0.72104675 0.91042036 -0.25145435 1.0659941 2.1286976
-1.3623686 1.1440557 0.41981602 -1.4327943 0.3004116 -1.6804192 0.08881762 1.6522245
0.8574093 -0.95876443 0.6148385 -1.7337192 0.39365128 -1.0156554 -0.018450543 1.4513338
-0.7500317 1.3495867 -0.020807449 0.45683798 -0.59109014 -1.2731909 -2.4402106 -0.051786035
0.87761474 -1.3309587 0.44438863 -1.7567408 -0.67155653 -0.22267327 -1.6979356 1.2196571
1.3594722 -0.16043933 -1.9257087 0.43045938 -0.8625467 0.6233708 0.76175845 0.2558475
1.0015152 0.78986293 -0.11810019 0.11484616 0.08251424 1.3836001 0.22518642 1.1520889
1.1895709 -1.3447545 0.35541257 1.12698 -0.68781745 0.29104775 -2.288803 -1.3013824
-0.92885464 -0.43688533 0.22006384 -0.30923447 1.0711789 1.1351956 0.40736565 -1.3797065
-0.36254537 1.1196035 -0.26116028 -1.2767624 -0.48045722 1.6779528 -1.1667271 -0.1908078
0.798853 -0.14779529 -0.117487736 -0.55911654 0.6498802 0.44490713 -0.058737397 1.1476899
-0.4311552 1.9860346 -0.19076051 0.52837634 -2.254513 -1.4934673 -0.094880074 1.0769966
0.7964809 -0.42566445 -0.1337458 0.62518626 -0.044393513 0.32250476 0.96023357 0.42812657
0.4075141 -0.5785694 0.9140831 0.3324617 -0.46001574 -0.8809925 -0.07863483 0.050251324
0.8320285 0.8316301 -1.2212112 0.96161246 1.8229432 0.0643487 1.1713914 -1.4564718
1.2553419 0.1883396 0.18462817 -1.1748577 1.7254527 -1.1625265 0.46141726 0.16245015
-2.2681131 -0.14818981 -1.030157 1.0139741 1.3374772 0.97036904 -0.08222761 0.43972963
1.0536047 0.5086344 -1.9060779 -0.6734442 0.43473107 3.730448 -1.5114914 -0.057901405
00000000: f582 cc3d 6d5b 953f 1d09 b03f c424 c7bd
00000010: 181e b33e fa8f 07bf 0f29 bf3f 5797 06bf
00000020: f10e 843d ab2b 5abe 6319 ad3f adb2 9abf
00000030: cd00 643d 1113 f93f 2ef7 01bf 489c 9f3f
00000040: 830f 08be 2da4 5dbf 6399 a33f 429c 11bf
00000050: 4604 8bbf 71c4 ad3f 1628 42bf e769 dcbe
00000060: f343 95be e64f 15c0 0b31 903f f2f7 cebb
00000070: 6d51 00bf c548 78bf c517 a93e b83c cdbe
00000080: 1288 8abe 827a 07c0 5295 583f 9557 ea3e
00000090: 61d5 c9bf cde2 74be 1729 073f 74d7 d2bf
000000a0: 4c92 cbbf 11c5 883e 7cd0 adbf 0f24 0ebf
000000b0: 9121 ee3f 6cd9 87bf 9268 173e a10b 383f
000000c0: 3718 aa3f 7e0b 3e3f 7eba 033f 68d7 313e
000000d0: c74a 2ec0 2211 d83d 2563 0140 d9a7 8a3f
000000e0: 9175 923e 5288 9a3e 4b9c a33e e16a 613f
000000f0: 762b bf3f 882d 99bf 121f 293f 7a9c bcbe
00000100: 2450 963e 1712 603f 97c3 a13f ab21 9d3f
00000110: 621d 113e 654a a53f 96b4 c43e f5ea 8dbf
00000120: a40a 07c0 92f6 babe 16c7 f0bf a8fa 843f
00000130: 810d 7cbf 4391 30bf 6e2b 673e bcd8 933f
00000140: fc9b c5be a513 1440 fd79 36bd 8580 b6be
00000150: c96d 6e3e 0958 983e f1ea 3ebf a109 14bf
00000160: e767 623f 15b7 0c3f e4cd 423f ee15 d5be
00000170: 6254 8fbe 46db b3bf d843 0640 0315 85bf
00000180: cff8 933f 996d e7be da41 11be acd0 e7be
00000190: faf6 d53f 4e5c abbf 6900 28bf c6cb 40be
000001a0: a880 c2bf 9b60 f0be 318f c0bc 0add c63f
000001b0: 2889 b4bf 3bcd b9bf f73d 9dbe 8ef4 48bf
000001c0: 0366 bebd 413d 0840 36d0 ba3e 8596 38bf
000001d0: 4f11 693f a0be 80be 7f72 883f 953c 0840
000001e0: 1862 aebf 6b70 923f 20f2 d63e ce65 b7bf
000001f0: 8dcf 993e fa17 d7bf 03e6 b53d 187c d33f
00000200: 2d7f 5b3f 9671 75bf 0e66 1d3f 83ea ddbf
00000210: a98c c93e ff00 82bf 9825 97bc 4ec5 b93f
00000220: 1402 40bf 42bf ac3f 6274 aabc abe6 e93e
00000230: af51 17bf ebf7 a2bf 692c 1cc0 981d 54bd
00000240: 5cab 603f db5c aabf e886 e33e e2dc e0bf
00000250: 21eb 2bbf 7604 64be f455 d9bf b91d 9c3f
00000260: 2f03 ae3f 354a 24be 9f7d f6bf 2c65 dc3e
00000270: dccf 5cbf 3b95 1f3f 9a02 433f 72fe 823e
00000280: a631 803f 7534 4a3f 83de f1bd 7734 eb3d
00000290: 3afd a83d cf19 b13f 4597 663e a677 933f
000002a0: dc43 983f ea20 acbf a3f8 b53e e140 903f
000002b0: ce14 30bf 3604 953e c07b 12c0 b393 a6bf
000002c0: 6bc9 6dbf 6faf dfbe 6a58 613e fb53 9ebe
000002d0: 641c 893f 174e 913f 3b92 d03e 399a b0bf
000002e0: 8c9f b9be 2b4f 8f3f cdb6 85be f36c a3bf
000002f0: 7dfe f5be 28c7 d63f 5057 95bf 1f63 43be
00000300: a181 4c3f a657 17be 699d f0bd 4322 0fbf
00000310: 8c5e 263f deca e33e a096 70bd 81e7 923f
00000320: 60c0 dcbe 6236 fe3f b956 43be ac43 073f
00000330: f149 10c0 f029 bfbf 7c50 c2bd 06db 893f
00000340: 2ce6 4b3f b1f0 d9be a9f4 08be 350c 203f
00000350: f9d5 35bd 581f a53e ded1 753f 6833 db3e
00000360: b0a5 d03e 201d 14bf 5a01 6a3f 6c38 aa3e
00000370: 2f87 ebbe b988 61bf 4c0b a1bd 55d4 4d3d
00000380: d2ff 543f b6e5 543f a650 9cbf 3c2c 763f
00000390: 3456 e93f 40c9 833d 27f0 953f ab6d babf
000003a0: 0baf a03f 19dc 403e 2b0f 3d3e bd61 96bf
000003b0: a2db dc3f abcd 94bf e23e ec3e 5559 263e
000003c0: c428 11c0 12bf 17be 2fdc 83bf e7c9 813f
000003d0: 7432 ab3f 1b6a 783f f366 a8bd 3e24 e13e
000003e0: 85dc 863f dd35 023f 5cfa f3bf d766 2cbf
000003f0: 1295 de3e a9bf 6e40 8d78 c1bf 062a 6dbd

down1.body.0.weight f4 [8, 16, 3, 3]
-0.000102034865 0.06277961 -0.0498904 -0.059470728 -0.02255509 0.019099167 0.02531212 0.06623737
0.0037939511 0.027467644 -0.060435273 -0.04172241 -0.09029759 -0.06566269 -0.042648956 0.005432246
0.03086262 0.056511976 -0.02752387 -0.011093472 0.046199482 0.089958265 0.009896934 0.10443723
0.017580125 0.027046554 0.108203344 -0.10717314 -0.07981046 -0.03632273 -0.05427746 0.04527853
-0.06087883 -0.059541993 -0.087130874 -0.09926357 -0.06710641 0.061976794 0.019437037 0.012713049
-0.008083545 -0.06842418 -0.030663606 -0.1226944 -0.071241215 -0.025695221 0.08595965 0.075186305
-0.0069338884 0.025574131 0.074498445 0.10337534 0.056775194 0.027719138 0.057022963 -0.0793406
0.0033923916 -0.0899908 -0.07393717 -0.060991712 0.020153053 0.021138947 -0.052455407 0.023536744
0.060821615 -0.010385802 0.019283485 0.02050821 0.059425503 0.09413196 -0.050474115 -0.016465565
0.025977602 0.08552006 0.076735325 0.07827133 0.0071957232 -0.07557961 -0.0005997866 -0.052874885
-0.07992382 0.069652736 0.067209125 -0.083713256 0.0259194 0.0024956977 -0.011384678 -0.0013136602
0.039666157 -0.021772277 0.025759973 0.022414798 0.05669442 0.03999684 -0.08833829 -0.06259019
0.03923905 0.022064557 -0.09118226 -0.06123645 0.09030504 0.06002761 -0.024552198 -0.021678073
-0.11147642 0.015852358 -0.052096114 -0.0804849 0.027011432 0.021623781 -0.035210565 0.0722973
-0.027461594 0.061778408 0.061853655 -0.039447185 -0.017420696 0.022671182 0.01289837 0.0040439917
0.036448598 -0.014897609 -0.052483164 0.039194684 -0.09155038 -0.009129849 -0.018629715 -0.04680196
-0.033511065 -0.068879806 -0.017826254 0.00956172 -0.055250317 -0.019421697 0.054663595 -0.01621528
-0.019439207 -0.011546137 -0.012181254 0.0651885 0.08828596 0.06220042 0.09599747 0.0033293853
-0.07166721 -0.05558692 0.06676395 -0.007937943 -0.051621605 -0.08898432 -0.101525284 -0.1031973
-0.045292843 0.05880296 0.074923165 -0.07072311 0.06476551 -0.04798398 -0.023265759 -0.036725823
-0.008978839 -0.00018593659 -0.07223666 -0.06692642 -0.013164014 0.0002641696 -0.026694853 0.014761541
-0.07894991 0.0065238453 0.06863359 -0.03506955 0.07911852 0.054016747 -0.06929681 0.084810995
0.029735174 -0.017136576 0.093760066 -0.042860128 0.011982636 -0.034288287 0.055733573 0.054218147
0.04982604 0.021529416 -0.004309289 -0.0062412494 -0.08100174 0.055817023 0.06647972 0.06737883
-0.06532582 0.0019899483 -0.059954595 -0.06487295 -0.06368404 0.01292088 -0.07600743 -0.026006864
0.004516198 0.04325393 -0.05986895 -0.045773137 -0.042370223 0.0766388 -0.011746355 0.099385634
0.06837406 0.03294963 0.03225359 0.0055659115 0.018825013 0.0011005161 0.020840326 0.019790897
-0.07710024 -0.05396493 0.101042084 -0.063214675 0.00172625 0.106586546 0.030117689 0.01151176
-0.06279825 0.039729733 -0.080038026 -0.014719296 -0.0145827085 0.00906708 0.020707658 0.096600324
0.049794786 0.09132183 0.06790653 -0.054705944 0.023051452 -0.04848191 -0.024559837 0.04102662
0.03512863 0.06668618 -0.026152452 0.022419995 0.058626555 -0.06493049 0.070996806 -0.063460134
-0.01970811 -0.0076548955 -0.060686946 -0.023284052 0.063907646 -0.032361597 -0.044327702 -0.039080836
00000000: 8dfb d5b8 9992 803d e059 4cbd 9497 73bd
00000010: 74c5 b8bc db75 9c3c 5d5b cf3c 75a7 873d
00000020: f0a3 783b d303 e13c fa8a 77bd 1ee5 2abd
00000030: f1ed b8bd 297a 86bd acb0 2ebd fb00 b23b
00000040: 9bd3 fc3c 1a79 673d bd79 e1bc 65c1 35bc
00000050: ab3b 3d3d 0a3c b83d c026 223c 30e3 d53d
00000060: 3204 903c bc90 dd3c b799 dd3d 977d dbbd
00000070: ab73 a3bd 25c7 14bd 0b52 5ebd fb75 393d
00000080: 145c 79bd 4ee2 73bd ac71 b2bd b34a cbbd
00000090: 166f 89bd 61db 7d3d 6c3a 9f3c 644a 503c
000000a0: d870 04bc fa21 8cbd 3e32 fbbc 3447 fbbd
000000b0: eae6 91bd c97e d2bc 9d0b b03d 47fb 993d
000000c0: ac35 e3bb d780 d13c a492 983d 73b6 d33d
000000d0: 1b8d 683d 3f13 e33c e990 693d 537d a2bd
000000e0: e352 5e3b 194d b8bd 5f6c 97bd 72d2 79bd
000000f0: 0418 a53c 962b ad3c 7bdb 56bd 21d0 c03c
00000100: 1620 793d 3629 2abc 66f8 9d3c d500 a83c
00000110: 2868 733d 42c8 c03d f2bd 4ebd cbe2 86bc
00000120: fbce d43c 2425 af3d 6927 9d3d b84c a03d
00000130: 1aca eb3b 7cc9 9abd ff3a 1dba 5693 58bd
00000140: 1aaf a3bd 18a6 8e3d f0a4 893d db71 abbd
00000150: ec54 d43c dc8e 233b cd86 3abc 1f2f acba
00000160: fb78 223d c65b b2bc 9406 d33c 3d9f b73c
00000170: 6838 683d bad3 233d b5ea b4bd 492f 80bd
00000180: 20b9 203d bbc0 b43c c4bd babd 12d3 7abd
00000190: d9f1 b83d 83df 753d b121 c9bc 3796 b1bc
000001a0: c04d e4bd cedc 813c bc62 55bd 44d5 a4bd
000001b0: 1447 dd3c 5b24 b13c f438 10bd 9b10 943d
000001c0: 23f7 e0bc 5b0b 7d3d 425a 7d3d 5f93 21bd
000001d0: d9b5 8ebc eab8 b93c af53 533c 7683 843b
000001e0: 204b 153d 1a15 74bc 96f8 56bd 9b8a 203d
000001f0: c47e bbbd 5d95 15bc 589d 98bc 69b3 3fbd
00000200: e642 09bd db10 8dbd 5d08 92bc c3a8 1c3c
00000210: 284e 62bd 401a 9fbc efe6 5f3d e8d5 84bc
00000220: f93e 9fbc 022c 3dbc e293 47bc 8c81 853d
00000230: 45cf b43d dec5 7e3d 529a c43d d131 5a3b
00000240: 42c6 92bd 1caf 63bd 8abb 883d 250e 02bc
00000250: 2d71 53bd 693d b6bd 7dec cfbd 1b59 d3bd
00000260: fd84 39bd 5fdb 703d 5171 993d 47d7 90bd
00000270: c8a3 843d da8a 44bd d597 bebc d16d 16bd
00000280: fb1b 13bc f9f7 42b9 d0f0 93bd b810 89bd
00000290: e0ad 57bc 3e80 8a39 2aaf dabc 64da 713c
000002a0: 7eb0 a1bd fbc5 d53b c58f 8c3d 17a5 0fbd
000002b0: e408 a23d aa40 5d3d 7ceb 8dbd 63b1 ad3d
000002c0: 2e97 f33c 0162 8cbc 4705 c03d 1a8e 2fbd
000002d0: d152 443c e071 0cbd e348 643d d913 5e3d
000002e0: 6416 4c3d 755e b03c f034 8dbb 6583 ccbb
000002f0: 3ee4 a5bd 64a0 643d 8526 883d e9fd 893d
00000300: 8bc9 85bd cb69 023b f392 75bd 1cdc 84bd
00000310: c76c 82bd 19b2 533c c9a9 9bbd 590c d5bc
00000320: 9dfc 933b 082b 313d 2539 75bd 9d7c 3bbd
00000330: 668c 2dbd cef4 9c3d c973 40bc b28a cb3d
00000340: b307 8c3d 31f6 063d 571c 043d 4062 b63b
00000350: ea36 9a3c 313f 903a 55b9 aa3c 8520 a23c
00000360: bbe6 9dbd 550a 5dbd 27ef ce3d b276 81bd
00000370: 5743 e23a 0c4a da3d 5fb9 f63c d29b 3c3c
00000380: 5e9c 80bd a5bb 223d faea a3bd 3429 71bc
00000390: 50ec 6ebc 178e 143c 1ba3 a93c 64d6 c53d
000003a0: 9ef5 4b3d f106 bb3d 9412 8b3d 5713 60bd
000003b0: 66d6 bc3c f894 46bd b631 c9bc 870b 283d
000003c0: 0ae3 0f3d c492 883d ab3d d6bc 23aa b73c
000003d0: 6622 703d 47fa 84bd c666 913d 63f7 81bd
000003e0: e772 a1bc ebd5 fabb e092 78bd 32be bebc
000003f0: 03e2 823d 988d 04bd f790 35bd 3a13 20bd

down2.body.0.weight f4 [8, 16, 3, 3]
-0.06991702 -0.008543251 0.067351304 -0.06270088 -0.0396484 0.056648854 -0.024973601 0.011075543
-0.084794156 -0.033863354 -0.048406344 0.065105416 0.029092718 -0.036600605 0.0116090225 -0.009568413
-0.03609877 -0.04834268 -0.026765767 0.06426599 -0.053837493 -0.054364696 -0.01771428 0.009648109
0.024316369 0.002693121 -0.014609345 -0.04648636 0.003558995 -0.020583525 0.070302054 -0.0758719
-0.041106984 -0.04189268 -0.010062546 0.05611137 0.08170675 -0.050124247 0.0036759593 0.047014352
0.046940092 0.06343484 -0.011264184 -0.054810483 0.02847577 -0.018361447 0.042035226 -0.030768897
0.03919362 0.06089949 0.07283899 -0.05955392 -0.038154684 -0.036015637 -0.047666494 0.060702782
-0.012711475 -0.063627735 -0.04540394 -0.054894138 0.03195549 -0.06452307 -0.068638906 -0.08480564
0.038347542 0.05327001 -0.033990987 0.031736072 0.048726987 0.018849606 -0.020517446 0.00949746
-0.0009479727 0.034023255 -0.04623388 0.038562175 0.037384894 -0.048017878 0.04226051 0.068270445
-0.033549592 -0.024971358 0.03676422 -0.0865648 0.034802463 0.024302188 0.054874066 -0.050744187
-0.077179365 0.03900878 0.038288556 -0.068881884 -0.020044392 -0.057935506 -0.046478268 -0.024048239
0.06956453 -0.008562438 0.053644914 0.08023892 0.028687736 -0.058939 0.04542622 0.019921731
0.052650284 -0.076685645 0.051345263 0.06866075 -0.07678248 0.011812645 0.065835156 -0.05990306
0.027953621 0.033875912 0.03348474 0.085577354 0.05562907 0.06927458 -0.0114408955 0.034394685
-0.074976064 -0.03731769 -0.016843274 -0.01740161 0.07411748 0.038476262 0.048036337 0.0474146
-0.04925047 0.0019345421 -0.004331567 0.00410446 0.02363106 -0.04346327 -0.026511086 0.07218899
-0.036269315 -0.06367703 0.029378096 0.04544973 -0.045791347 -0.021821715 -0.05445962 -0.0619378
0.013907302 -0.039655924 0.061988354 -0.050665326 -0.00057138025 0.011072333 0.05080985 0.056762777
0.040725794 0.03451448 -0.0414404 -0.057102382 -0.06623747 0.00076012296 0.06406637 -0.013419992
0.00085424463 -0.062292185 0.020548996 0.035101704 -0.07605601 -0.04845721 0.056286994 0.007919187
0.008923087 0.010579605 -0.01174111 -0.07070511 -0.07851244 0.050226226 -0.011801702 -0.024249796
-0.011165659 -0.036959767 -0.021033987 -0.05728338 0.05629832 0.019673534 -0.051723555 -0.028658409
0.02849297 -0.04102994 0.042493593 0.028175812 -0.05792196 0.014019388 0.0058923736 0.05803994
-0.02491936 -0.01780407 0.0610822 -0.041071605 0.0076727895 0.0635812 -0.051081497 0.074669026
0.08214808 0.06228554 -0.020634733 0.065635316 -0.051661838 -0.0438061 0.020730633 0.0023374928
0.04571709 0.06663046 -0.053453248 0.04987627 0.04075381 0.034212343 0.040485285 -0.015632909
-0.046959072 0.058301613 -0.027043559 0.05161942 -0.070498414 -0.013506458 0.00037358902 -0.0049837497
-0.015878582 0.020572994 -0.026300918 -0.01833671 0.07331977 -0.059251297 0.009921727 -0.02698202
0.058886204 0.07669515 -0.00309507 -0.03590043 -0.04707053 0.049557876 -0.019866617 0.061982725
0.039619688 0.05357791 0.03345111 -0.03989839 0.027164204 -0.021521214 0.049575403 -0.009657962
-0.011005872 -0.057114124 -0.079565436 0.019478522 0.010905883 0.006982287 0.06525956 -0.03670627
00000000: a830 8fbd fef8 0bbc 7bef 893d 5269 80bd
00000010: 5c66 22bd a108 683d 7095 ccbc 3276 353c
00000020: 8fa8 adbd 4db4 0abd bb45 46bd fd55 853d
00000030: da53 ee3c 84ea 15bd c533 3e3c d5c4 1cbc
00000040: 4edc 13bd f902 46bd e243 dbbc e39d 833d
00000050: b484 5cbd 84ad 5ebd 8a1d 91bc 1a13 1e3c
00000060: 1f33 c73c 137f 303b 095c 6fbc 7b68 3ebd
00000070: 073e 693b c89e a8bc 86fa 8f3d ba62 9bbd
00000080: cc5f 28bd a997 2bbd 60dd 24bc 09d5 653d
00000090: de55 a73d 154f 4dbd 5de8 703b 1f92 403d
000000a0: 4144 403d 20ea 813d 698d 38bc f580 60bd
000000b0: 0546 e93c bf6a 96bc 212d 2c3d 0e0f fcbc
000000c0: 7d89 203d be71 793d 9c2c 953d d0ee 73bd
000000d0: 1648 1cbd 2285 13bd f13d 43bd 7ba3 783d
000000e0: ca43 50bc 424f 82bd 7bf9 39bd add8 60bd
000000f0: c3e3 023d ac24 84bd 8e92 8cbd 94ae adbd
00000100: 5012 1d3d a731 5a3d 223a 0bbd affd 013d
00000110: f395 473d 7d6a 9a3c 3414 a8bc 3c9b 1b3c
00000120: 5f81 78ba f85b 0b3d bd5f 3dbd 5ff3 1d3d
00000130: e720 193d 65ae 44bd 5b19 2d3d 60d1 8b3d
00000140: 4c6b 09bd bc90 ccbc 1496 163d e348 b1bd
00000150: 078d 0e3d 6215 c73c a1c3 603d 23d9 4fbd
00000160: 3710 9ebd acc7 1f3d 76d4 1c3d f211 8dbd
00000170: 2334 a4bc c84d 6dbd ff5f 3ebd d000 c5bc
00000180: d977 8e3d 7849 0cbc c5ba 5b3d 4e54 a43d
00000190: 8b02 eb3c 056a 71bd d810 3a3d e632 a33c
000001a0: d3a7 573d 5d0d 9dbd 694f 523d 029e 8c3d
000001b0: 2240 9dbd d389 413c 95d4 863d e95c 75bd
000001c0: fefe e43c 78c1 0a3d 4b27 093d 2e43 af3d
000001d0: 4fdb 633d d5df 8d3d 9872 3bbc 71e1 0c3d
000001e0: 0d8d 99bd 6fda 18bd e8fa 89bc d28d 8ebc
000001f0: e8ca 973d 4999 1d3d c0c1 443d d035 423d
00000200: dcba 49bd 7690 fd3a d1ef 8dbb b57e 863b
00000210: ed95 c13c 8b06 32bd c72d d9bc d2d7 933d
00000220: 228f 14bd 1a69 82bd 55aa f03c 7f29 3a3d
00000230: b58f 3bbd 74c3 b2bc 0d11 5fbd 7eb2 7dbd
00000240: 74db 633c 406e 22bd 80e7 7d3d 7286 4fbd
00000250: aec8 15ba bb68 353c fd1d 503d 1680 683d
00000260: 17d0 263d 0e5f 0d3d 69bd 29bd 30e4 69bd
00000270: 83a7 87bd fd42 473a 3b35 833d 87df 5bbc
00000280: 63ef 5f3a 1726 7fbd 5e56 a83c cec6 0f3d
00000290: 41c3 9bbd 117b 46bd 318d 663d 7abf 013c
000002a0: 2432 123c 1456 2d3c c95d 40bc d7cd 90bd
000002b0: 21cb a0bd 04ba 4d3d ed5b 41bc 82a7 c6bc
000002c0: 2bf0 36bc 2063 17bd 784f acbc faa1 6abd
000002d0: 1199 663d 642a a13c 14dc 53bd 0ac5 eabc
000002e0: 176a e93c 030f 28bd c30d 2e3d f6d0 e63c
000002f0: 943f 6dbd 93b1 653c d014 c13b 4abb 6d3d
00000300: b023 ccbc d7d9 91bc 5431 7a3d b33a 28bd
00000310: 066c fb3b dc36 823d d53a 51bd 13ec 983d
00000320: 413d a83d 1f1f 7f3d 2c0a a9bc cf6b 863d
00000330: 5d9b 53bd 066e 33bd 4ad3 a93c 9f30 193b
00000340: d841 3b3d 8d75 883d cbf1 5abd 0f4b 4c3d
00000350: 78ed 263d 3e22 0c3d e6d3 253d 9610 80bc
00000360: 2858 40bd accd 6e3d 748a ddbc e36e 533d
00000370: 7961 90bd 314a 5dbc 45de c339 b94e a3bb
00000380: cd13 82bc b288 a83c 0675 d7bc de36 96bc
00000390: ad28 963d 7db1 72bd bd8e 223c 6609 ddbc
000003a0: a932 713d 5912 9d3d a8d6 4abb 540c 13bd
000003b0: 07cd 40bd 33fd 4a3d 51bf a2bc 99e1 7d3d
000003c0: 4148 223d 8374 5b3d 0804 093d 7f6c 23bd
000003d0: 7787 de3c 424d b0bc 940f 4b3d 6e3c 1ebc
000003e0: f951 34bc 80f0 69bd 34f3 a2bd 6c91 9f3c
000003f0: 97ae 323c abcb e43b cea6 853d 5059 16bd

EDMoE.gate.fc0.weight f4 [10, 8]
-0.3349925 -0.31679025 0.20471555 -0.20878638 0.25840017 0.11016339 0.08874773 0.28086722
-0.3274948 0.25890544 0.11465654 -0.23691952 0.086023785 -0.09853516 -0.1419129 -0.038291045
-0.16668804 0.30916005 0.30430415 -0.037716243 -0.3135229 -0.021628793 0.023359427 0.23632252
0.011375265 0.102900304 0.093810156 -0.20060673 -0.21930446 -0.31599545 -0.0027763816 0.1095059
-0.02513933 0.3431823 -0.067444734 -0.23070312 0.05892597 -0.09956455 -0.04846841 0.34257552
-0.010144325 0.30884364 0.04721547 -0.13152957 0.25921094 -0.2013942 0.011697984 0.07946961
0.15868685 -0.3262094 0.017343808 -0.09154194 0.22923212 0.11895088 0.14170314 0.21257745
-0.07915389 -0.022651993 0.2836395 -0.28496018 -0.24438307 0.025864214 -0.14005224 0.020248357
0.31231493 -0.040985197 -0.30145183 -0.16071744 0.32469168 -0.07767192 -0.15502533 0.15914376
0.043768574 -0.3117208 0.29443455 0.19909467 0.30730334 0.15471472 -0.119201906 -0.11541653
00000000: 2384 abbe 5532 a2be f4a0 513e 19cc 55be
00000010: 074d 843e 589d e13d 5fc1 b53d d4cd 8f3e
00000020: 66ad a7be 418f 843e 0cd1 ea3d 089b 72be
00000030: 3d2d b03d cdcc c9bd 9e51 11be 12d7 1cbd
00000040: 45b0 2abe 3a4a 9e3e c1cd 9b3e 597c 1abd
00000050: 1386 a0be de2e b1bc 455c bf3c 88fe 713e
00000060: 525f 3a3c 65bd d23d 8a1f c03d da6b 4dbe
00000070: 5991 60be 28ca a1be f4f3 35bb a144 e03d
00000080: fff0 cdbc 97b5 af3e 7720 8abd 703d 6cbe
00000090: 5c5c 713d 80e8 cbbd d086 46bd 0f66 af3e
000000a0: 6234 26bc c120 9e3e 0265 413d b0af 06be
000000b0: 4cb7 843e 483a 4ebe e7a8 3f3c f6c0 a23d
000000c0: ce7e 223e eb04 a7be 9a14 8e3c 577a bbbd
000000d0: d3bb 6a3e 859c f33d a11a 113e e7ad 593e
000000e0: 6f1b a2bd ac90 b9bc 3239 913e 4de6 91be
000000f0: 8e3f 7abe 30e1 d33c db69 0fbe e2df a53c
00000100: bee7 9f3e 18e0 27bd e557 9abe 1d93 24be
00000110: fd3d a63e 7512 9fbd f6be 1ebe 95f6 223e
00000120: ad46 333d de99 9fbe 20c0 963e 79df 4b3e
00000130: dd56 9d3e 896d 1e3e 2120 f4bd 805f ecbd

EDMoE.gate.fc0.bias f4 [10]
0.1713398 -0.06853769 0.06931538 -0.34258905 -0.17476933 0.13132654 -0.017429788 -0.16997103
-0.30839312 0.22470436
00000000: b373 2f3e 7d5d 8cbd 39f5 8d3d d567 afbe
00000010: bbf6 32be 777a 063e eac8 8ebc e30c 2ebe
00000020: b4e5 9dbe e618 663e

EDMoE.gate.fc1.weight f4 [10, 8]
0.012197 -0.0067682783 -0.0014582194 0.014569489 0.014379995 0.006333167 -0.006480228 0.015723683
-0.0011430426 -0.021946745 -0.0070220563 -0.009441775 -0.010221594 -0.013119884 -0.023912974 -0.021713061
-0.036304418 -0.003601664 -0.013648602 -0.019071944 -0.020971037 -0.020729166 -0.014566342 -0.014510779
0.005398013 0.0091331825 0.01341462 -0.0036839407 0.004989718 0.0008787561 0.01605638 -0.00497903
-0.015286529 -0.015242322 -0.0064767282 -0.026726803 -0.004405127 -0.009785593 -0.013144601 -0.0016380472
0.006231744 -0.0024409033 -0.0028159174 0.007988652 -0.001499792 0.0018600345 0.0014147434 0.003471738
-0.00519052 0.0075377733 0.014991263 0.019994482 0.005412822 0.0005332433 0.0053204168 -0.001163999
-0.024038896 0.020510623 0.014218474 -0.0038883009 -0.009227008 0.002054701 0.0097223 0.009617537
0.042935297 -0.0050654947 0.00047111942 0.013974521 0.020782106 0.026390955 0.019203678 0.021552173
0.0047847754 0.0009786992 -0.017147826 -0.0009018572 -0.017454464 -0.0110231815 -0.0031020883 -0.02861846
00000000: edd5 473c 6fc8 ddbb b921 bfba deb4 6e3c
00000010: 129a 6b3c 7586 cf3b 1858 d4bb f4ce 803c
00000020: 25d2 95ba a9c9 b3bc 4719 e6bb adb1 1abc
00000030: 7978 27bc c8f4 56bc 24e5 c3bc 97df b1bc
00000040: f1b3 14bd e509 6cbb 639e 5fbc c43c 9cbc
00000050: 74cb abbc 36d0 a9bc aba7 6ebc 9ebe 6dbc
00000060: d1e1 b03b 58a3 153c ffc8 5b3c 456e 71bb
00000070: ca80 a33b 535c 663a ab88 833c 2227 a3bb
00000080: 5a74 7abc efba 79bc bc3a d4bb 2bf2 dabc
00000090: e258 90bb c053 20bc 745c 57bc beb3 d6ba
000000a0: a833 cc3b 90f7 1fbb 418b 38bb d6e2 023c
000000b0: ab94 c4ba 67cc f33a e96e b93a 1986 633b
000000c0: 3d15 aabb 6dff f63b ea9d 753c 78cb a33c
000000d0: 0b5e b13b 5ac9 0b3a e456 ae3b 5391 98ba
000000e0: 38ed c4bc e505 a83c 9af4 683c ddd2 7ebb
000000f0: e02c 17bc 2aa8 063b 484a 1f3c e092 1d3c
00000100: ecdc 2f3d 73fc a5bb 9400 f739 64f5 643c
00000110: 3c3f aa3c d831 d83c 0851 9d3c 2f8e b03c
00000120: 9bc9 9c3b b247 803a 9979 8cbc 9d6a 6cba
00000130: aafc 8ebc 939a 34bc 684c 4bbb 4371 eabc

EDMoE.gate.fc1.bias f4 [10]
0.24062452 -0.19108135 0.31076172 -0.1747721 -0.3350193 0.15705673 -0.19778612 -0.048411306
-0.09104363 -0.039653108
00000000: 4666 763e d4aa 43be 291c 9f3e 75f7 32be
00000010: a687 abbe 7bd3 203e 7288 4abe ef4a 46bd
00000020: 1575 babd 4c6b 22bd

EDMoE.expertnet.0.conv1_1.conv.weight f4 [8, 8, 3, 3]
-0.09383393 -0.12253057 0.0505055 -0.031594068 -0.07047709 -0.004767204 -0.13216399 0.014621518
0.043202575 0.116470724 -0.09425387 -0.0074851518 0.06721968 0.10707518 -0.07882945 0.06519044
0.049262732 0.07489046 -0.07906112 0.090999804 -0.050092157 -0.07780706 0.023198497 0.10137601
-0.07681957 0.0543517 -0.006923325 0.038950313 0.08712597 0.040533997 -0.097005494 -0.03517499
0.03601509 -0.101645306 0.010886685 -0.04882642 -0.03149765 0.062913716 -0.09534948 -0.043516643
0.053288344 -0.11322214 0.09054713 -0.08194682 0.007637133 0.03609273 0.051947303 -0.06255236
0.024068048 0.050307367 0.09805734 -0.09673332 -0.08040824 0.037563775 0.009250823 -0.0722235
-0.09316715 -0.10779373 -0.081754655 -0.06281301 -0.07937145 -0.114642866 0.008923208 0.08500424
-0.05710034 0.027681692 0.004173612 0.05461311 -0.066738784 -0.0011794537 0.109424435 0.09485957
-0.12390833 -0.024658479 0.007140232 -0.037992578 -0.076761626 -0.09266646 0.061761893 -0.039983213
-0.017028166 0.023089467 -0.08180156 0.0018981802 0.06752382 -0.068312354 0.019204447 0.0020805267
0.07067907 0.07034097 0.02641055 -0.00013119358 -0.1008041 0.036321364 0.07122938 -0.06643893
-0.1335989 0.0809264 -0.028641205 0.021334376 -0.022328809 0.074212074 0.10535279 0.07323717
-0.03637141 0.08115756 0.06865032 0.013501025 -0.10270404 -0.06966231 -0.12258103 0.072637625
0.115492135 0.06314715 0.044052664 0.018398345 0.118694894 -0.06561191 -0.039487503 -0.10126819
-0.01762632 0.008014025 0.033236157 -0.07695491 -0.009173956 -0.09705594 -0.10824003 0.011955526
-0.13265282 0.022649275 -0.10763059 -0.09144634 -0.02957575 -0.10215443 0.09030451 0.08371735
-0.053453155 0.030165587 0.046893068 0.03712973 -0.016882164 -0.10975187 0.0803297 -0.09690252
-0.045868985 -0.012507778 -0.043907687 -0.05869399 -0.10097772 -0.0017154267 -0.022971964 0.0980824
-0.05411868 0.090103306 0.009675719 -0.041008953 -0.02271331 -0.0132588 -0.0064035975 -0.009487344
0.029837571 0.09724971 0.020529272 0.036825918 0.08903325 0.037205637 0.053859074 0.06801121
0.11875714 -0.1000897 0.05849184 -0.0013380648 -0.023604417 -0.019553881 0.057658855 0.10688061
-0.08086937 0.057033047 0.06898034 0.010597392 0.016684804 0.08816 0.004122944 -0.023817688
-0.008627739 0.039655603 0.031697795 -0.015279617 0.04786671 0.038588874 -0.09196054 0.04202876
0.07233213 0.013398904 -0.007575747 0.09189639 -0.12252727 -0.06852803 -0.06385764 0.09481752
-0.113496915 0.003116802 -0.113177106 -0.0093528945 0.03041709 -0.036986534 0.11056804 0.019051444
-0.064552 0.037120953 0.047697976 -0.00023212639 0.10250201 -0.055871278 0.054621827 0.05186568
0.053660244 0.0003744717 0.03107702 -0.09574531 -0.09169101 -0.027416576 -0.018605923 0.08596944
0.09177449 0.08547813 -0.04708861 -0.09515718 -0.09190947 0.042283766 -0.09916443 -0.10384881
-0.041553646 -0.11382338 -0.05616415 -0.09427797 -0.06587215 0.10178531 -0.022017762 0.09133768
-0.012938422 -0.024260778 -0.030388296 -0.07769221 -0.10248154 0.0940962 -0.046846367 -0.113910094
0.11289591 0.004870381 -0.06298493 -0.09245486 -0.09084036 -0.106187746 0.11050805 0.090567045
00000000: 012c c0bd 4ff1 fabd dbde 4e3d c868 01bd
00000010: 4b56 90bd 3536 9cbb ff55 07be 178f 6f3c
00000020: 2ff5 303d 3488 ee3d 2c08 c1bd 0146 f5bb
00000030: 79aa 893d 3b4a db3d 5671 a1bd 9182 853d
00000040: b8c7 493d 2b60 993d ccea a1bd 1b5e ba3d
00000050: 6f2d 4dbd 4f59 9fbd c60a be3c 3a9e cf3d
00000060: 9453 9dbd e39f 5e3d 0fdd e2bb 5d8a 1f3d
00000070: 1a6f b23d fa06 263d d1aa c6bd a613 10bd
00000080: 8f84 133d 6a2b d0bd 115e 323c 36fe 47bd
00000090: ae03 01bd e8d8 803d 9746 c3bd 823e 32bd
000000a0: e144 5a3d 02e1 e7bd c670 b93d bcd3 a7bd
000000b0: ea40 fa3b f8d5 133d b2c6 543d 741b 80bd
000000c0: 5b2a c53c 190f 4e3d 49d2 c83d 1e1c c6bd
000000d0: 13ad a4bd 79dc 193d c490 173c eae9 93bd
000000e0: 6bce bebd f6c2 dcbd fc6e a7bd 1ba4 80bd
000000f0: 808d a2bd e1c9 eabd a632 123c b416 ae3d
00000100: 0ce2 69bd b7c4 e23c ccc2 883b ffb1 5f3d
00000110: 58ae 88bd e697 9aba eb19 e03d bc45 c23d
00000120: a7c3 fdbd 9400 cabc 9bf8 e93b 1b9e 1bbd
00000130: 3335 9dbd eac7 bdbd 0afa 7c3d 70c5 23bd
00000140: a77e 8bbc 1f26 bd3c 9487 a7bd 5ccc f83a
00000150: ee49 8a3d 59e7 8bbd a552 9d3c 7259 083b
00000160: 30c0 903d ed0e 903d f05a d83c 0291 09b9
00000170: 6172 cebd b6c5 143d b6e0 913d 2211 88bd
00000180: 26ce 08be bebc a53d f6a0 eabc 6ec5 ae3c
00000190: e8ea b6bc 80fc 973d 34c3 d73d 5ffd 953d
000001a0: 30fa 14bd ef35 a63d 8a98 8c3d 6733 5d3c
000001b0: 7f56 d2bd 1dab 8ebd c30b fbbd 09c3 943d
000001c0: 2487 ec3d 4b53 813d 9170 343d 20b8 963c
000001d0: 4f16 f33d 895f 86bd a6bd 21bd b265 cfbd
000001e0: 1265 90bc 424d 033c a322 083d 899a 9dbd
000001f0: 5c4e 16bc 44c5 c6bd f3ac ddbd 1ce1 433c
00000200: 24d6 07be f98a b93c 6d6d dcbd 3848 bbbd
00000210: d848 f2bc 5736 d1bd 92f1 b83d 0174 ab3d
00000220: b2f1 5abd d21d f73c f212 403d 5815 183d
00000230: 774c 8abc 97c5 e0bd e683 a43d d474 c6bd
00000240: 1ee1 3bbd 6ced 4cbc 8cd8 33bd 1c69 70bd
00000250: 68cd cebd 2bd8 e0ba b32f bcbc 6ddf c83d
00000260: 8dab 5dbd 1588 b83d e886 1e3c 01f9 27bd
00000270: 4311 babc 703b 59bc 45d5 d1bb ce70 1bbc
00000280: ec6d f43c db2a c73d 012d a83c c6d6 163d
00000290: 1157 b63d f064 183d 559b 5c3d 7649 8b3d
000002a0: f236 f33d d4fb ccbd 2495 6f3d 0162 afba
000002b0: 0d5e c1bc 762f a0bc b12b 6c3d 39e4 da3d
000002c0: d79e a5bd 7c9b 693d 9145 8d3d afa0 2d3c
000002d0: 92ae 883c 3b8d b43d c319 873b 501d c3bc
000002e0: 5c5b 0dbc ea6d 223d 8cd5 013d 5c57 7abc
000002f0: e20f 443d 5e0f 1e3d cf55 bcbd 5926 2c3d
00000300: de22 943d 1487 5b3c f93d f8bb 2d34 bc3d
00000310: 94ef fabd 6c58 8cbd cbc7 82bd b02f c23d
00000320: 1271 e8bd 4343 4c3b 66c9 e7bd e23c 19bc
00000330: 432d f93c 317f 17bd 7f71 e23d c611 9c3c
00000340: d733 84bd 240c 183d f45e 433d f466 73b9
00000350: 93ec d13d 48d9 64bd 23bb 5f3d 1b71 543d
00000360: d8ca 5b3d be54 c439 3c95 fe3c 1e16 c4bd
00000370: 7fc8 bbbd ba98 e0bc 736b 98bc bf10 b03d
00000380: 44f4 bb3d 280f af3d fcdf 40bd c5e1 c2bd
00000390: 083b bcbd be31 2d3d b816 cbbd afae d4bd
000003a0: 2834 2abd 3b1c e9bd 610c 66bd cf14 c1bd
000003b0: fae7 86bd d174 d03d 985e b4bc 400f bb3d
000003c0: adfb 53bc 8abe c6bc e0f0 f8bc 181d 9fbd
000003d0: d7e1 d1bd 82b5 c03d fae1 3fbd b249 e9bd
000003e0: f935 e73d b897 9f3b 3efe 80bd f958 bdbd
000003f0: 830a babd f678 d9bd 0b52 e23d 377b b93d

EDMoE.expertnet.0.conv1_1.conv.bias f4 [8]
0.094211414 -0.056015905 0.008906674 -0.04585376 -0.08974673 0.0615579 0.09364228 -0.063469216
00000000: eaf1 c03d ef70 65bd 4ced 113c 27d1 3bbd
00000010: 22cd b7bd 2324 7c3d 86c7 bf3d 26fc 81bd

EDMoE.expertnet.0.conv1_2.conv.weight f4 [8, 8, 3]
0.08507682 0.044723373 0.054462485 0.10264335 0.18976031 0.16928555 -0.17629923 -0.087460846
0.09835879 -0.12426383 0.02584719 -0.1280127 0.028767185 0.127589 0.06360554 0.14500438
-0.0128844 0.09433265 0.07609708 -0.05434208 -0.143071 0.18171959 -0.06940335 0.123747624
0.111845635 -0.00049222686 -0.17865604 0.013187232 -0.08402759 0.06635273 -0.0845307 0.16748846
-0.19954287 -0.05841794 0.013278128 0.01743011 0.16382077 -0.06503922 -0.15797067 0.11984081
0.04592457 0.13748047 -0.11077702 -0.11738421 -0.085510634 -0.009393007 0.05605448 -0.12178166
-0.04352109 -0.043829266 0.18718088 -0.08549734 0.20767295 -0.11255572 -0.09958501 -0.15023129
0.13935043 -0.16393496 0.056654643 -0.07027823 0.21917579 0.032164905 -0.18207997 0.02997908
0.018985413 -0.17945747 0.027989525 0.18941122 0.04048357 0.0057607335 -0.054405745 0.08359291
-0.09259165 0.2142821 0.15809092 0.10700695 -0.066241026 -0.17066486 -0.12583123 0.18805338
-0.20837952 -0.20340094 -0.028295936 0.064573355 -0.19796519 -0.19916944 -0.0052140006 -0.06833697
0.12504293 0.06339476 -0.16971977 -0.19180015 0.13211025 -0.028914465 -0.095115006 0.044280812
-0.033051576 0.114546195 0.07550836 -0.07650085 -0.16481023 0.08618205 -0.14109081 -0.021196704
-0.002826914 -0.12067647 0.08239354 -0.16898623 0.05542014 0.0127790915 0.0571667 -0.19145104
0.0056761554 0.089965165 -0.13538462 0.0520038 -0.013046857 0.18030208 -0.030863207 0.0136665935
-0.093408786 -0.045974474 0.06378813 -0.1925383 0.16234453 0.15278699 0.065016374 0.15822828
-0.0850081 0.03405314 0.030866148 -0.1476233 -0.06482477 -0.06781497 -0.06820159 -0.19732022
-0.1338423 -0.024896437 -0.034802318 -0.16128165 0.04544062 0.09657212 0.1620428 0.18063392
-0.14068532 -0.065927446 -0.122534305 0.041729428 0.06835911 0.060435228 0.12095914 0.10767283
-0.10295231 0.16708872 0.14444776 0.012278847 -0.18866669 -0.112606004 0.07481504 0.07269938
0.20476152 0.101971425 0.081966124 0.0012468225 0.15041064 -0.06276623 0.082946576 -0.1118941
-0.0001268635 0.12310622 0.0914135 -0.052567355 0.0032653832 -0.107241265 0.09690482 0.14935564
0.04452435 -0.18911646 -0.15556239 0.14232755 -0.025332542 0.11960541 0.13917819 -0.06131439
-0.13731481 -0.18314911 0.07990795 0.09954714 -0.028050564 -0.17995246 -0.14701086 -0.014462749
00000000: c13c ae3d db2f 373d 0e14 5f3d ad36 d23d
00000010: 8750 423e 3159 2d3e c987 34be ac1e b3bd
00000020: 5570 c93d 097e febd 7cbd d33c c315 03be
00000030: 29a9 eb3c b1a6 023e 9f43 823d 077c 143e
00000040: 1719 53bc 7a31 c13d c9d8 9b3d cd95 5ebd
00000050: 3481 12be b314 3a3e 5823 8ebd 656f fd3d
00000060: 530f e53d c908 01ba 9cf1 36be 430f 583c
00000070: a816 acbd f1e3 873d 6f1e adbd 1882 2b3e
00000080: f754 4cbe a647 6fbd 818c 593c 97c9 8e3c
00000090: a2c0 273e 4833 85bd 10c3 21be 196f f53d
000000a0: 671b 3c3d aec7 0c3e 10df e2bd 2267 f0bd
000000b0: 3320 afbd 20e5 19bc 6299 653d aa68 f9bd
000000c0: 2c43 32bd 5186 33bd 58ac 3f3e 3b19 afbd
000000d0: 38a8 543e 9d83 e6bd 3af3 cbbd 3bd6 19be
000000e0: e1b1 0e3e 91de 27be b30e 683d 08ee 8fbd
000000f0: 9e6f 603e 59bf 033d 2c73 3abe b096 f53c
00000100: 4c87 9b3c b3c3 37be 4a4a e53c 04f5 413e
00000110: 1ad2 253d 89c4 bc3b 8fd8 5ebd c232 ab3d
00000120: b1a0 bdbd c46c 5b3e 96e2 213e 7626 db3d
00000130: 60a9 87bd c5c2 2ebe e7d9 00be 1191 403e
00000140: 7161 55be 5648 50be e1cc e7bc 093f 843d
00000150: 63b7 4abe 13f3 4bbe 35da aabb 41f4 8bbd
00000160: 410b 003e 1dd5 813d 05cb 2dbe 4267 44be
00000170: e947 073e 07de ecbc a8cb c2bd cc5f 353d
00000180: 1761 07bd 3297 ea3d 21a4 9a3d 7aac 9cbd
00000190: 03c4 28be 3780 b03d 1c7a 10be b6a4 adbc
000001a0: bf43 39bb 3a25 f7bd f2bd a83d ba0a 2dbe
000001b0: 3b00 633d 655f 513c a127 6a3d be0b 44be
000001c0: 0bff b93b a83f b83d 44a2 0abe f001 553d
000001d0: 7cc2 55bc 1ca1 383e d6d4 fcbc d9e9 5f3c
000001e0: 1b4d bfbd bb4f 3cbd 5aa3 823d c328 45be
000001f0: a53d 263e 3174 1c3e 4e27 853d 9806 223e
00000200: ba18 aebd 4e7b 0b3d 01db fc3c 902a 17be
00000210: d9c2 84bd 93e2 8abd 46ad 8bbd 500e 4abe
00000220: f50d 09be 9df3 cbbc e08c 0ebd 0427 25be
00000230: f21f 3a3d 9bc7 c53d 8cee 253e 19f8 383e
00000240: d00f 10be f804 87bd 44f3 fabd 7aec 2a3d
00000250: dcff 8b3d ee8a 773d 6db9 f73d 9383 dc3d
00000260: a9d8 d2bd 4e19 2b3e 1dea 133e 382d 493c
00000270: d731 41be fa9d e6bd a138 993d 6ae3 943d
00000280: 01ad 513e 65d6 d03d dbdd a73d 6c6c a33a
00000290: 3f05 1a3e 958b 80bd e5df a93d bc28 e5bd
000002a0: a906 05b9 1d1f fc3d 0037 bb3d de50 57bd
000002b0: 0a00 563b 4fa1 dbbd 0976 c63d aff0 183e
000002c0: 2a5f 363d bfa7 41be bf4b 1fbe 50be 113e
000002d0: 3186 cfbc aef3 f43d ba84 0e3e cc24 7bbd
000002e0: 419c 0cbe 718b 3bbe c7a6 a33d 5fdf cb3d
000002f0: 4cca e5bc 7545 38be 048a 16be 2af5 6cbc

EDMoE.expertnet.0.conv1_2.conv.bias f4 [8]
0.09210998 -0.06787613 -0.13082667 -0.14105237 0.18115295 0.07296204 -0.16402341 -0.12531795
00000000: 28a4 bc3d a402 8bbd 6df7 05be 0870 10be
00000010: 2980 393e 1f6d 953d c1f5 27be 5953 00be
