cls_param/Augsburg/IDNet_Augsburg.pkl (torch, 775312 bytes, 316 tensors)

encoder_pos_embed1 f4 [1, 16, 6, 6]
0	0xbf4c5818	-0.7982192
1	0x3e88a964	0.26691735
2	0xbf5262c5	-0.8218196
3	0x3f825798	1.0182981
4	0x3f91bd41	1.1385881
5	0xbf80d7a7	-1.0065812
6	0x3fb49c11	1.4110128
7	0x400f5ce5	2.2400448
8	0x3ed614ab	0.41812643
9	0xbfa1f906	-1.2654121
10	0x3f35b304	0.7097628
11	0xbeed6263	-0.46364126
12	0xbf6429c7	-0.8912625
13	0x3f0c33e0	0.54766655
14	0xbf142078	-0.57862043
15	0x3f3c818f	0.7363519
16	0xbfa9dbd1	-1.3270208
17	0xbfb703b4	-1.4298005
18	0xbfaee274	-1.3662858
19	0x3e72f467	0.23726045
20	0xbe6eac82	-0.23307994
21	0xbf5bd6ba	-0.8587452
22	0xc00c4f66	-2.192346
23	0xbf04a1f3	-0.51809615
24	0xbed0aca0	-0.40756702
25	0xbfda01a0	-1.7031746
26	0x3edb422c	0.42823923
27	0xbe137f95	-0.14404137
28	0xbf74065d	-0.9532221
29	0x3f8ca2a6	1.0987136
30	0x3f4df087	0.8044514
31	0x3f9dd637	1.2330998
32	0x3f57cfcc	0.8430145
33	0x3e27c789	0.1638471
34	0x3e300a83	0.1719151
35	0x3d1dcc75	0.038525064
36	0x3f3cad05	0.73701507
37	0xbf159f98	-0.58446646
38	0xbe0a0fb2	-0.1348255
39	0x3fd89202	1.6919558
40	0x3f8bc716	1.0920131
41	0xbf94702a	-1.159673
42	0xbe706ce3	-0.23479037
43	0x3ce17ed3	0.027526295
44	0x3f63cefb	0.889877
45	0xc0108911	-2.2583659
46	0xbe2abf8a	-0.16674629
47	0xbd288019	-0.04113779
48	0xbfc6bbc7	-1.5526055
49	0xbe52a4a0	-0.20570612
50	0xbec0e0a2	-0.3767138
51	0x3ede896d	0.43464223
52	0xbfc8b35a	-1.5679734
53	0xc01bcab8	-2.434248
54	0x3f048fcd	0.5178192
55	0xbe003806	-0.12521371
56	0x3f3d4df3	0.73947066
57	0x3fbcb5b3	1.474295
58	0xc012092e	-2.2818103
59	0x3efc1579	0.49235132
60	0xbdd3995e	-0.10331987
61	0xbe3a12a9	-0.18171181
62	0xbdec3f8c	-0.11535558
63	0x3ed4f2a5	0.41591373
64	0x3fe1566c	1.7604499
65	0x3f8c3716	1.0954311
66	0x3f851ca7	1.0399369
67	0x3f443385	0.7664111
68	0xbf6ba534	-0.92048955
69	0xbde094f9	-0.10965914
70	0x3fb8b8c1	1.4431382
71	0xbfcf688d	-1.6203781
72	0xbfa90ba6	-1.320668
73	0x403adf22	2.919869
74	0xbdb1e431	-0.08686102
75	0x3ed9489d	0.42438212
76	0x3e17bb32	0.14817503
77	0xbd8be57e	-0.068308815
78	0x3f29c2fb	0.6631314
79	0xbec0a354	-0.3762461
80	0xbf2b8245	-0.6699565
81	0xbf0b6171	-0.5444556
82	0x3e5093b1	0.2036884
83	0x3f241557	0.6409506
84	0x3f0d76a5	0.5525916
85	0x3fc5f824	1.5466352
86	0x3fae48d1	1.3615972
87	0x3eb055a6	0.34440345
88	0x3ecea6e5	0.40361705
89	0xc00dd228	-2.215952
90	0x3e6669fe	0.2250137
91	0x3c5ab9d4	0.013349969
92	0x3fb72feb	1.4311498
93	0x3e8f7535	0.2801911
94	0x3f4ee708	0.80821276
95	0xbf4cdd84	-0.80025506
96	0xbfd95faa	-1.6982319
97	0xbfa777e8	-1.3083467
98	0xbe14ee96	-0.14544138
99	0xc015fe86	-2.3436599
100	0x401d1229	2.4542334
101	0x3df5cf14	0.12002388
102	0xbf8d7caf	-1.1053675
103	0xbe22d2a0	-0.1590066
104	0xbf2ae8bc	-0.66761374
105	0xbf84b85e	-1.0368764
106	0x401f002d	2.4843857
107	0x3fe619b0	1.7976589
108	0xbe51c05d	-0.20483537
109	0xbf6a1a48	-0.9144635
110	0xbf7ff39c	-0.99981093
111	0xbfbb4efd	-1.463348
112	0xbf0022a9	-0.5005289
113	0xbf2573a5	-0.64629585
114	0x3e8631a7	0.26209757
115	0xbc79dbcf	-0.01525016
116	0x3c62db5d	0.013846246
117	0xbf80353f	-1.001625
118	0x3e4b62b9	0.19861878
119	0xbf9a0a39	-1.203437
120	0xbef1d36f	-0.47231624
121	0x3f0ae965	0.5426238
122	0xbf83343f	-1.0250319
123	0xbf616039	-0.8803745
124	0x3fee69e7	1.8626069
125	0x3f87a7e9	1.0598117
126	0xbfd3a6c2	-1.6535265
127	0x3f5f6956	0.87270105
128	0xbe10786b	-0.14108436
129	0xbee0b7bd	-0.4389018
130	0x3fae9131	1.3638059
131	0xbd0934e7	-0.033497717
132	0x3f267cef	0.65034384
133	0xbf852a33	-1.0403503
134	0xbda30a6d	-0.07960973
135	0xbfb78816	-1.4338405
136	0xbfbd1000	-1.4770508
137	0x3f3dad7c	0.7409284
138	0xbf3747d0	-0.7159395
139	0x3ee90c52	0.45517212
140	0x3f923f51	1.1425573
141	0x3ff0159d	1.8756596
142	0xbfeb4e44	-1.838326
143	0xbe285f32	-0.16442564
144	0x3f440d1d	0.7658251
145	0x3daa1774	0.083052546
146	0xbfb8016a	-1.4375432
147	0x3c3862be	0.011254011
148	0xbf9b23fe	-1.2120359
149	0xbf978176	-1.1836383
150	0xbf81e4e2	-1.0147974
151	0x3ea1a190	0.31568575
152	0xbf814415	-1.0098902
153	0xbde00eb5	-0.10940305
154	0xbfe1009e	-1.7578313
155	0xbefd739d	-0.49502268
156	0xbd0bb496	-0.034107767
157	0x3f234171	0.6377173
158	0x3f9ff78b	1.2497419
159	0x3eb2bcd3	0.34909686
160	0xbf9a41f7	-1.2051381
161	0xbc343561	-0.010999055
162	0x3f969548	1.1764307
163	0xbf4234f7	-0.7586207
164	0xbf2e201a	-0.68017733
165	0x3ebbb1c4	0.36659062
166	0xbf13be3d	-0.57712156
167	0x3e08e666	0.1336914
168	0x3f4949fc	0.78628516
169	0xbc772b7a	-0.015086049
170	0xbf5f3885	-0.87195617
171	0xbf837940	-1.0271378
172	0x3da23682	0.07920553
173	0xbff49a10	-1.9109516
174	0x3f9fc5bd	1.248222
175	0x3f9aaec2	1.2084582
176	0xbe995546	-0.2994787
177	0x3eff8f42	0.49913985
178	0xbf3744b2	-0.71589196
179	0x3f3250fe	0.69654834
180	0x3df4bf2a	0.11950524
181	0xbf6571b1	-0.89626604
182	0x3f5f7541	0.8728829
183	0x3f293e41	0.66110617
184	0xbf4440f6	-0.7666162
185	0xbf3c392b	-0.7352473
186	0xbeb9c526	-0.36283225
187	0x3e091033	0.13385086
188	0xbfdb2eee	-1.7123697
189	0xbf371ffe	-0.7153319
190	0xbf946a2e	-1.1594903
191	0xbf8eca56	-1.1155498
192	0x3e9d8970	0.3076892
193	0xbec642c2	-0.38722807
194	0x3f394b69	0.7238069
195	0xbf6ac0f7	-0.9170069
196	0xbfdb034e	-1.7110384
197	0xc00fa2bd	-2.2443078
198	0xbf868f19	-1.051242
199	0xbfc520eb	-1.5400671
200	0x3f6921d7	0.9106726
201	0xbf31506c	-0.6926334
202	0xbf14203b	-0.5786168
203	0xbf95a9ec	-1.1692481
204	0xbfbded16	-1.4837978
205	0x3e629fa0	0.22131205
206	0xbe230803	-0.15921025
207	0xbf5d6e91	-0.86496836
208	0xc0277f18	-2.6171322
209	0x3fad5e91	1.3544484
210	0xbf347332	-0.70488274
211	0x3dced99c	0.101000994
212	0x3e717052	0.23578003
213	0x3d9dac91	0.0769893
214	0x3fbcf259	1.4761459
215	0x3f805141	1.0024797
216	0x3e6d1348	0.23151886
217	0xbfdcdfaa	-1.7255757
218	0xbf234f7f	-0.63793176
219	0x3e2244af	0.15846513
220	0x3eb95964	0.36201012
221	0xbf1b2de4	-0.606169
222	0xbfc55ab9	-1.5418311
223	0x3fd7bb44	1.6854024
224	0xbecaaee3	-0.39586553
225	0xbdfcb477	-0.123391084
226	0x3fb35906	1.4011543
227	0x3e91272a	0.28350192
228	0x3fcd8e81	1.6059114
229	0xbfb9f736	-1.4528568
230	0x3e543185	0.20722015
231	0x3fc2dc7a	1.5223534
232	0x3fa0b293	1.2554497
233	0xbe0f3c99	-0.1398796
234	0x3e0127c5	0.12612827
235	0x3fbbfde1	1.4686853
236	0x3f8bb906	1.091584
237	0x3e5ebbb4	0.2175129
238	0xbddb81ca	-0.10718115
239	0xbf48d79c	-0.78453994
240	0xbe2d21e4	-0.1690746
241	0x3e4b8893	0.19876318
242	0xbedcad60	-0.43101025
243	0x3ea2ea35	0.3181931
244	0xbe6c74f9	-0.23091497
245	0xbfcd1306	-1.602143
246	0xbe2763cb	-0.16346662
247	0xbec3ffa4	-0.38280976
248	0xbf2f8baa	-0.68572485
249	0xbf3dbb0c	-0.74113536
250	0xbfc70da4	-1.5551038
251	0x3e994fa6	0.2994358
252	0x3f966e3e	1.1752393
253	0xbe61dd3e	-0.22057053
254	0x3d32199e	0.04348146
255	0xbeb44e64	-0.35216057

encoder_pos_embed2 f4 [1, 32, 3, 3]
0	0xc00055b2	-2.0052304
1	0x3eb5ba94	0.3549391
2	0xbde32f01	-0.1109295
3	0x3f184b71	0.59490114
4	0xbf0e2179	-0.55519825
5	0xbc1258f4	-0.008932341
6	0xbe7166df	-0.23574398
7	0x3e12d682	0.1433964
8	0xbea3054d	-0.31839982
9	0xbfa7f176	-1.3120563
10	0xbe680e10	-0.22661614
11	0x3f9ea6a6	1.2394607
12	0x3f1544f2	0.5830833
13	0xbfd9e7c7	-1.7023858
14	0x3d865c71	0.065606005
15	0x3f343c30	0.7040434
16	0xbf24c895	-0.64368564
17	0xbe9acf79	-0.30236414
18	0x3e5e7c9b	0.2172722
19	0xbeb42146	-0.35181636
20	0x3f0b72e0	0.5447216
21	0x3f0114b9	0.50422245
22	0x3f37dd25	0.71821815
23	0x3c49e0f3	0.0123216985
24	0x3f82578d	1.0182968
25	0x3e4291c8	0.19000924
26	0xbfe47338	-1.7847662
27	0xbee0f0bf	-0.43933675
28	0x3fedd4e5	1.8580595
29	0xbc777308	-0.015103109
30	0x3e99be20	0.30027866
31	0xbf5abbcb	-0.854428
32	0xbfdb68bd	-1.7141339
33	0xbf5cfcda	-0.8632332
34	0x3f0ed2bb	0.557903
35	0x3ee16b8c	0.44027364
36	0xbed70a4b	-0.4200004
37	0xbf3fc473	-0.7490913
38	0x3e7da721	0.24770786
39	0x3e889da2	0.26682764
40	0xbf0941d2	-0.5361606
41	0xbf2a3f2f	-0.6650266
42	0x3fec5828	1.8464403
43	0x3f145245	0.57938033
44	0x400317e8	2.0483341
45	0xbfe28a16	-1.769839
46	0xbf93b2cf	-1.1538943
47	0xbe89410d	-0.26807442
48	0x3ff94401	1.9473878
49	0xbf868bc9	-1.0511409
50	0x3f2c117d	0.67214185
51	0xbc1e3ad3	-0.0096575795
52	0xbf893ad7	-1.0721081
53	0xbf90661c	-1.1281161
54	0x3ea9bf52	0.33153778
55	0xbe12afdc	-0.14324898
56	0xbe923d4c	-0.2856239
57	0x3f8c7e69	1.0976077
58	0xbec4613b	-0.3835543
59	0xbe30d2f2	-0.17267969
60	0xbe563867	-0.20919953
61	0x3ea8b01a	0.32946855
62	0xc0074c70	-2.1140404
63	0xbe815e59	-0.25267294
64	0xbfa6a6ff	-1.3019713
65	0xbfcb5077	-1.5883931
66	0xbf399d91	-0.7250605
67	0xbf0102c4	-0.50394845
68	0x3ebc9994	0.3683592
69	0xbd33efae	-0.04392975
70	0x3ffbc75c	1.9670215
71	0xbf64d560	-0.89388084
72	0x3fc6e90d	1.5539871
73	0x3d0dd498	0.034626573
74	0xbe0939d2	-0.13400963
75	0xbf204be4	-0.626158
76	0xbfaa53c9	-1.3306819
77	0x3fd09a71	1.6297132
78	0x3e17fab5	0.14841731
79	0xbeef53a8	-0.46743512
80	0x3f059630	0.5218229
81	0xbf566c08	-0.8375859
82	0xbf602ef7	-0.8757166
83	0xbd360363	-0.044436824
84	0x3e28b84a	0.1647655
85	0xbf53496d	-0.82533914
86	0x3c2ecde7	0.010669208
87	0xbeb04871	-0.34430268
88	0xbfb0ac76	-1.3802631
89	0x3f02e8e3	0.51136607
90	0xbf2b8ca5	-0.6701148
91	0xbf0ca15b	-0.5493371
92	0xbd805332	-0.06265868
93	0x3ff59c14	1.9188256
94	0x3f20da9c	0.6283357
95	0xbfc61fdc	-1.5478473
96	0xbf5cb7c4	-0.86217904
97	0x3ef8a2b7	0.48561642
98	0xbfcaa28e	-1.5830858
99	0xbf1ce6cf	-0.61289686
100	0xbff801ae	-1.9375513
101	0xbc06155e	-0.008183805
102	0xbeba3ee6	-0.36376113
103	0xbff32565	-1.8995787
104	0xbf08160a	-0.5315863
105	0xbeec729b	-0.46181187
106	0xbfb57e74	-1.4179215
107	0x4003390f	2.0503576
108	0x3fec4d6b	1.8461126
109	0x3e9c7e8f	0.30565307
110	0xbf337773	-0.7010414
111	0xbfe4643b	-1.7843088
112	0x3e664d1c	0.22490352
113	0xbf1f72f4	-0.6228478
114	0x3fe29804	1.7702641
115	0xbf512225	-0.81692725
116	0xbf3f5001	-0.7473145
117	0xbe9d9c08	-0.30783105
118	0xbf38596f	-0.72011465
119	0xbf4c5aa1	-0.7982579
120	0xbe664cab	-0.22490184
121	0xbdb44d10	-0.08803761
122	0x3f6cf615	0.9256299
123	0xbdab2d97	-0.08358305
124	0xbdd00bbe	-0.1015849
125	0x3e11a386	0.14222535
126	0x3f5fffb9	0.87499577
127	0x3f4e9d2d	0.8070858
128	0x3f4aa49c	0.79157424
129	0x3eba0390	0.36330843
130	0xbfaa2588	-1.3292704
131	0xbbc15684	-0.005900206
132	0xbf088382	-0.53325665
133	0x3f83c4b7	1.0294408
134	0xbf4fbb36	-0.81145036
135	0x3fcae224	1.5850263
136	0x3e503869	0.20334019
137	0x3fa2b5f0	1.2711773
138	0xbf197619	-0.5994583
139	0xbfedf635	-1.8590761
140	0xbf4bd98c	-0.79628825
141	0x3fc3b841	1.5290605
142	0xbb95427b	-0.004555044
143	0x3f403de1	0.7509442
144	0xbf4345b2	-0.7627822
145	0xbe4cb840	-0.19992161
146	0x3d1e0296	0.038576685
147	0x3eb4befa	0.35301954
148	0xbf95d323	-1.1705059
149	0xbedbe828	-0.4295056
150	0xbf561ce3	-0.8363783
151	0x3f0029a9	0.5006357
152	0x4021dc4d	2.529071
153	0x3e36febf	0.17870615
154	0xbf97e3cc	-1.1866393
155	0xbfa08c68	-1.2542849
156	0xbdbcd4f3	-0.09220304
157	0x3f59ece9	0.8512712
158	0x3fb64236	1.4238956
159	0xbe71deb7	-0.23620115
160	0xbec1fc6e	-0.378879
161	0xc0249cdc	-2.572074
162	0xbe48175d	-0.19540162
163	0x3fad77d3	1.3552192
164	0xbed1ce0a	-0.40977508
165	0xbfb6a0d2	-1.4267828
166	0xbf33b17d	-0.701927
167	0xbb2f63cb	-0.0026762362
168	0x3f932920	1.1496925
169	0xbf8a8d97	-1.082446
170	0xbda9598c	-0.08269033
171	0x3d1ad72f	0.03780287
172	0xbf4fa03b	-0.8110387
173	0x3edcee3f	0.43150517
174	0xbeaacc2e	-0.33358902
175	0xbf520cd5	-0.8205083
176	0x3f06c755	0.52647907
177	0xbeaa82cf	-0.33302924
178	0xbe9b9174	-0.3038441
179	0x3f42b991	0.760644
180	0xbf5154d3	-0.81770056
181	0x3f221cb3	0.6332504
182	0xbefd6960	-0.49494457
183	0x3f33baae	0.70206726
184	0x3e988dc9	0.29795673
185	0xbf37d366	-0.71806943
186	0xc00ebba8	-2.2302036
187	0x3e215e27	0.15758573
188	0x3ee2bfbe	0.44286913
189	0xbe21b1aa	-0.1579043
190	0x3f2a4552	0.66512024
191	0x3f0612a2	0.5237218
192	0xbe2f220e	-0.17102835
193	0x3db8ab79	0.09017081
194	0x3f7b9ea5	0.9828895
195	0x4017492f	2.3638418
196	0x3f0f1409	0.55889946
197	0xbe8c8bb8	-0.27450347
198	0xbf28de66	-0.65964353
199	0xbdca6b8e	-0.09883796
200	0xbf93d3f9	-1.1549064
201	0x3fe047fb	1.7521967
202	0xbfc4f83a	-1.5388253
203	0x3f84d212	1.0376608
204	0x3f6c6bd8	0.92352057
205	0xbfb7fb42	-1.4373553
206	0xbd7adac9	-0.061243806
207	0x3d4d7e4d	0.050169278
208	0x3f5a8587	0.85359997
209	0xbda53936	-0.08067553
210	0x3ff60b43	1.9222187
211	0x3f826313	1.0186485
212	0xbe8d9548	-0.27652955
213	0xbecc7c39	-0.39938524
214	0x3f11832e	0.5684079
215	0x3eabd63a	0.3356188
216	0x3f1cc26e	0.61234176
217	0x3fbdf859	1.4841415
218	0xbdbd36d2	-0.09238972
219	0x3d914481	0.07093144
220	0xbe13b26f	-0.14423536
221	0x3f211c24	0.62933564
222	0x3f2a1a64	0.6644652
223	0x3f70b2e9	0.94022995
224	0x3ef732e0	0.48281002
225	0x3f16fec9	0.5898252
226	0x3d27bf1e	0.040953748
227	0xbfbfa631	-1.4972593
228	0x3f2690a4	0.65064454
229	0x3f38c831	0.7218047
230	0x3faf8499	1.371234
231	0xbf83b3a0	-1.0289192
232	0x3f2fd0c1	0.6867791
233	0xbfa56162	-1.2920344
234	0xbc23a7d0	-0.00998874
235	0x3e5bf1fe	0.21479031
236	0xbe568c3d	-0.20951934
237	0x3f9cbcae	1.224508
238	0x3f659e28	0.8969445
239	0xbeff801d	-0.4990243
240	0xbeb9b2a9	-0.3626912
241	0xbfbbf9d1	-1.4685613
242	0xbf1776ce	-0.59165657
243	0x3f3df50b	0.7420203
244	0xbf741473	-0.95343703
245	0xbeb3105e	-0.34973425
246	0x3f385068	0.7199769
247	0x3e0db050	0.13836789
248	0xbe8671cc	-0.26258695
249	0x3ed0c41b	0.40774617
250	0xbf06955e	-0.52571666
251	0xbf8a278d	-1.079332
252	0x3f3313b9	0.6995197
253	0xbfcfb748	-1.6227808
254	0xbea1f3c1	-0.31631282
255	0x3f8de647	1.10859

encoder_pos_embed f4 [1, 15, 36, 16]
0	0x3dd22bc4	0.10262254
1	0x3f956642	1.1671832
2	0x3fb01915	1.3757654
3	0xbdbaa0fe	-0.09112738
4	0x3eb3560f	0.35026595
5	0xbf078069	-0.52930313
6	0x3fbe23d4	1.4854684
7	0xbf06f818	-0.5272231
8	0x3d79aad4	0.06095393
9	0xbe59f199	-0.21283568
10	0x3fae261a	1.3605378
11	0xbf9b8dee	-1.2152689
12	0x3d421c44	0.047390237
13	0x3ff968f2	1.9485152
14	0xbf022d6e	-0.5085057
15	0x3f9f5d0c	1.2450271
16	0xbdf89e02	-0.121395126
17	0xbf5f3143	-0.8718454
18	0x3fa2633b	1.2686533
19	0xbf11c896	-0.56946695
20	0xbf8a9ce7	-1.0829133
21	0x3fad849a	1.3556092
22	0xbf3ec28c	-0.74515605
23	0xbed780d8	-0.42090487
24	0xbe98756e	-0.29777092
25	0xc014f34f	-2.3273504
26	0x3f8f1700	1.1178894
27	0xbc7c40e1	-0.015396328
28	0xbf00b98e	-0.50283134
29	0xbf7a3564	-0.9773772
30	0x3eb19a31	0.3468795
31	0xbecea175	-0.40357557
32	0xbe89527f	-0.26820752
33	0xc0077aed	-2.1168778
34	0x3f577e3c	0.84176993
35	0x3ee95028	0.45568967
36	0xbfc9f003	-1.5776371
37	0xbe6e7b2f	-0.23289178
38	0x3f059a72	0.5218879
39	0xbfd2f798	-1.648181
40	0xbfcb8b48	-1.590188
41	0x3e8afd29	0.2714627
42	0xbfadfeb0	-1.359335
43	0xbf0e1a65	-0.55509025
44	0x3fecd2cb	1.8501829
45	0xbf872104	-1.055695
46	0x3e21f87b	0.15817444
47	0x3f3769d9	0.71645886
48	0x3fa94cf7	1.3226613
49	0x3f3e08a0	0.7423191
50	0x3f026d45	0.5094798
51	0x3e236d88	0.15959752
52	0xc02eeaf0	-2.7330894
53	0x3debe802	0.11518861
54	0x40028eca	2.0399652
55	0x3f8b456a	1.0880558
56	0x3e90c222	0.28273112
57	0x3e9ca9ef	0.305984
58	0x3ea20298	0.31642604
59	0x3f5e9a3e	0.86954105
60	0x3fc01b92	1.5008414
61	0xbf98cda9	-1.1937762
62	0x3f2b1c3f	0.66839975
63	0xbec1eba6	-0.37875098
64	0x3e97c8f1	0.29645494
65	0x3f6211b8	0.88308287
66	0x3fa1f013	1.265139
67	0x3f9ca2bb	1.2237161
68	0x3e0a2f40	0.13494587
69	0x3fa57074	1.2924943
70	0x3ec028a1	0.37530997
71	0xbf8cf51d	-1.1012303
72	0xc0070dbb	-2.110213
73	0xbeb91c55	-0.36154428
74	0xbff245e9	-1.8927585
75	0x3f8447ef	1.0334452
76	0xbf7b22e7	-0.9810013
77	0xbf30bd41	-0.6903878
78	0x3e62119a	0.22077027
79	0x3f934077	1.1504048
80	0xbec10e61	-0.37706283
81	0x40140f3a	2.3134294
82	0xbd60233d	-0.054721106
83	0xbeb13ea9	-0.34618118
84	0x3e732f86	0.23748598
85	0x3e98783c	0.29779232
86	0xbf3f38db	-0.7469613
87	0xbf143ba7	-0.5790352
88	0x3f6302b4	0.88676
89	0x3f0cb8cb	0.5496947
90	0x3f44f441	0.769352
91	0xbed463d8	-0.41482425
92	0xbe8cdba5	-0.27511325
93	0xbfb2df48	-1.397439
94	0x4005ec79	2.0925581
95	0xbf854a0d	-1.0413224
96	0x3f931ce9	1.1493198
97	0xbee8370b	-0.45354494
98	0xbe14acb8	-0.14519012
99	0xbee8d670	-0.45476103
100	0x3fd5c442	1.6700518
101	0xbfac1a9e	-1.3445623
102	0xbf2823ef	-0.6567983
103	0xbe39eb9b	-0.18156283
104	0xbfc346df	-1.5256003
105	0xbeeccf5d	-0.46251956
106	0xbc80f549	-0.015741961
107	0x3fc8ab10	1.5677204
108	0xbfb42334	-1.4073243
109	0xbfbaf496	-1.4605892
110	0xbe9fd019	-0.31213453
111	0xbf46a3db	-0.77593774
112	0xbdb21e1d	-0.0869715
113	0x4007a326	2.1193328
114	0x3eb5110e	0.35364574
115	0xbf3a3161	-0.72731596
116	0x3f67e5ff	0.9058532
117	0xbe8114cb	-0.25211176
118	0x3f882987	1.0637673
119	0x4008a248	2.1349049
120	0xbfae393c	-1.3611217
121	0x3f924b9e	1.1429327
122	0x3ed7819b	0.4209107
123	0xbfb75c28	-1.4324999
124	0x3e94c011	0.29052785
125	0xbfd7fbdb	-1.6873735
126	0x3db532b9	0.08847565
127	0x3fd30abc	1.6487651
128	0x3f59e635	0.85116893
129	0xbf72f11c	-0.94899154
130	0x3f1e10f6	0.6174463
131	0xbfddbd97	-1.7323483
132	0x3ecc63c1	0.39919856
133	0xbf8287ba	-1.019767
134	0xbc7c4287	-0.015396721
135	0x3fb9d0c8	1.451684
136	0xbf40174a	-0.75035536
137	0x3fae7b8d	1.3631455
138	0xbcc5a254	-0.024125256
139	0x3ee7505e	0.45178503
140	0xbf17b123	-0.59254664
141	0xbfa18c85	-1.2621008
142	0xc01c5509	-2.4426901
143	0xbd4d5a2b	-0.05013482
144	0x3f618370	0.8809118
145	0xbfaba417	-1.3409451
146	0x3ee28a4c	0.44246137
147	0xbfe0a368	-1.7549868
148	0xbf2b72a6	-0.66971815
149	0xbe66dbf5	-0.22544844
150	0xbfd8184d	-1.6882416
151	0x3f9c0c16	1.2191188
152	0x3fad71c5	1.3550345
153	0xbe223895	-0.15841897
154	0xbff65b03	-1.9246525
155	0x3edd3745	0.4320623
156	0xbf5f5a11	-0.87246805
157	0x3f1f096b	0.62123746
158	0x3f429316	0.76005685
159	0x3e859a78	0.26094413
160	0x3f807666	1.0036132
161	0x3f4a144c	0.7893722
162	0xbdefbf02	-0.11706354
163	0x3de991d3	0.11404767
164	0x3db0d28f	0.08633911
165	0x3fb0eb60	1.3821831
166	0x3e60b757	0.21944939
167	0x3f92e26b	1.1475347
168	0x3f992ae1	1.1966211
169	0xbfab3d88	-1.3378153
170	0x3eb71d66	0.35764617
171	0x3f8fe69a	1.1242249
172	0xbf315f22	-0.69285786
173	0x3e9c713e	0.30555147
174	0xc0127772	-2.2885404
175	0xbfa6561e	-1.2995031
176	0xbf6f650d	-0.93513566
177	0xbed9385b	-0.42425808
178	0x3e5ac1f2	0.21363047
179	0xbe96c005	-0.29443374
180	0x3f86ef14	1.0541711
181	0x3f917dcb	1.1366514
182	0x3ed5b1cd	0.41737214
183	0xbfb0ccd3	-1.3812507
184	0xbeb4ba34	-0.35298312
185	0x3f90be02	1.1307986
186	0xbe8a45ed	-0.27006474
187	0xbfa44720	-1.2834206
188	0xbef2e914	-0.4744345
189	0x3fd67ed6	1.6757457
190	0xbf94489a	-1.1584656
191	0xbe46ac2b	-0.19401614
192	0x3f4c77fd	0.7987059
193	0xbe13537e	-0.14387318
194	0xbde5a0bf	-0.112123005
195	0xbf0fd09f	-0.56177706
196	0x3f22b506	0.6355747
197	0x3ee7c3e4	0.4526664
198	0xbd61dd8c	-0.055142924
199	0x3f929652	1.1452124
200	0xbedccc7f	-0.43124768
201	0x3fff0b2a	1.9925282
202	0xbe3b2453	-0.18275575
203	0x3f05f2d5	0.5232366
204	0xc0108904	-2.2583628
205	0xbfbe33b8	-1.4859533
206	0xbdc46a9a	-0.09590645
207	0x3f8860d2	1.0654547
208	0x3f4f4231	0.80960375
209	0xbedc3c66	-0.4301483
210	0xbe092094	-0.13391334
211	0x3f1c4fce	0.6105927
212	0xbd5e2a1e	-0.054239385
213	0x3ea74f60	0.32677746
214	0x3f721fce	0.9457978
215	0x3edab6d5	0.42717615
216	0x3ed309af	0.41218325
217	0xbf1367a7	-0.57580036
218	0x3f688ca2	0.9083959
219	0x3eae3b4b	0.34029612
220	0xbeec1b38	-0.46114516
221	0xbf601000	-0.87524414
222	0xbd91a8f9	-0.07112307
223	0x3d3aff62	0.04565371
224	0x3f581fe6	0.84423673
225	0x3f52c8e7	0.823378
226	0xbf9c2fbb	-1.2202066
227	0x3f732e92	0.94992936
228	0x3fe9245a	1.8214219
229	0x3d79362d	0.06084268
230	0x3f96166d	1.1725594
231	0xbfb9f0d2	-1.4526618
232	0x3fa0b56e	1.2555368
233	0x3e41dec0	0.18932629
234	0x3e3e14a1	0.18562557
235	0xbf96f8b2	-1.1794646
236	0x3fdc5d52	1.7215979
237	0xbf945c48	-1.1590662
238	0x3eee288b	0.46515307
239	0x3e1ed7fe	0.15512082
240	0xc0112215	-2.2677052
241	0xbe17604a	-0.14782825
242	0xbf83f669	-1.0309573
243	0x3f826bff	1.0189208
244	0x3fab7641	1.3395463
245	0x3f78b3ba	0.9714924
246	0xbdb5554f	-0.08854162
247	0x3ee1b3a1	0.44082358
248	0x3f8686c2	1.0509875
249	0x3f0099f2	0.502349
250	0xbff3600b	-1.9013685
251	0xbf29a8cb	-0.6627318
252	0x3ee31479	0.44351557
253	0x406eba36	3.7301154
254	0xbfc1100a	-1.508302
255	0xbd773bb0	-0.060359657

down1.body.0.weight f4 [8, 16, 3, 3]
0	0x3c928db8	0.017889842
1	0x3d89fdf2	0.06737889
2	0xbd72f895	-0.059319098
3	0xbd5e2eff	-0.054244038
4	0xbb366c36	-0.0027835495
5	0x3cd4071e	0.0258823
6	0x3d0d8b19	0.034556482
7	0x3d85f09f	0.065400355
8	0x3c8bf1bf	0.017083047
9	0x3d3dbe40	0.046324015
10	0xbd722d04	-0.05912496
11	0xbd040e14	-0.03223999
12	0xbde4b42e	-0.11167179
13	0xbd55db82	-0.052211292
14	0xbcded493	-0.027200973
15	0xbc1edcd4	-0.009696204
16	0x3d0e98a3	0.034813534
17	0x3d80496f	0.06264006
18	0xbd033a8b	-0.032038253
19	0xbc0c8ce0	-0.008578509
20	0x3d5a7fb2	0.053344436
21	0x3db1448e	0.08655654
22	0x3c7f6202	0.015587332
23	0x3dcbaa7b	0.09944626
24	0x3c9c65ee	0.019091573
25	0x3cf2f4ac	0.029657684
26	0x3de8b8ef	0.11363398
27	0xbdb00571	-0.08594788
28	0xbda68a77	-0.08131879
29	0xbd0556d9	-0.032553528
30	0xbd6db024	-0.05802931
31	0x3d4f80b3	0.050659847
32	0xbd845170	-0.064608455
33	0xbd6b45da	-0.057439663
34	0xbd8b17aa	-0.06791623
35	0xbdabce40	-0.083889484
36	0xbd6f1c0a	-0.05837635
37	0x3d7487cb	0.059699815
38	0x3cab0df0	0.02088067
39	0x3cbafe15	0.022826234
40	0x39294964	0.00016144436
41	0xbd9f8285	-0.077885665
42	0xbcceb611	-0.0252333
43	0xbddde7b5	-0.1083521
44	0xbda720fa	-0.08160587
45	0xbc976b6a	-0.018483836
46	0x3db6f797	0.08933943
47	0x3d948df1	0.07253636
48	0xbb9432fc	-0.0045226794
49	0x3c75fb75	0.015013565
50	0x3d8d3dd2	0.06896557
51	0x3dc0fcaf	0.094231956
52	0x3d782ffe	0.060592644
53	0x3c835a7d	0.01603436
54	0x3d68cab1	0.056833927
55	0xbdaaec19	-0.08345813
56	0xbbf59894	-0.0074949954
57	0xbdae9fe5	-0.08526591
58	0xbd9f23ef	-0.07770526
59	0xbd95a79f	-0.07307362
60	0x3cae74b0	0.021295875
61	0x3c8a8c37	0.016912563
62	0xbd8af5c7	-0.067851596
63	0x3cda5ad2	0.026654635
64	0x3d6ac26b	0.057314318
65	0xbbf07a43	-0.0073387935
66	0x3c3e03f1	0.011597619
67	0x3d29bb4f	0.041438397
68	0x3d80676f	0.062697284
69	0x3dcadb28	0.09905082
70	0xbd5a25a9	-0.05325857
71	0xbc8457e7	-0.016155196
72	0x3ca63a9c	0.020291619
73	0x3d975420	0.073890924
74	0x3d5da4dd	0.054112304
75	0x3da097e6	0.07841472
76	0x3b258c20	0.0025260523
77	0xbdaeb7a0	-0.085311174
78	0x3c966c76	0.018362265
79	0xbd5cfe2c	-0.053953335
80	0xbdc6d519	-0.09708614
81	0x3da50a8f	0.080586545
82	0x3da0371e	0.07823013
83	0xbd8e4b9f	-0.06948017
84	0x3cf56a0e	0.029957797
85	0x3c13ac95	0.009013315
86	0xbc058f12	-0.008151786
87	0x3b043b79	0.002017705
88	0x3d6360ce	0.055512242
89	0xbcbdea1a	-0.023182917
90	0x3d1686ff	0.036749836
91	0x3cb0a866	0.021564674
92	0x3d34ed61	0.044171695
93	0x3d4153d3	0.04719908
94	0xbd9846e4	-0.07435396
95	0xbd8eef91	-0.069792874
96	0x3d5474a1	0.05186904
97	0x3d067831	0.032829467
98	0xbdcabed9	-0.098996826
99	0xbd7d77b5	-0.06188174
100	0x3dbd0278	0.092289865
101	0x3d85c55b	0.06531783
102	0xbd11c052	-0.0355838
103	0xbc653a9e	-0.013991026
104	0xbdff137e	-0.1245489
105	0x3caef9a4	0.021359272
106	0xbd7b1e67	-0.06130829
107	0xbd840913	-0.06447043
108	0x3d0653b2	0.03279466
109	0x3c7ea229	0.015541592
110	0xbd62c4b5	-0.055363376
111	0x3d9f5874	0.07780543
112	0xbd46303b	-0.04838584
113	0x3d4ecfca	0.05049113
114	0x3da87d98	0.0822708
115	0xbd4bdbb8	-0.049770087
116	0xbd065347	-0.032794263
117	0x3cbfd19f	0.023415385
118	0x3cbd8b54	0.023137726
119	0x3bdcce11	0.006738432
120	0x3d12fd61	0.035886172
121	0x3c02f490	0.007992879
122	0xbd24d5dd	-0.04024302
123	0x3d706a9a	0.058695413
124	0xbdae34a7	-0.085061364
125	0xbc92c1f6	-0.017914753
126	0xbcd74285	-0.026276836
127	0xbd23f8c0	-0.04003215
128	0xbd10197b	-0.03518055
129	0xbd84f128	-0.064913094
130	0xbc8f9b53	-0.017530119
131	0x3cbefcc5	0.02331389
132	0xbd8110e7	-0.06302052
133	0xbcf22117	-0.029556794
134	0x3d9166c5	0.0709968
135	0xbcbd653d	-0.023119563
136	0xbc9e8880	-0.019352198
137	0xbbe0935b	-0.0068535036
138	0x3c97bd39	0.018522846
139	0x3d8709cb	0.06593665
140	0x3da091b5	0.078402914
141	0x3d924bac	0.071433395
142	0x3dd105a5	0.10206155
143	0xbba9ecf4	-0.0051857177
144	0xbd99b215	-0.075046696
145	0xbd6f6093	-0.05844171
146	0x3d87a8b6	0.06623976
147	0x3b223b27	0.0024754496
148	0xbd0ab8d0	-0.033867657
149	0xbdacd66c	-0.08439335
150	0xbdd2a4bc	-0.10285327
151	0xbdbdf00e	-0.092743024
152	0xbce4384c	-0.027858876
153	0x3da105b8	0.07862419
154	0x3da994c2	0.082803264
155	0xbda01574	-0.07816592
156	0x3d87155c	0.06595871
157	0xbdad47f6	-0.08460991
158	0xbce1c308	-0.027558818
159	0xbd3935c0	-0.045217276
160	0xbc00deea	-0.007865647
161	0xbbe3e296	-0.0069545014
162	0xbda7fe46	-0.08202796
163	0xbd9f2e7f	-0.0777254
164	0xbcd7295c	-0.026264839
165	0xbc1a7d95	-0.009429355
166	0xbd2a7819	-0.04161844
167	0x3a8ca954	0.0010731616
168	0xbd9f3a39	-0.07774777
169	0xbb6ed642	-0.0036443626
170	0x3d541361	0.051776294
171	0xbcab512f	-0.020912735
172	0x3dc71967	0.09721642
173	0x3d7029d4	0.05863364
174	0xbd69298f	-0.0569244
175	0x3da8bfeb	0.082397304
176	0x3d17d4f4	0.037068322
177	0xbc9059c4	-0.017620929
178	0x3dc9a1bf	0.09845304
179	0xbd25e0b5	-0.0404975
180	0xbbba1a22	-0.005679385
181	0xbcb841d6	-0.02249233
182	0x3d7861ef	0.06064027
183	0x3d43c265	0.04779281
184	0x3d46daf9	0.048548672
185	0x3d02c7fa	0.031928994
186	0xbc30f503	-0.010800603
187	0xbcae6b58	-0.02129142
188	0xbd8c799a	-0.06859131
189	0x3d7f4312	0.062319823
190	0x3d8bde35	0.06829492
191	0x3d9290a8	0.07156497
192	0xbd8f9987	-0.07011705
193	0x3aad2caa	0.0013212163
194	0xbd8bec06	-0.06832127
195	0xbd8f33ae	-0.06992279
196	0xbd8554be	-0.06510304
197	0x3a38a2cc	0.00070433016
198	0xbda51307	-0.0806027
199	0xbccc7c09	-0.024961488
200	0x3b6a08ae	0.003571074
201	0x3d1329a2	0.035928376
202	0xbd813515	-0.06308953
203	0xbd141381	-0.036151413
204	0xbcefc1fb	-0.029267302
205	0x3daa2372	0.08307542
206	0x3b62e924	0.0034623826
207	0x3dcc2612	0.09968199
208	0x3d602e90	0.054731905
209	0x3cc6f808	0.024288192
210	0x3cec5c5b	0.028852632
211	0xbbf62c22	-0.0075125853
212	0x3c191677	0.009343735
213	0xbb1c7513	-0.0023873493
214	0x3c70c53e	0.014695464
215	0xbb165877	-0.0022940913
216	0xbd75dfa3	-0.06002773
217	0xbd62d10b	-0.05537514
218	0x3dbab514	0.09116569
219	0xbd8a3716	-0.06748788
220	0x3c54720f	0.012966647
221	0x3dd11d17	0.102106266
222	0x3cc1f680	0.02367711
223	0x3cbaca82	0.022801641
224	0xbd7b9c1b	-0.06142817
225	0x3d07eef6	0.033186875
226	0xbd9c47c8	-0.07630879
227	0xbc9fbd06	-0.019499313
228	0xbc8c93f1	-0.017160388
229	0xba643fbe	-0.0008707008
230	0x3c892714	0.016742267
231	0x3dbd6afb	0.092489205
232	0x3d230d36	0.03980752
233	0x3db05cfe	0.08611487
234	0x3d2be8cb	0.041970056
235	0xbd547555	-0.05186971
236	0x3d068365	0.03284015
237	0xbd3ddcc1	-0.046353105
238	0xbcc0566f	-0.023478715
239	0x3d16b33a	0.036792018
240	0x3d05876c	0.03259985
241	0x3d6a3b98	0.05718574
242	0xbd08b2ec	-0.03337376
243	0x3d088794	0.033332422
244	0x3d4016b9	0.04689667
245	0xbd9d49b8	-0.07680076
246	0x3db0a023	0.08624294
247	0xbd863379	-0.065527864
248	0xbd195563	-0.037434947
249	0x3b280bab	0.002564172
250	0xbd77523e	-0.060381167
251	0xbcbec1c8	-0.023285761
252	0x3da69030	0.0813297
253	0xbcd8e730	-0.026477426
254	0xbd392ceb	-0.045208853
255	0xbd118321	-0.035525445

down2.body.0.weight f4 [8, 16, 3, 3]
0	0xbd55652d	-0.052098442
1	0xbc21e189	-0.009880432
2	0x3d7fed9c	0.06248246
3	0xbd74c220	-0.059755445
4	0xbd455794	-0.048179224
5	0x3d871ec3	0.06597664
6	0xbce35c0c	-0.027753852
7	0x3bdf1fc5	0.006809207
8	0xbdb9ead9	-0.09077997
9	0xbcff40dc	-0.031158857
10	0xbd3b2e9f	-0.04569876
11	0x3d57e898	0.052712053
12	0x3d149a3e	0.03627991
13	0xbd45d7d2	-0.048301525
14	0x3c35b710	0.011091009
15	0xbc7e5644	-0.015523497
16	0xbd21e314	-0.0395232
17	0xbd416d25	-0.04722323
18	0xbcf3d792	-0.029765878
19	0x3d828500	0.06373024
20	0xbd530776	-0.051520787
21	0xbd70aa03	-0.058755886
22	0xbc301314	-0.010746736
23	0x3c776c0b	0.015101443
24	0x3ccda18b	0.025101444
25	0x3c1e988a	0.009679923
26	0xbc3e09bb	-0.011599
27	0xbd2849a6	-0.04108586
28	0x3a4a0dc7	0.00077077415
29	0xbcd0e989	-0.025501983
30	0x3d9f7071	0.07785118
31	0xbd8c514c	-0.06851444
32	0xbcfcc0e3	-0.030853694
33	0xbd073e06	-0.033018135
34	0xb9cbe3ae	-0.00038888812
35	0x3d7fcb87	0.06244996
36	0x3da412fc	0.080114335
37	0xbd824113	-0.06360068
38	0xba00cf08	-0.00049136626
39	0x3d26ed83	0.040753853
40	0x3d3d941b	0.046283823
41	0x3d953d7f	0.0728712
42	0x3ac312da	0.0014882938
43	0xbd470df7	-0.048597302
44	0x3d33d96a	0.043908514
45	0xbcc22f60	-0.02370423
46	0x3d3873bd	0.04503225
47	0xbc8f94e0	-0.017527044
48	0x3d37f68a	0.044912852
49	0x3d9da275	0.07697002
50	0x3d9bb4a8	0.07602817
51	0xbd8161a1	-0.06317449
52	0xbd165558	-0.036702484
53	0xbd1cd77b	-0.038291436
54	0xbd45cf39	-0.048293326
55	0x3d8614b6	0.06546919
56	0xbcbf223d	-0.023331756
57	0xbd77ab50	-0.06046611
58	0xbd332de6	-0.043744944
59	0xbd54cc1b	-0.051952463
60	0x3d1d5e21	0.038419846
61	0xbd8fb949	-0.07017762
62	0xbd854b4d	-0.06508503
63	0xbdc1782e	-0.094467506
64	0x3cef16be	0.029185649
65	0x3d09f413	0.033680033
66	0xbd0efd2f	-0.034909423
67	0x3ca3800c	0.019958518
68	0x3d472c46	0.048626207
69	0x3b603e78	0.0034216922
70	0xbd162398	-0.03665504
71	0xbc01f304	-0.007931475
72	0xbc10122f	-0.008793398
73	0x3d0c238b	0.034213584
74	0xbd4accbe	-0.049511664
75	0x3d07202e	0.032989673
76	0x3ce64353	0.028108275
77	0xbd3cf835	-0.046135146
78	0x3d3e70df	0.04649436
79	0x3d81db4a	0.06340654
80	0xbd06e3e7	-0.03293219
81	0xbd049e8c	-0.032377765
82	0x3d207d21	0.039181832
83	0xbdbe2f2b	-0.0928634
84	0x3d185a0a	0.037195243
85	0x3c89cf75	0.016822556
86	0x3d106e90	0.03526169
87	0xbd3e89bb	-0.04651807
88	0xbd90cd52	-0.07070412
89	0x3d1826dd	0.037146438
90	0x3d23c91e	0.039986722
91	0xbd8ffce2	-0.070306554
92	0xbcef305c	-0.029197864
93	0xbd899812	-0.06718458
94	0xbd6ddd58	-0.058072418
95	0xbd0575e1	-0.03258312
96	0x3d66de90	0.056364596
97	0xbab95842	-0.0014140683
98	0x3d42d649	0.04756764
99	0x3d9db5c1	0.077006824
100	0x3cf6aa95	0.030110637
101	0xbd7eca31	-0.062204544
102	0x3d1f74bc	0.038929686
103	0x3c93516f	0.017983167
104	0x3d80fcb7	0.062982015
105	0xbd853812	-0.06504835
106	0x3d771ce1	0.060330275
107	0x3d941906	0.07231335
108	0xbda36812	-0.07978834
109	0x3c209a7f	0.00980246
110	0x3d495f24	0.049163
111	0xbd62b60b	-0.05534939
112	0x3cfc693f	0.030811904
113	0x3ceedd5c	0.029158287
114	0x3cfb91a3	0.030709093
115	0x3d8727b6	0.06599371
116	0x3d79cd12	0.060986586
117	0x3d8bb096	0.068207905
118	0xbbb58ad9	-0.0055402336
119	0x3d320b31	0.043467704
120	0xbd9d45c2	-0.07679321
121	0xbd097ba9	-0.033565197
122	0xbc5e2567	-0.013558722
123	0xbccab162	-0.024742786
124	0x3d707fcc	0.058715627
125	0x3cd8e259	0.026475118
126	0x3d5a4d87	0.053296592
127	0x3d6b817d	0.057496537
128	0xbd3b1cd3	-0.045681786
129	0x3bd2d6a6	0.0064342795
130	0x3bd542e9	0.0065082205
131	0x3cd6ced9	0.02622168
132	0x3d1b2528	0.03787723
133	0xbd004bb9	-0.031322215
134	0xbcbed778	-0.023296103
135	0x3d7eeda5	0.062238354
136	0xbd0f252f	-0.03494757
137	0xbd857032	-0.0651554
138	0x3d1e8fb8	0.03871128
139	0x3d538acb	0.051646035
140	0xbcd7f873	-0.026363587
141	0xbcf186f1	-0.02948329
142	0xbd84a775	-0.064772524
143	0xbd838f57	-0.06423824
144	0x3ca52e78	0.02016376
145	0xbd3ce15e	-0.046113364
146	0x3d54905e	0.05189549
147	0xbd4617d7	-0.04836258
148	0x3b4443e3	0.002994769
149	0x3c2fb566	0.010724401
150	0x3d230b5a	0.039805748
151	0x3d98c137	0.07458728
152	0x3d6b44b9	0.057438586
153	0x3d031ef7	0.032011952
154	0xbd2593ce	-0.04042416
155	0xbd59998a	-0.053124942
156	0xbd7163b6	-0.058932982
157	0x3c621c4e	0.013800694
158	0x3da03806	0.078231856
159	0x3b94e623	0.004544036
160	0xb8f166db	-0.00011510934
161	0xbd422092	-0.047394343
162	0x3cce208c	0.025162004
163	0x3d2e58bf	0.042565104
164	0xbdabf29f	-0.08395886
165	0xbd5d3407	-0.054004695
166	0x3d548275	0.051882226
167	0x3c54f066	0.012996769
168	0xb9d54609	-0.00040678706
169	0x3c26f8d0	0.010191157
170	0xbbf17c31	-0.007369541
171	0xbd6e33a0	-0.058154702
172	0xbd98b1dd	-0.074558
173	0x3d7d568e	0.061850123
174	0xbc03a46a	-0.008034805
175	0xbce487fc	-0.027896874
176	0xbc5efb03	-0.013609651
177	0xbd27932f	-0.04091185
178	0xbca63127	-0.02028711
179	0xbd5da561	-0.054112796
180	0x3d70ef5f	0.058822032
181	0x3ce7d6c8	0.028300658
182	0xbd396bca	-0.04526881
183	0xbd1f5067	-0.038895037
184	0x3cdde6c2	0.027087573
185	0xbd1ce5b7	-0.03830501
186	0x3d0886ec	0.033331797
187	0x3cf3d399	0.029763984
188	0xbd1815d1	-0.03713018
189	0x3c4b9430	0.012425467
190	0xbc2fb515	-0.010724326
191	0x3d92e936	0.07173388
192	0xbd06e480	-0.03293276
193	0xbc71954b	-0.014745067
194	0x3d977f95	0.07397381
195	0xbd764a4f	-0.06012946
196	0x3b397412	0.0028297943
197	0x3d83930b	0.064245306
198	0xbd10f6f6	-0.03539177
199	0x3da615e2	0.081096426
200	0x3dacf95b	0.08445998
201	0x3d5c624c	0.05380468
202	0xbca9eb85	-0.020742187
203	0x3da0ffd0	0.07861292
204	0xbd672730	-0.056433856
205	0xbd2d4976	-0.042306386
206	0x3c7f9c1d	0.015601185
207	0x3b8591c5	0.004076215
208	0x3d2e1d76	0.042508565
209	0x3d52264d	0.051306058
210	0xbd622f0f	-0.05522066
211	0x3d4cd4f0	0.05000776
212	0x3d20f002	0.03929139
213	0x3d36e36f	0.04465049
214	0x3d472568	0.048619658
215	0xbc950194	-0.01818923
216	0xbd69cc11	-0.05707938
217	0x3d796c22	0.06089414
218	0xbcbc8883	-0.023014313
219	0x3d2ac646	0.041692995
220	0xbd8a179d	-0.06742785
221	0xbc590dbd	-0.013247904
222	0xbaaabfac	-0.0013027093
223	0x3884e2b7	6.3364794e-05
224	0xbbe01f7e	-0.0068396917
225	0x3cd5d8aa	0.02610429
226	0xbca5a21a	-0.020218898
227	0xbb9ecb63	-0.004846023
228	0x3d940fd4	0.072295815
229	0xbd86b671	-0.06577767
230	0x3b56b181	0.003275961
231	0xbcd22a37	-0.025654895
232	0x3d94867e	0.07252215
233	0x3d9d581b	0.076828204
234	0x3aff62f3	0.0019484445
235	0xbc9dd569	-0.019266801
236	0xbd3179f3	-0.04332919
237	0x3d50af60	0.0509485
238	0xbc2bd1f6	-0.01048707
239	0x3d6c6c48	0.057720453
240	0x3d11f690	0.03563553
241	0x3d55938d	0.05214267
242	0x3d237d82	0.039914615
243	0xbd2864b6	-0.04111167
244	0x3cc4f25a	0.024041343
245	0xbd0948ab	-0.033516567
246	0x3d1fb296	0.038988672
247	0xbc29b3be	-0.010357795
248	0xbc1769d0	-0.009241536
249	0xbd660261	-0.056154612
250	0xbd7c9e4e	-0.06167441
251	0x3cb2f531	0.021845432
252	0x3c95323b	0.018212428
253	0x3c7b4e25	0.015338455
254	0x3d9e0530	0.07715833
255	0xbcc7357b	-0.024317494

EDMoE.gate.fc0.weight f4 [10, 8]
0	0xbeab8423	-0.3349925
1	0xbea23255	-0.31679025
2	0x3e51a0f4	0.20471555
3	0xbe55cc19	-0.20878638
4	0x3e844d07	0.25840017
5	0x3de19d58	0.11016339
6	0x3db5c15f	0.08874773
7	0x3e8fcdd4	0.28086722
8	0xbea7ad66	-0.3274948
9	0x3e848f41	0.25890544
10	0x3dead10c	0.11465654
11	0xbe729b08	-0.23691952
12	0x3db02d3d	0.086023785
13	0xbdc9cccd	-0.09853516
14	0xbe11519e	-0.1419129
15	0xbd1cd712	-0.038291045
16	0xbe2ab045	-0.16668804
17	0x3e9e4a3a	0.30916005
18	0x3e9bcdc1	0.30430415
19	0xbd1a7c59	-0.037716243
20	0xbea08613	-0.3135229
21	0xbcb12ede	-0.021628793
22	0x3cbf5c45	0.023359427
23	0x3e71fe88	0.23632252
24	0x3c3a5f52	0.011375265
25	0x3dd2bd65	0.102900304
26	0x3dc01f8a	0.093810156
27	0xbe4d6bda	-0.20060673
28	0xbe609159	-0.21930446
29	0xbea1ca28	-0.31599545
30	0xbb35f3f4	-0.0027763816
31	0x3de044a1	0.1095059
32	0xbccdf0ff	-0.02513933
33	0x3eafb597	0.3431823
34	0xbd8a2077	-0.067444734
35	0xbe6c3d70	-0.23070312
36	0x3d715c5c	0.05892597
37	0xbdcbe880	-0.09956455
38	0xbd4686d0	-0.04846841
39	0x3eaf660f	0.34257552
40	0xbc263462	-0.010144325
41	0x3e9e20c1	0.30884364
42	0x3d416502	0.04721547
43	0xbe06afb0	-0.13152957
44	0x3e84b74c	0.25921094
45	0xbe4e3a48	-0.2013942
46	0x3c3fa8e7	0.011697984
47	0x3da2c0f6	0.07946961
48	0x3e227ece	0.15868685
49	0xbea704eb	-0.3262094
50	0x3c8e149a	0.017343808
51	0xbdbb7a57	-0.09154194
52	0x3e6abbd3	0.22923212
53	0x3df39c85	0.11895088
54	0x3e111aa1	0.14170314
55	0x3e59ade7	0.21257745
56	0xbda21b6f	-0.07915389
57	0xbcb990ac	-0.022651993
58	0x3e913932	0.2836395
59	0xbe91e64d	-0.28496018
60	0xbe7a3f8e	-0.24438307
61	0x3cd3e130	0.025864214
62	0xbe0f69db	-0.14005224
63	0x3ca5dfe2	0.020248357
64	0x3e9fe7be	0.31231493
65	0xbd27e018	-0.040985197
66	0xbe9a57e5	-0.30145183
67	0xbe24931d	-0.16071744
68	0x3ea63dfd	0.32469168
69	0xbd9f1275	-0.07767192
70	0xbe1ebef6	-0.15502533
71	0x3e22f695	0.15914376
72	0x3d3346ad	0.043768574
73	0xbe9f99de	-0.3117208
74	0x3e96c020	0.29443455
75	0x3e4bdf79	0.19909467
76	0x3e9d56dd	0.30730334
77	0x3e1e6d89	0.15471472
78	0xbdf42021	-0.119201906
79	0xbdec5f80	-0.11541653

EDMoE.gate.fc0.bias f4 [10]
0	0x3e2f73b3	0.1713398
1	0xbd8c5d7d	-0.06853769
2	0x3d8df539	0.06931538
3	0xbeaf67d5	-0.34258905
4	0xbe32f6bb	-0.17476933
5	0x3e067a77	0.13132654
6	0xbc8ec8ea	-0.017429788
7	0xbe2e0ce3	-0.16997103
8	0xbe9de5b4	-0.30839312
9	0x3e6618e6	0.22470436

EDMoE.gate.fc1.weight f4 [10, 8]
0	0x3c459b6b	0.01206098
1	0xbc5ed6e9	-0.013601043
2	0xbc81afda	-0.015830923
3	0x3c85319c	0.016259007
4	0xbb37e0e4	-0.002805763
5	0x3bbbb834	0.005728746
6	0xbaee63e6	-0.0018187731
7	0x39a4331c	0.00031318597
8	0x3c3e9378	0.011631839
9	0xbc94fdea	-0.018187482
10	0xbd211f86	-0.039336704
11	0x3d157d48	0.03649643
12	0x3c865d07	0.01640178
13	0x3c41812b	0.011810581
14	0xbc637008	-0.013881691
15	0x3bdec808	0.006798748
16	0xbb45e4b9	-0.0030196144
17	0xbc5a3810	-0.01331903
18	0x3c2f1480	0.01068604
19	0xbcbe8dce	-0.023260977
20	0xbb8ce11f	-0.0042992975
21	0xbcd7f0cd	-0.02635994
22	0xbcd890fe	-0.026436325
23	0xbcafa3b6	-0.021440368
24	0xbc4eafd6	-0.012615165
25	0x3c89cbe9	0.016820865
26	0x3a542dc7	0.00080939796
27	0xbcc7374d	-0.024318362
28	0xbba9773a	-0.0051716836
29	0x3c16fb59	0.009215199
30	0x3cc5e94e	0.0241591
31	0x3bffc494	0.0078054164
32	0xbbe9b116	-0.007131706
33	0xbc9772ae	-0.0184873
34	0x3b8cd5d1	0.00429795
35	0xbce1a71e	-0.027545508
36	0x3b5208cb	0.0032048698
37	0xbca2886d	-0.019840444
38	0xbd0455a0	-0.03230822
39	0x3a575d07	0.0008215461
40	0xbb1ea35f	-0.0024206263
41	0x3b881ae3	0.004153596
42	0x3b35f599	0.0027764796
43	0xbb8ea376	-0.004352982
44	0xbc17b9aa	-0.009260574
45	0xbafefba6	-0.0019453659
46	0x3b992d5d	0.004674597
47	0xbad522a6	-0.0016260936
48	0x3c062a16	0.008188745
49	0xbad26a4a	-0.0016053405
50	0x3c5e766f	0.013578041
51	0x3d0a23cd	0.03372555
52	0xbc5c026b	-0.013428311
53	0xbb54706b	-0.003241564
54	0x3c414873	0.011797058
55	0xbc49d54f	-0.012318923
56	0x3b676057	0.0035305226
57	0x3c9a9753	0.018870985
58	0x3affd1b0	0.0019517448
59	0x3cb7e726	0.022449087
60	0x3bd25a8e	0.0064194864
61	0x3ca8f211	0.020623239
62	0x3c550929	0.013002672
63	0x3c88a0a6	0.016678166
64	0x3d00abcd	0.031413842
65	0x3c3c92d4	0.011509616
66	0x3cc89f6c	0.02449008
67	0xba490669	-0.00076684967
68	0x3d187098	0.037216753
69	0x3c78e60a	0.015191564
70	0xbbbbed72	-0.005735093
71	0x3cb857e6	0.02250285
72	0xbcc42235	-0.023942092
73	0x3c0703e8	0.008240677
74	0xbbe71c66	-0.007052946
75	0xbc0d6fb5	-0.00863259
76	0xbc4891c6	-0.012241786
77	0xbb57b04d	-0.003291148
78	0x3c9401b9	0.018067228
79	0xbc7e59b5	-0.0155243175

EDMoE.gate.fc1.bias f4 [10]
0	0x3e7299f6	0.23691544
1	0xbe35c778	-0.17751873
2	0x3ea0b3a2	0.3138705
3	0xbe382749	-0.17983736
4	0xbead9c0f	-0.33908126
5	0x3e234d2a	0.15947405
6	0xbe4f234f	-0.20228313
7	0xbd22bc73	-0.0397305
8	0xbdc18618	-0.094494045
9	0xbd0ab724	-0.033866063

EDMoE.expertnet.0.conv1_1.conv.weight f4 [8, 8, 3, 3]
0	0xbda6fe23	-0.081539415
1	0xbdd95bc7	-0.10613208
2	0x3d7695b5	0.060201366
3	0xbc5f2539	-0.013619714
4	0xbd905231	-0.07046927
5	0x3c367214	0.011135597
6	0xbdeb3be4	-0.114860326
7	0x3cdf7178	0.027275786
8	0x3d643444	0.055713907
9	0x3dccc8b7	0.09999221
10	0xbdba6c63	-0.091027044
11	0xbbdf13c5	-0.0068077766
12	0x3d778004	0.06042482
13	0x3ddb43ab	0.10706266
14	0xbd901ebf	-0.07037114
15	0x3d7531bf	0.059861895
16	0x3d6e30d3	0.05815203
17	0x3da0256f	0.0781964
18	0xbdb78903	-0.0896168
19	0x3dae3774	0.085066706
20	0xbd6d4564	-0.057927504
21	0xbda10de7	-0.0786398
22	0x3cbe0508	0.023195758
23	0x3dbd2615	0.09235779
24	0xbdb1ca8a	-0.086812094
25	0x3d4275c8	0.047475606
26	0xbce50b73	-0.027959561
27	0x3d211f2d	0.039336372
28	0x3dbaac0b	0.09114846
29	0x3d4c00b2	0.04980535
30	0xbdae4cda	-0.08510752
31	0xbd100f8c	-0.035171077
32	0x3d489ef2	0.048979707
33	0xbdc89660	-0.09794307
34	0x3ce75840	0.028240323
35	0xbd3d83dd	-0.046268333
36	0xbcf53c5b	-0.029936006
37	0x3d38df48	0.045134813
38	0xbdc88340	-0.09790659
39	0xbd78105a	-0.06056247
40	0x3d5a3e51	0.053282086
41	0xbddaf79a	-0.106917575
42	0x3daaad27	0.083338074
43	0xbdac4a8b	-0.084126554
44	0x3b894219	0.0041887877
45	0x3cc0e278	0.023545489
46	0x3d380bf5	0.044933278
47	0xbd8d10e3	-0.068879865
48	0x3cada435	0.021196464
49	0x3d4e095b	0.05030189
50	0x3df3708e	0.118867025
51	0xbdc60cfb	-0.096704446
52	0xbd6e733e	-0.058215372
53	0x3d2ae425	0.04172148
54	0x3a2d1af1	0.0006603441
55	0xbd9459bb	-0.07243677
56	0xbde1db67	-0.11028176
57	0xbdd43ced	-0.10363183
58	0xbda76a10	-0.08174527
59	0xbd38f6e5	-0.045157332
60	0xbda93725	-0.08262471
61	0xbde32fe2	-0.11093117
62	0x3a375723	0.00069938804
63	0x3da57e57	0.08080738
64	0xbd8aeb7b	-0.067831956
65	0x3cb4387c	0.02199959
66	0xb911620a	-0.000138648
67	0x3d5fab6f	0.05460685
68	0xbd8712e4	-0.065954
69	0xba710573	-0.00091942324
70	0x3dd4626e	0.103703365
71	0x3db04b35	0.086080946
72	0xbde5bbc3	-0.11217453
73	0xbc2a1c8c	-0.010382783
74	0x3c109e69	0.00882683
75	0xbced4d22	-0.028967444
76	0xbd9d3047	-0.07675224
77	0xbda70c8d	-0.08156691
78	0x3d905126	0.07046728
79	0xbcea9e4b	-0.028639933
80	0x3b773867	0.0037722827
81	0x3c07de2f	0.008292719
82	0xbdad54e2	-0.08463456
83	0xb8848955	-6.3198306e-05
84	0x3d787b6c	0.06066458
85	0xbd8be33f	-0.06830453
86	0x3c2d262c	0.010568183
87	0xbbf383d1	-0.007431485
88	0x3d6171f8	0.05504033
89	0x3d858a3b	0.06520506
90	0x3cb907e9	0.02258678
91	0x3bb3352a	0.005468984
92	0xbddfa253	-0.10919633
93	0x3d04a964	0.032388106
94	0x3d91dc9c	0.07122156
95	0xbd806df7	-0.06270974
96	0xbe04f4ee	-0.12984058
97	0x3d8901c6	0.066897914
98	0xbd050a92	-0.032480784
99	0x3b9e2c6d	0.0048270733
100	0xbc5c91bd	-0.013462481
101	0x3d9caaed	0.07649789
102	0x3dda52c4	0.106603175
103	0x3d95f945	0.07322935
104	0xbcbae51c	-0.022814326
105	0x3dace689	0.084424086
106	0x3d6e7c0b	0.058223765
107	0x3c68dc2a	0.014212647
108	0xbdeb5dd9	-0.114925094
109	0xbd9e9519	-0.07743282
110	0xbe03a8ae	-0.12857315
111	0x3d5221c4	0.051301733
112	0x3dec8094	0.11547962
113	0x3d3a55fc	0.045492157
114	0x3cfc697d	0.03081202
115	0x3be53993	0.006995389
116	0x3dbea12c	0.09308085
117	0xbd88a20b	-0.06671532
118	0xbd282739	-0.04105303
119	0xbdbb33e1	-0.091407545
120	0xbbeabbc0	-0.007163495
121	0x3c034928	0.008013047
122	0x3d327706	0.04357054
123	0xbd89a3ce	-0.067206964
124	0xb7c20a50	-2.3131404e-05
125	0xbdc5499f	-0.09633183
126	0xbdccd521	-0.100015886
127	0x3c4b24f5	0.012398948
128	0xbe08f153	-0.13373308
129	0x3c8c6bbc	0.017141216
130	0xbddc66dd	-0.10761807
131	0xbdb68a89	-0.08913142
132	0xbd14b804	-0.036308303
133	0xbdf6ef13	-0.120573185
134	0x3da827f6	0.08210747
135	0x3db71620	0.08939767
136	0xbd7f7bea	-0.062374033
137	0x3d152a70	0.036417425
138	0x3d6f4e87	0.0584245
139	0x3d18113e	0.03712582
140	0xbc5f56d5	-0.013631542
141	0xbde95168	-0.1139248
142	0x3db6b00c	0.08920297
143	0xbdd1eaa2	-0.10249831
144	0xbccca841	-0.024982573
145	0xbb0adb73	-0.002118793
146	0xbcf1295f	-0.029438673
147	0xbd5e3f38	-0.05425951
148	0xbdcec7aa	-0.10096677
149	0x3b0ed06e	0.0021791714
150	0xbcc6bc22	-0.02425963
151	0x3dbb1b8e	0.09136115
152	0xbd36561c	-0.044515714
153	0x3d94c4f4	0.07264128
154	0xbc58ce90	-0.013232842
155	0xbd81e3bf	-0.06342267
156	0xbcf1d928	-0.029522493
157	0xbc5934e0	-0.013257235
158	0xbb188ebf	-0.0023278443
159	0xbca0b6a9	-0.01961835
160	0x3d1664b3	0.036717128
161	0x3d9c14f1	0.07621182
162	0x3ca4a534	0.020098306
163	0x3d19c581	0.03754187
164	0x3dabf3c8	0.08396107
165	0x3d135a7e	0.035974972
166	0x3d5c94c5	0.053852815
167	0x3daf1628	0.08549148
168	0x3df169db	0.117877685
169	0xbddcb0cc	-0.10775909
170	0x3d829bac	0.06377348
171	0xbc3877c1	-0.01125902
172	0xbca65e2e	-0.02030858
173	0xbc6f208c	-0.014595162
174	0x3d67b856	0.05657228
175	0x3ddadda9	0.106868096
176	0xbdab6277	-0.0836839
177	0x3d89d092	0.06729235
178	0x3d95c20c	0.07312402
179	0x3ce37f19	0.027770566
180	0x3cbf1466	0.023325156
181	0x3d9da0f0	0.07696712
182	0x3c21ec27	0.009882963
183	0xbcf055c8	-0.029337779
184	0xbc0d5742	-0.008626761
185	0x3d62ca77	0.055368867
186	0x3d32b70d	0.043631602
187	0xbc1576d9	-0.009122574
188	0x3d394274	0.04522939
189	0x3c66d2a7	0.014088309
190	0xbde5b0e7	-0.11215382
191	0x3d11e6e5	0.03562059
192	0x3d7eaa77	0.062174287
193	0x3c5b8084	0.01339734
194	0xbc4116cf	-0.011785223
195	0x3dbb8b2a	0.09157403
196	0xbdd3259a	-0.10309906
197	0xbd7cd02f	-0.061721977
198	0xbd8a1406	-0.067421004
199	0x3dc989c4	0.0984073
200	0xbdfe4668	-0.12415773
201	0x3b97f690	0.004637547
202	0xbde7c2d6	-0.11316459
203	0xbbcca9ac	-0.0062458124
204	0x3d2dffb4	0.042480186
205	0xbd1bca1f	-0.038034555
206	0x3dd4bf98	0.10388106
207	0xbc7ac02b	-0.0153046055
208	0xbd838d6c	-0.064234585
209	0x3cfc8299	0.030823993
210	0x3cc87133	0.02446804
211	0xb9735f92	-0.00023209889
212	0x3db8595c	0.09001419
213	0xbd848bb6	-0.0647196
214	0x3d82c228	0.063846886
215	0x3d4e8a89	0.050425086
216	0x3d4f03db	0.050540786
217	0x3b9492fd	0.004534124
218	0x3cee0fb8	0.02906023
219	0xbdcd9869	-0.100388356
220	0xbdbbc2c1	-0.09168006
221	0xbc795311	-0.0152175585
222	0xbc8a26ba	-0.01686417
223	0x3dbdb596	0.092631504
224	0x3dbca238	0.09210628
225	0x3d9bc0c6	0.07605128
226	0xbd5c5f6d	-0.053801943
227	0xbdcdaf04	-0.10043147
228	0xbdc5b805	-0.096542396
229	0x3d2d2cd2	0.042279072
230	0xbde8adb1	-0.11361254
231	0xbdde0e45	-0.108425654
232	0xbd649b2f	-0.055812057
233	0xbdf72853	-0.12068238
234	0xbd265fbc	-0.040618643
235	0xbd8ac08f	-0.06775009
236	0xbd56abd2	-0.052409954
237	0x3de23505	0.11045269
238	0xbcb459ac	-0.022015415
239	0x3dc964d8	0.098336875
240	0x3c0a56e3	0.008443567
241	0xbc298477	-0.0103465235
242	0xbc97d734	-0.018535234
243	0xbdd35af1	-0.1032008
244	0xbde50287	-0.11182123
245	0x3d9ffb0a	0.07811554
246	0xbd43b184	-0.047776714
247	0xbde94322	-0.11389758
248	0x3dcf179a	0.101119235
249	0xbb5d8367	-0.0033800246
250	0xbd8bdf23	-0.06829669
251	0xbddd486e	-0.108048305
252	0xbdca61e0	-0.098819494
253	0xbde3bfc4	-0.11120561
254	0x3dd6c984	0.10487655
255	0x3da9f0a1	0.082978494

EDMoE.expertnet.0.conv1_1.conv.bias f4 [8]
0	0x3dc17904	0.0944691
1	0xbd631987	-0.055444267
2	0x3c15852d	0.00912599
3	0xbd3c6c80	-0.04600191
4	0xbdb80acf	-0.089864366
5	0x3d7e5e0e	0.062101416
6	0x3dbf7fcf	0.093505494
7	0xbd83645f	-0.06415629

EDMoE.expertnet.0.conv1_2.conv.weight f4 [8, 8, 3]
0	0x3dafc03d	0.085815884
1	0x3d2a86db	0.041632514
2	0x3d8fa953	0.07014718
3	0x3db1aad1	0.08675159
4	0x3e323647	0.17403518
5	0x3e1e04d8	0.15431535
6	0xbe33b7d2	-0.1755059
7	0xbd9f2ab1	-0.077718146
8	0x3df08a22	0.11745097
9	0xbe0b177f	-0.13583182
10	0x3cc370b6	0.023857456
11	0xbdf427f6	-0.119216844
12	0x3d2a7615	0.041616518
13	0x3dd7c612	0.10535826
14	0x3d6a7d87	0.05724862
15	0x3e13d357	0.14436089
16	0xbd2ab471	-0.04167599
17	0x3dbf295e	0.09334062
18	0x3db06977	0.08613866
19	0xbd8bbef9	-0.068235345
20	0xbe0c7a90	-0.13718629
21	0x3e3adf35	0.18249209
22	0xbd9a862e	-0.07545124
23	0x3e0cf8dc	0.13766807
24	0x3dff6982	0.12471296
25	0x3a85f6ea	0.0010220681
26	0xbe43e739	-0.19131173
27	0x3b155d73	0.0022791296
28	0xbdaf56d3	-0.08561482
29	0x3d7b5489	0.061359916
30	0xbda04ed8	-0.07827538
31	0x3e227062	0.15863183
32	0xbe4560ad	-0.1927516
33	0xbd9ebe05	-0.07751087
34	0x3c4bc62a	0.012437383
35	0x3cae5a05	0.021283159
36	0x3e2096c4	0.15682513
37	0xbd9a2d61	-0.075281866
38	0xbe171bc4	-0.14756685
39	0x3ddf9d47	0.1091867
40	0x3d3f2724	0.046668187
41	0x3e145e5f	0.14489125
42	0xbdcf3d2a	-0.10119088
43	0xbe055bc0	-0.13023281
44	0xbdaa49cd	-0.08314858
45	0xbbfe9182	-0.0077688107
46	0x3d85d77f	0.06535243
47	0xbdf28a97	-0.1184284
48	0xbd1a4c8a	-0.03767065
49	0xbd290747	-0.041266706
50	0x3e33c25d	0.17554612
51	0xbda8fb2f	-0.082510345
52	0x3e4c6ba7	0.19962941
53	0xbddc124e	-0.10745679
54	0xbdc1b6db	-0.09458705
55	0xbe279b69	-0.16367878
56	0x3e077919	0.13229789
57	0xbe390e16	-0.1807178
58	0x3d7277a3	0.059196126
59	0xbd96bb20	-0.0735991
60	0x3e64b1b7	0.22333418
61	0x3c40d733	0.0117700575
62	0xbe2c8d2e	-0.16850731
63	0x3c15971b	0.009130265
64	0x3c6cc34f	0.014450862
65	0xbe3cd68e	-0.18441221
66	0x3d28b84e	0.04119139
67	0x3e435eb8	0.19079101
68	0x3d83f3d7	0.06442993
69	0xbc9086db	-0.01764243
70	0xbd6d5856	-0.05794557
71	0x3da8b911	0.082384236
72	0xbdc14225	-0.09436444
73	0x3e49878d	0.19680615
74	0x3e27ea90	0.16398072
75	0x3dd6178f	0.10453712
76	0xbd6d0cc0	-0.057873487
77	0xbe27ca6b	-0.1638581
78	0xbdf45dff	-0.11931991
79	0x3e44f83f	0.19235323
80	0xbe4e3296	-0.20136485
81	0xbe5642c3	-0.20923905
82	0xbc91abb8	-0.017782077
83	0x3d90dba0	0.0707314
84	0xbe4c357d	-0.19942279
85	0xbe479f23	-0.194943
86	0xbc64334c	-0.013928246
87	0xbd9811a5	-0.074252404
88	0x3e0f3cfe	0.1398811
89	0x3d8d7dca	0.06908758
90	0xbe3573de	-0.17719981
91	0xbe451fbb	-0.19250385
92	0x3e04ff80	0.1298809
93	0xbd07eaf7	-0.033183064
94	0xbdb45415	-0.088051
95	0x3d597710	0.053092062
96	0xbd3136c7	-0.04326513
97	0x3df26917	0.118364505
98	0x3d70a806	0.05875399
99	0xbd9c4766	-0.07630806
100	0xbe2071d8	-0.15668428
101	0x3dbf339d	0.09336016
102	0xbdffc7c4	-0.12489274
103	0xbc4a6680	-0.0123535395
104	0x3cb99e74	0.022658564
105	0xbe01a5f9	-0.1266097
106	0x3ddfd412	0.10929121
107	0xbe19b0ec	-0.15008897
108	0x3d58f859	0.052971218
109	0x3c3d05fb	0.01153707
110	0x3d90eafd	0.070760705
111	0xbe57ee21	-0.21086933
112	0x3c814500	0.015779972
113	0x3dc054fb	0.09391209
114	0xbe0f1894	-0.1397422
115	0x3d674647	0.056463506
116	0x3c20f335	0.00982361
117	0x3e2d0e83	0.16900067
118	0xbcf28d58	-0.029608414
119	0x3c4b7ef4	0.012420405
120	0xbdb1044a	-0.08643396
121	0xbd8872fd	-0.06662557
122	0x3d7bca39	0.06147215
123	0xbe47d844	-0.19516093
124	0x3e225e0f	0.15856193
125	0x3e33b427	0.17549191
126	0x3d991a49	0.074757166
127	0x3e2155a2	0.15755323
128	0xbd971d9e	-0.07378696
129	0x3d15e7dc	0.03659807
130	0x3c86a87f	0.016437767
131	0xbe02643a	-0.12733546
132	0xbdbc0f57	-0.09182613
133	0xbd5eee88	-0.0544267
134	0xbd5ad92b	-0.053429764
135	0xbe49c5cd	-0.19704361
136	0xbe13d19f	-0.14435433
137	0xbc61fe8e	-0.013793601
138	0xbd5396ad	-0.051657367
139	0xbe31f0a2	-0.1737695
140	0x3d1ed59d	0.038777936
141	0x3de0d7a8	0.10978633
142	0x3e1eb242	0.15497687
143	0x3e22ba9d	0.158915
144	0xbe19dfba	-0.15026751
145	0xbd98066c	-0.074231
146	0xbdf07a67	-0.117420964
147	0x3d600538	0.054692477
148	0x3d991f3d	0.07476661
149	0x3d8e2f73	0.06942644
150	0x3de454c9	0.11148984
151	0x3de2c005	0.11071781
152	0xbdf05c5f	-0.117363684
153	0x3e2760a6	0.16345462
154	0x3e15dc56	0.14634833
155	0x3ce9f266	0.028557967
156	0xbe39b6d1	-0.18136145
157	0xbdd2bf6e	-0.102904186
158	0x3d99f9f3	0.07518377
159	0x3d868062	0.06567456
160	0x3e4c9c39	0.19981469
161	0x3dd43a7d	0.10362718
162	0x3d7d9809	0.06191257
163	0xbba7e01b	-0.005123151
164	0x3e06e87a	0.1317462
165	0xbd9aa878	-0.07551664
166	0x3da2db1d	0.07951949
167	0xbddcac8f	-0.107751004
168	0xbb3f8784	-0.002922506
169	0x3df9d914	0.121996075
170	0x3d99acfa	0.07503696
171	0xbd32d149	-0.04365662
172	0x3c3af73f	0.011411487
173	0xbe0003b8	-0.12501419
174	0x3dca39f5	0.09874336
175	0x3e093871	0.13400437
176	0x3d87aada	0.06624384
177	0xbe3c9c94	-0.18419105
178	0xbe18421a	-0.14868966
179	0x3e1355a2	0.14388135
180	0xbcdf9bab	-0.027295908
181	0x3e0c4ac8	0.13700402
182	0x3e140a8f	0.14457153
183	0xbd77471b	-0.060370546
184	0xbdeed076	-0.116608545
185	0xbe41769b	-0.188929
186	0x3dac8ab4	0.08424893
187	0x3dc92845	0.09822134
188	0xbcc15c36	-0.02360354
189	0xbe3541e8	-0.17700922
190	0xbe0d95c0	-0.13826656
191	0xbc973f6f	-0.018462865
